…
    (3): Linear(in_features=16, out_features=1, bias=True)
  )
  (fire): Sequential(
    (0): Dropout(p=0.2, inplace=False)
    (1): Linear(in_features=512, out_features=16, bias=True)
    (2): ReLU()
    (3): Linear(in_features=16, out_features=1, bias=True)
  )
)

Trainable parameters = 16450
Total parameters = 738946

==========================================================================================
Layer (type:depth-idx)                   Output Shape              Param #
==========================================================================================
PRETRAINED_SQUEEZENET                    [1, 2]                    --
├─Sequential: 1-1                        [1, 512, 13, 13]          --
│    └─Sequential: 2-1                   [1, 512, 13, 13]          --
│    │    └─Conv2d: 3-1                  [1, 64, 111, 111]         (1,792)
│    │    └─ReLU: 3-2                    [1, 64, 111, 111]         --
│    │    └─MaxPool2d: 3-3               [1, 64, 55, 55]           --
│    │    └─Fire: 3-4                    [1, 128, 55, 55]          (11,408)
│    │    └─Fire: 3-5                    [1, 128, 55, 55]          (12,432)
│    │    └─MaxPool2d: 3-6               [1, 128, 27, 27]          --
│    │    └─Fire: 3-7                    [1, 256, 27, 27]          (45,344)
│    │    └─Fire: 3-8                    [1, 256, 27, 27]          (49,440)
│    │    └─MaxPool2d: 3-9               [1, 256, 13, 13]          --
│    │    └─Fire: 3-10                   [1, 384, 13, 13]          (104,880)
│    │    └─Fire: 3-11                   [1, 384, 13, 13]          (111,024)
│    │    └─Fire: 3-12                   [1, 512, 13, 13]          (188,992)
│    │    └─Fire: 3-13                   [1, 512, 13, 13]          (197,184)
├─AdaptiveAvgPool2d: 1-2                 [1, 512, 1, 1]            --
├─Sequential: 1-3                        [1, 1]                    --
│    └─Dropout: 2-2                      [1, 512]                  --
│    └─Linear: 2-3                       [1, 16]                   8,208
│    └─ReLU: 2-4                         [1, 16]                   --
│    └─Linear: 2-5                       [1, 1]                    17
├─Sequential: 1-4                        [1, 1]                    --
│    └─Dropout: 2-6                      [1, 512]                  --
│    └─Linear: 2-7                       [1, 16]                   8,208
│    └─ReLU: 2-8                         [1, 16]                   --
│    └─Linear: 2-9                       [1, 1]                    17
==========================================================================================
Total params: 738,946
Trainable params: 16,450
Non-trainable params: 722,496
Total mult-adds (M): 265.06
==========================================================================================
Input size (MB): 0.60
Forward/backward pass size (MB): 19.36
Params size (MB): 2.96
Estimated Total Size (MB): 22.92
…
