…
    (bn72): BatchNorm2d(16, eps=1e-05, momentum=0.1, affine=True, track_running_stats=True)
    (relu72): ReLU()
    (conv73): Conv2d(16, 16, kernel_size=(1, 1), stride=(1, 1), bias=False)
    (bn73): BatchNorm2d(16, eps=1e-05, momentum=0.1, affine=True, track_running_stats=True)
    (relu73): ReLU()
    (conv74): Conv2d(16, 12, kernel_size=(1, 1), stride=(1, 1))
  )
)

Model Summary
==========================================================================================
Layer (type:depth-idx)                   Output Shape              Param #
==========================================================================================
SVD_BED_DETECTOR                         [1, 12, 7, 7]             --
├─Sequential: 1-1                        [1, 12, 7, 7]             --
│    └─Sequential: 2-1                   [1, 32, 224, 224]         --
│    │    └─Conv2d: 3-1                  [1, 5, 224, 224]          45
│    │    └─Conv2d: 3-2                  [1, 32, 224, 224]         480
│    └─BatchNorm2d: 2-2                  [1, 32, 224, 224]         64
│    └─ReLU: 2-3                         [1, 32, 224, 224]         --
│    └─Dropout2d: 2-4                    [1, 32, 224, 224]         --
│    └─MaxPool2d: 2-5                    [1, 32, 112, 112]         --
│    └─Sequential: 2-6                   [1, 16, 112, 112]         --
│    │    └─Conv2d: 3-3                  [1, 6, 112, 112]          576
│    │    └─Conv2d: 3-4                  [1, 16, 112, 112]         288
│    └─BatchNorm2d: 2-7                  [1, 16, 112, 112]         32
│    └─ReLU: 2-8                         [1, 16, 112, 112]         --
│    └─Dropout2d: 2-9                    [1, 16, 112, 112]         --
│    └─MaxPool2d: 2-10                   [1, 16, 56, 56]           --
│    └─Sequential: 2-11                  [1, 16, 56, 56]           --
│    │    └─Conv2d: 3-5                  [1, 3, 56, 56]            48
│    │    └─Conv2d: 3-6                  [1, 16, 56, 56]           48
│    └─BatchNorm2d: 2-12                 [1, 16, 56, 56]           32
│    └─ReLU: 2-13                        [1, 16, 56, 56]           --
│    └─Sequential: 2-14                  [1, 32, 56, 56]           --
│    │    └─Conv2d: 3-7                  [1, 16, 56, 56]           768
│    │    └─Conv2d: 3-8                  [1, 32, 56, 56]           1,536
│    └─BatchNorm2d: 2-15                 [1, 32, 56, 56]           64
│    └─ReLU: 2-16                        [1, 32, 56, 56]           --
│    └─Conv2d: 2-17                      [1, 32, 56, 56]           1,024
│    └─BatchNorm2d: 2-18                 [1, 32, 56, 56]           64
│    └─ReLU: 2-19                        [1, 32, 56, 56]           --
│    └─Sequential: 2-20                  [1, 64, 56, 56]           --
│    │    └─Conv2d: 3-9                  [1, 51, 56, 56]           4,896
│    │    └─Conv2d: 3-10                 [1, 64, 56, 56]           9,792
│    └─BatchNorm2d: 2-21                 [1, 64, 56, 56]           128
│    └─ReLU: 2-22                        [1, 64, 56, 56]           --
│    └─MaxPool2d: 2-23                   [1, 64, 28, 28]           --
│    └─Conv2d: 2-24                      [1, 32, 28, 28]           2,048
│    └─BatchNorm2d: 2-25                 [1, 32, 28, 28]           64
│    └─ReLU: 2-26                        [1, 32, 28, 28]           --
│    └─Sequential: 2-27                  [1, 64, 28, 28]           --
│    │    └─Conv2d: 3-11                 [1, 38, 28, 28]           3,648
│    │    └─Conv2d: 3-12                 [1, 64, 28, 28]           7,296
│    └─BatchNorm2d: 2-28                 [1, 64, 28, 28]           128
│    └─ReLU: 2-29                        [1, 64, 28, 28]           --
│    └─Conv2d: 2-30                      [1, 32, 28, 28]           2,048
│    └─BatchNorm2d: 2-31                 [1, 32, 28, 28]           64
│    └─ReLU: 2-32                        [1, 32, 28, 28]           --
│    └─Sequential: 2-33                  [1, 64, 28, 28]           --
│    │    └─Conv2d: 3-13                 [1, 32, 28, 28]           3,072
│    │    └─Conv2d: 3-14                 [1, 64, 28, 28]           6,144
│    └─BatchNorm2d: 2-34                 [1, 64, 28, 28]           128
│    └─ReLU: 2-35                        [1, 64, 28, 28]           --
│    └─Sequential: 2-36                  [1, 32, 28, 28]           --
│    │    └─Conv2d: 3-15                 [1, 17, 28, 28]           1,088
│    │    └─Conv2d: 3-16                 [1, 32, 28, 28]           544
│    └─BatchNorm2d: 2-37                 [1, 32, 28, 28]           64
│    └─ReLU: 2-38                        [1, 32, 28, 28]           --
│    └─Sequential: 2-39                  [1, 64, 28, 28]           --
│    │    └─Conv2d: 3-17                 [1, 32, 28, 28]           3,072
│    │    └─Conv2d: 3-18                 [1, 64, 28, 28]           6,144
│    └─BatchNorm2d: 2-40                 [1, 64, 28, 28]           128
│    └─ReLU: 2-41                        [1, 64, 28, 28]           --
│    └─MaxPool2d: 2-42                   [1, 64, 14, 14]           --
│    └─Sequential: 2-43                  [1, 32, 14, 14]           --
│    │    └─Conv2d: 3-19                 [1, 14, 14, 14]           896
│    │    └─Conv2d: 3-20                 [1, 32, 14, 14]           448
│    └─BatchNorm2d: 2-44                 [1, 32, 14, 14]           64
│    └─ReLU: 2-45                        [1, 32, 14, 14]           --
│    └─Sequential: 2-46                  [1, 64, 14, 14]           --
│    │    └─Conv2d: 3-21                 [1, 51, 14, 14]           4,896
│    │    └─Conv2d: 3-22                 [1, 64, 14, 14]           9,792
│    └─BatchNorm2d: 2-47                 [1, 64, 14, 14]           128
│    └─ReLU: 2-48                        [1, 64, 14, 14]           --
│    └─Conv2d: 2-49                      [1, 32, 14, 14]           2,048
│    └─BatchNorm2d: 2-50                 [1, 32, 14, 14]           64
│    └─ReLU: 2-51                        [1, 32, 14, 14]           --
│    └─Sequential: 2-52                  [1, 64, 14, 14]           --
│    │    └─Conv2d: 3-23                 [1, 57, 14, 14]           5,472
│    │    └─Conv2d: 3-24                 [1, 64, 14, 14]           10,944
│    └─BatchNorm2d: 2-53                 [1, 64, 14, 14]           128
│    └─ReLU: 2-54                        [1, 64, 14, 14]           --
│    └─Sequential: 2-55                  [1, 64, 14, 14]           --
│    │    └─Conv2d: 3-25                 [1, 67, 14, 14]           12,864
│    │    └─Conv2d: 3-26                 [1, 64, 14, 14]           12,864
│    └─BatchNorm2d: 2-56                 [1, 64, 14, 14]           128
│    └─ReLU: 2-57                        [1, 64, 14, 14]           --
│    └─Sequential: 2-58                  [1, 64, 14, 14]           --
│    │    └─Conv2d: 3-27                 [1, 86, 14, 14]           16,512
│    │    └─Conv2d: 3-28                 [1, 64, 14, 14]           16,512
│    └─BatchNorm2d: 2-59                 [1, 64, 14, 14]           128
│    └─ReLU: 2-60                        [1, 64, 14, 14]           --
│    └─MaxPool2d: 2-61                   [1, 64, 7, 7]             --
│    └─Conv2d: 2-62                      [1, 64, 7, 7]             36,864
│    └─BatchNorm2d: 2-63                 [1, 64, 7, 7]             128
│    └─ReLU: 2-64                        [1, 64, 7, 7]             --
│    └─Conv2d: 2-65                      [1, 64, 7, 7]             36,864
│    └─BatchNorm2d: 2-66                 [1, 64, 7, 7]             128
│    └─ReLU: 2-67                        [1, 64, 7, 7]             --
│    └─Conv2d: 2-68                      [1, 64, 7, 7]             4,096
│    └─BatchNorm2d: 2-69                 [1, 64, 7, 7]             128
│    └─ReLU: 2-70                        [1, 64, 7, 7]             --
│    └─Conv2d: 2-71                      [1, 16, 7, 7]             1,024
│    └─BatchNorm2d: 2-72                 [1, 16, 7, 7]             32
│    └─ReLU: 2-73                        [1, 16, 7, 7]             --
│    └─Conv2d: 2-74                      [1, 16, 7, 7]             256
│    └─BatchNorm2d: 2-75                 [1, 16, 7, 7]             32
│    └─ReLU: 2-76                        [1, 16, 7, 7]             --
│    └─Conv2d: 2-77                      [1, 12, 7, 7]             204
==========================================================================================
Total params: 229,209
Trainable params: 229,209
Non-trainable params: 0
Total mult-adds (M): 143.67
==========================================================================================
Input size (MB): 0.60
Forward/backward pass size (MB): 46.47
Params size (MB): 0.92
Estimated Total Size (MB): 47.99
==========================================================================================
…
        Ratio=0.6, Eval score=0.3226426839828491
        Ratio=0.7, Eval score=0.4648386240005493
        Ratio=0.8, Eval score=0.5534867644309998
        Ratio=0.9, Eval score=0.5998728275299072

**********************************************************************************************

Compressed Model Summary
==========================================================================================
Layer (type:depth-idx)                   Output Shape              Param #
==========================================================================================
SVD_BED_DETECTOR                         [1, 12, 7, 7]             --
├─Sequential: 1-1                        [1, 12, 7, 7]             --
│    └─Sequential: 2-1                   [1, 32, 224, 224]         --
│    │    └─Conv2d: 3-1                  [1, 5, 224, 224]          45
│    │    └─Conv2d: 3-2                  [1, 32, 224, 224]         480
│    └─BatchNorm2d: 2-2                  [1, 32, 224, 224]         64
│    └─ReLU: 2-3                         [1, 32, 224, 224]         --
│    └─Dropout2d: 2-4                    [1, 32, 224, 224]         --
│    └─MaxPool2d: 2-5                    [1, 32, 112, 112]         --
│    └─Sequential: 2-6                   [1, 11, 112, 112]         --
│    │    └─Conv2d: 3-3                  [1, 4, 112, 112]          384
│    │    └─Conv2d: 3-4                  [1, 11, 112, 112]         132
│    └─BatchNorm2d: 2-7                  [1, 11, 112, 112]         22
│    └─ReLU: 2-8                         [1, 11, 112, 112]         --
│    └─Dropout2d: 2-9                    [1, 11, 112, 112]         --
│    └─MaxPool2d: 2-10                   [1, 11, 56, 56]           --
│    └─Sequential: 2-11                  [1, 14, 56, 56]           --
│    │    └─Conv2d: 3-5                  [1, 3, 56, 56]            33
│    │    └─Conv2d: 3-6                  [1, 14, 56, 56]           42
│    └─BatchNorm2d: 2-12                 [1, 14, 56, 56]           28
│    └─ReLU: 2-13                        [1, 14, 56, 56]           --
│    └─Sequential: 2-14                  [1, 25, 56, 56]           --
│    │    └─Conv2d: 3-7                  [1, 14, 56, 56]           588
│    │    └─Conv2d: 3-8                  [1, 25, 56, 56]           1,050
│    └─BatchNorm2d: 2-15                 [1, 25, 56, 56]           50
│    └─ReLU: 2-16                        [1, 25, 56, 56]           --
│    └─Conv2d: 2-17                      [1, 22, 56, 56]           550
│    └─BatchNorm2d: 2-18                 [1, 22, 56, 56]           44
│    └─ReLU: 2-19                        [1, 22, 56, 56]           --
│    └─Sequential: 2-20                  [1, 64, 56, 56]           --
│    │    └─Conv2d: 3-9                  [1, 30, 56, 56]           1,980
│    │    └─Conv2d: 3-10                 [1, 64, 56, 56]           5,760
│    └─BatchNorm2d: 2-21                 [1, 64, 56, 56]           128
│    └─ReLU: 2-22                        [1, 64, 56, 56]           --
│    └─MaxPool2d: 2-23                   [1, 64, 28, 28]           --
│    └─Conv2d: 2-24                      [1, 28, 28, 28]           1,792
│    └─BatchNorm2d: 2-25                 [1, 28, 28, 28]           56
│    └─ReLU: 2-26                        [1, 28, 28, 28]           --
│    └─Sequential: 2-27                  [1, 64, 28, 28]           --
│    │    └─Conv2d: 3-11                 [1, 38, 28, 28]           3,192
│    │    └─Conv2d: 3-12                 [1, 64, 28, 28]           7,296
│    └─BatchNorm2d: 2-28                 [1, 64, 28, 28]           128
│    └─ReLU: 2-29                        [1, 64, 28, 28]           --
│    └─Conv2d: 2-30                      [1, 28, 28, 28]           1,792
│    └─BatchNorm2d: 2-31                 [1, 28, 28, 28]           56
│    └─ReLU: 2-32                        [1, 28, 28, 28]           --
│    └─Sequential: 2-33                  [1, 57, 28, 28]           --
│    │    └─Conv2d: 3-13                 [1, 25, 28, 28]           2,100
│    │    └─Conv2d: 3-14                 [1, 57, 28, 28]           4,275
│    └─BatchNorm2d: 2-34                 [1, 57, 28, 28]           114
│    └─ReLU: 2-35                        [1, 57, 28, 28]           --
│    └─Sequential: 2-36                  [1, 28, 28, 28]           --
│    │    └─Conv2d: 3-15                 [1, 15, 28, 28]           855
│    │    └─Conv2d: 3-16                 [1, 28, 28, 28]           420
│    └─BatchNorm2d: 2-37                 [1, 28, 28, 28]           56
│    └─ReLU: 2-38                        [1, 28, 28, 28]           --
│    └─Sequential: 2-39                  [1, 57, 28, 28]           --
│    │    └─Conv2d: 3-17                 [1, 28, 28, 28]           2,352
│    │    └─Conv2d: 3-18                 [1, 57, 28, 28]           4,788
│    └─BatchNorm2d: 2-40                 [1, 57, 28, 28]           114
│    └─ReLU: 2-41                        [1, 57, 28, 28]           --
│    └─MaxPool2d: 2-42                   [1, 57, 14, 14]           --
│    └─Sequential: 2-43                  [1, 32, 14, 14]           --
│    │    └─Conv2d: 3-19                 [1, 14, 14, 14]           798
│    │    └─Conv2d: 3-20                 [1, 32, 14, 14]           448
│    └─BatchNorm2d: 2-44                 [1, 32, 14, 14]           64
│    └─ReLU: 2-45                        [1, 32, 14, 14]           --
│    └─Sequential: 2-46                  [1, 64, 14, 14]           --
│    │    └─Conv2d: 3-21                 [1, 40, 14, 14]           3,840
│    │    └─Conv2d: 3-22                 [1, 64, 14, 14]           7,680
│    └─BatchNorm2d: 2-47                 [1, 64, 14, 14]           128
│    └─ReLU: 2-48                        [1, 64, 14, 14]           --
│    └─Conv2d: 2-49                      [1, 32, 14, 14]           2,048
│    └─BatchNorm2d: 2-50                 [1, 32, 14, 14]           64
│    └─ReLU: 2-51                        [1, 32, 14, 14]           --
│    └─Sequential: 2-52                  [1, 64, 14, 14]           --
│    │    └─Conv2d: 3-23                 [1, 45, 14, 14]           4,320
│    │    └─Conv2d: 3-24                 [1, 64, 14, 14]           8,640
│    └─BatchNorm2d: 2-53                 [1, 64, 14, 14]           128
│    └─ReLU: 2-54                        [1, 64, 14, 14]           --
│    └─Sequential: 2-55                  [1, 64, 14, 14]           --
│    │    └─Conv2d: 3-25                 [1, 67, 14, 14]           12,864
│    │    └─Conv2d: 3-26                 [1, 64, 14, 14]           12,864
│    └─BatchNorm2d: 2-56                 [1, 64, 14, 14]           128
│    └─ReLU: 2-57                        [1, 64, 14, 14]           --
│    └─Sequential: 2-58                  [1, 64, 14, 14]           --
│    │    └─Conv2d: 3-27                 [1, 77, 14, 14]           14,784
│    │    └─Conv2d: 3-28                 [1, 64, 14, 14]           14,784
│    └─BatchNorm2d: 2-59                 [1, 64, 14, 14]           128
│    └─ReLU: 2-60                        [1, 64, 14, 14]           --
│    └─MaxPool2d: 2-61                   [1, 64, 7, 7]             --
│    └─Conv2d: 2-62                      [1, 64, 7, 7]             36,864
│    └─BatchNorm2d: 2-63                 [1, 64, 7, 7]             128
│    └─ReLU: 2-64                        [1, 64, 7, 7]             --
│    └─Conv2d: 2-65                      [1, 64, 7, 7]             36,864
│    └─BatchNorm2d: 2-66                 [1, 64, 7, 7]             128
│    └─ReLU: 2-67                        [1, 64, 7, 7]             --
│    └─Conv2d: 2-68                      [1, 64, 7, 7]             4,096
│    └─BatchNorm2d: 2-69                 [1, 64, 7, 7]             128
│    └─ReLU: 2-70                        [1, 64, 7, 7]             --
│    └─Conv2d: 2-71                      [1, 16, 7, 7]             1,024
│    └─BatchNorm2d: 2-72                 [1, 16, 7, 7]             32
│    └─ReLU: 2-73                        [1, 16, 7, 7]             --
│    └─Conv2d: 2-74                      [1, 16, 7, 7]             256
│    └─BatchNorm2d: 2-75                 [1, 16, 7, 7]             32
│    └─ReLU: 2-76                        [1, 16, 7, 7]             --
│    └─Conv2d: 2-77                      [1, 12, 7, 7]             204
==========================================================================================
Total params: 204,232
Trainable params: 204,232
Non-trainable params: 0
Total mult-adds (M): 106.98
==========================================================================================
Input size (MB): 0.60
Forward/backward pass size (MB): 43.27
Params size (MB): 0.82
Estimated Total Size (MB): 44.69
==========================================================================================
…
