…
    (flatten5): Flatten(start_dim=1, end_dim=-1)
    (dropout5): Dropout(p=0.2, inplace=False)
    (linear51): Linear(in_features=64, out_features=16, bias=True)
    (relu5): ReLU()
    (linear52): Linear(in_features=16, out_features=2, bias=True)
  )
)
Loading Model. Trained during 87 epochs
Original FP32 Model Summary
==========================================================================================
Layer (type:depth-idx)                   Output Shape              Param #
==========================================================================================
FUSED_BED_CLASSIFIER                     [64, 2]                   --
├─Sequential: 1-1                        [64, 2]                   --
│    └─Conv2d: 2-1                       [64, 32, 224, 224]        896
│    └─ReLU: 2-2                         [64, 32, 224, 224]        --
│    └─Dropout2d: 2-3                    [64, 32, 224, 224]        --
│    └─MaxPool2d: 2-4                    [64, 32, 112, 112]        --
│    └─Conv2d: 2-5                       [64, 16, 112, 112]        4,624
│    └─ReLU: 2-6                         [64, 16, 112, 112]        --
│    └─Dropout2d: 2-7                    [64, 16, 112, 112]        --
│    └─MaxPool2d: 2-8                    [64, 16, 56, 56]          --
│    └─Conv2d: 2-9                       [64, 16, 56, 56]          272
│    └─ReLU: 2-10                        [64, 16, 56, 56]          --
│    └─Conv2d: 2-11                      [64, 32, 56, 56]          4,640
│    └─ReLU: 2-12                        [64, 32, 56, 56]          --
│    └─Conv2d: 2-13                      [64, 32, 56, 56]          1,056
│    └─ReLU: 2-14                        [64, 32, 56, 56]          --
│    └─Conv2d: 2-15                      [64, 64, 56, 56]          18,496
│    └─ReLU: 2-16                        [64, 64, 56, 56]          --
│    └─MaxPool2d: 2-17                   [64, 64, 28, 28]          --
│    └─Conv2d: 2-18                      [64, 32, 28, 28]          2,080
│    └─ReLU: 2-19                        [64, 32, 28, 28]          --
│    └─Conv2d: 2-20                      [64, 64, 28, 28]          18,496
│    └─ReLU: 2-21                        [64, 64, 28, 28]          --
│    └─Conv2d: 2-22                      [64, 32, 28, 28]          2,080
│    └─ReLU: 2-23                        [64, 32, 28, 28]          --
│    └─Conv2d: 2-24                      [64, 64, 28, 28]          18,496
│    └─ReLU: 2-25                        [64, 64, 28, 28]          --
│    └─Conv2d: 2-26                      [64, 32, 28, 28]          2,080
│    └─ReLU: 2-27                        [64, 32, 28, 28]          --
│    └─Conv2d: 2-28                      [64, 64, 28, 28]          18,496
│    └─ReLU: 2-29                        [64, 64, 28, 28]          --
│    └─AdaptiveAvgPool2d: 2-30           [64, 64, 1, 1]            --
│    └─Flatten: 2-31                     [64, 64]                  --
│    └─Dropout: 2-32                     [64, 64]                  --
│    └─Linear: 2-33                      [64, 16]                  1,040
│    └─ReLU: 2-34                        [64, 16]                  --
│    └─Linear: 2-35                      [64, 2]                   34
==========================================================================================
Total params: 92,786
Trainable params: 92,786
Non-trainable params: 0
Total mult-adds (G): 14.60
==========================================================================================
Input size (MB): 38.54
Forward/backward pass size (MB): 1271.67
Params size (MB): 0.37
Estimated Total Size (MB): 1310.58
…
        Ratio=0.6, Eval score=0.9252502918243408
        Ratio=0.7, Eval score=0.9252909421920776
        Ratio=0.8, Eval score=0.9252170324325562
        Ratio=0.9, Eval score=0.9252707362174988

**********************************************************************************************

Compressed Model Summary
==========================================================================================
Layer (type:depth-idx)                   Output Shape              Param #
==========================================================================================
FUSED_BED_CLASSIFIER                     [1, 2]                    --
├─Sequential: 1-1                        [1, 2]                    --
│    └─Conv2d: 2-1                       [1, 32, 224, 224]         896
│    └─ReLU: 2-2                         [1, 32, 224, 224]         --
│    └─Dropout2d: 2-3                    [1, 32, 224, 224]         --
│    └─MaxPool2d: 2-4                    [1, 32, 112, 112]         --
│    └─Sequential: 2-5                   [1, 16, 112, 112]         --
│    │    └─Conv2d: 3-1                  [1, 19, 112, 112]         1,824
│    │    └─Conv2d: 3-2                  [1, 16, 112, 112]         928
│    └─ReLU: 2-6                         [1, 16, 112, 112]         --
│    └─Dropout2d: 2-7                    [1, 16, 112, 112]         --
│    └─MaxPool2d: 2-8                    [1, 16, 56, 56]           --
│    └─Sequential: 2-9                   [1, 16, 56, 56]           --
│    │    └─Conv2d: 3-3                  [1, 6, 56, 56]            96
│    │    └─Conv2d: 3-4                  [1, 16, 56, 56]           112
│    └─ReLU: 2-10                        [1, 16, 56, 56]           --
│    └─Conv2d: 2-11                      [1, 32, 56, 56]           4,640
│    └─ReLU: 2-12                        [1, 32, 56, 56]           --
│    └─Conv2d: 2-13                      [1, 32, 56, 56]           1,056
│    └─ReLU: 2-14                        [1, 32, 56, 56]           --
│    └─Sequential: 2-15                  [1, 64, 56, 56]           --
│    │    └─Conv2d: 3-5                  [1, 51, 56, 56]           4,896
│    │    └─Conv2d: 3-6                  [1, 64, 56, 56]           9,856
│    └─ReLU: 2-16                        [1, 64, 56, 56]           --
│    └─MaxPool2d: 2-17                   [1, 64, 28, 28]           --
│    └─Conv2d: 2-18                      [1, 32, 28, 28]           2,080
│    └─ReLU: 2-19                        [1, 32, 28, 28]           --
│    └─Conv2d: 2-20                      [1, 64, 28, 28]           18,496
│    └─ReLU: 2-21                        [1, 64, 28, 28]           --
│    └─Conv2d: 2-22                      [1, 32, 28, 28]           2,080
│    └─ReLU: 2-23                        [1, 32, 28, 28]           --
│    └─Conv2d: 2-24                      [1, 64, 28, 28]           18,496
│    └─ReLU: 2-25                        [1, 64, 28, 28]           --
│    └─Sequential: 2-26                  [1, 32, 28, 28]           --
│    │    └─Conv2d: 3-7                  [1, 17, 28, 28]           1,088
│    │    └─Conv2d: 3-8                  [1, 32, 28, 28]           576
│    └─ReLU: 2-27                        [1, 32, 28, 28]           --
│    └─Sequential: 2-28                  [1, 64, 28, 28]           --
│    │    └─Conv2d: 3-9                  [1, 6, 28, 28]            576
│    │    └─Conv2d: 3-10                 [1, 64, 28, 28]           1,216
│    └─ReLU: 2-29                        [1, 64, 28, 28]           --
│    └─AdaptiveAvgPool2d: 2-30           [1, 64, 1, 1]             --
│    └─Flatten: 2-31                     [1, 64]                   --
│    └─Dropout: 2-32                     [1, 64]                   --
│    └─Linear: 2-33                      [1, 16]                   1,040
│    └─ReLU: 2-34                        [1, 16]                   --
│    └─Linear: 2-35                      [1, 2]                    34
==========================================================================================
Total params: 69,986
Trainable params: 69,986
Non-trainable params: 0
Total mult-adds (M): 179.23
==========================================================================================
Input size (MB): 0.60
Forward/backward pass size (MB): 23.35
Params size (MB): 0.28
Estimated Total Size (MB): 24.23
==========================================================================================
…
        Ratio=0.6, Eval score=0.9048092365264893
        Ratio=0.7, Eval score=0.9236165285110474
        Ratio=0.8, Eval score=0.9257240295410156
        Ratio=0.9, Eval score=0.9317342042922974

**********************************************************************************************

Compressed Model Summary
==========================================================================================
Layer (type:depth-idx)                   Output Shape              Param #
==========================================================================================
FUSED_BED_CLASSIFIER                     [1, 2]                    --
├─Sequential: 1-1                        [1, 2]                    --
│    └─Conv2d: 2-1                       [1, 32, 224, 224]         896
│    └─ReLU: 2-2                         [1, 32, 224, 224]         --
│    └─Dropout2d: 2-3                    [1, 32, 224, 224]         --
│    └─MaxPool2d: 2-4                    [1, 32, 112, 112]         --
│    └─Sequential: 2-5                   [1, 14, 112, 112]         --
│    │    └─Conv2d: 3-1                  [1, 19, 112, 112]         1,824
│    │    └─Conv2d: 3-2                  [1, 14, 112, 112]         812
│    └─ReLU: 2-6                         [1, 14, 112, 112]         --
│    └─Dropout2d: 2-7                    [1, 14, 112, 112]         --
│    └─MaxPool2d: 2-8                    [1, 14, 56, 56]           --
│    └─Sequential: 2-9                   [1, 11, 56, 56]           --
│    │    └─Conv2d: 3-3                  [1, 6, 56, 56]            84
│    │    └─Conv2d: 3-4                  [1, 11, 56, 56]           77
│    └─ReLU: 2-10                        [1, 11, 56, 56]           --
│    └─Conv2d: 2-11                      [1, 32, 56, 56]           3,200
│    └─ReLU: 2-12                        [1, 32, 56, 56]           --
│    └─Conv2d: 2-13                      [1, 32, 56, 56]           1,056
│    └─ReLU: 2-14                        [1, 32, 56, 56]           --
│    └─Sequential: 2-15                  [1, 57, 56, 56]           --
│    │    └─Conv2d: 3-5                  [1, 45, 56, 56]           4,320
│    │    └─Conv2d: 3-6                  [1, 57, 56, 56]           7,752
│    └─ReLU: 2-16                        [1, 57, 56, 56]           --
│    └─MaxPool2d: 2-17                   [1, 57, 28, 28]           --
│    └─Conv2d: 2-18                      [1, 32, 28, 28]           1,856
│    └─ReLU: 2-19                        [1, 32, 28, 28]           --
│    └─Conv2d: 2-20                      [1, 64, 28, 28]           18,496
│    └─ReLU: 2-21                        [1, 64, 28, 28]           --
│    └─Conv2d: 2-22                      [1, 32, 28, 28]           2,080
│    └─ReLU: 2-23                        [1, 32, 28, 28]           --
│    └─Conv2d: 2-24                      [1, 57, 28, 28]           16,473
│    └─ReLU: 2-25                        [1, 57, 28, 28]           --
│    └─Sequential: 2-26                  [1, 32, 28, 28]           --
│    │    └─Conv2d: 3-7                  [1, 17, 28, 28]           969
│    │    └─Conv2d: 3-8                  [1, 32, 28, 28]           576
│    └─ReLU: 2-27                        [1, 32, 28, 28]           --
│    └─Sequential: 2-28                  [1, 64, 28, 28]           --
│    │    └─Conv2d: 3-9                  [1, 5, 28, 28]            480
│    │    └─Conv2d: 3-10                 [1, 64, 28, 28]           1,024
│    └─ReLU: 2-29                        [1, 64, 28, 28]           --
│    └─AdaptiveAvgPool2d: 2-30           [1, 64, 1, 1]             --
│    └─Flatten: 2-31                     [1, 64]                   --
│    └─Dropout: 2-32                     [1, 64]                   --
│    └─Linear: 2-33                      [1, 16]                   1,040
│    └─ReLU: 2-34                        [1, 16]                   --
│    └─Linear: 2-35                      [1, 2]                    34
==========================================================================================
Total params: 63,049
Trainable params: 63,049
Non-trainable params: 0
Total mult-adds (M): 162.63
==========================================================================================
Input size (MB): 0.60
Forward/backward pass size (MB): 22.65
Params size (MB): 0.25
Estimated Total Size (MB): 23.50
==========================================================================================
…
