…
Pin Memory: True
Epochs: 4

IMG DIMS:
	Width: 224
	Height: 224

Brevitas Config:
	Fixed Point: True
	Weights Bit Width: 4
	Big Layers Weights Bit Width: 4
	Bias Bit Width: 4
	Activations Bit Width: 4

Trainable parameters = 68926
Total parameters = 68926


Torch Summary
====================================================================================================
Layer (type:depth-idx)                             Output Shape              Param #
====================================================================================================
ECA_MobileNetV2                                    [1, 2]                    --
├─Sequential: 1-1                                  [1, 128, 14, 14]          --
│    └─ConvBNReLU: 2-1                             [1, 32, 112, 112]         --
│    │    └─Conv2d: 3-1                            [1, 32, 112, 112]         864
│    │    └─BatchNorm2d: 3-2                       [1, 32, 112, 112]         64
│    │    └─ReLU6: 3-3                             [1, 32, 112, 112]         --
│    └─InvertedResidual: 2-2                       [1, 8, 112, 112]          --
│    │    └─Sequential: 3-4                        [1, 8, 112, 112]          627
│    └─InvertedResidual: 2-3                       [1, 16, 56, 56]           --
│    │    └─Sequential: 3-5                        [1, 16, 56, 56]           627
│    └─InvertedResidual: 2-4                       [1, 16, 56, 56]           --
│    │    └─Sequential: 3-6                        [1, 16, 56, 56]           1,475
│    └─InvertedResidual: 2-5                       [1, 24, 28, 28]           --
│    │    └─Sequential: 3-7                        [1, 24, 28, 28]           1,749
│    └─InvertedResidual: 2-6                       [1, 24, 28, 28]           --
│    │    └─Sequential: 3-8                        [1, 24, 28, 28]           2,981
│    └─InvertedResidual: 2-7                       [1, 32, 14, 14]           --
│    │    └─Sequential: 3-9                        [1, 32, 14, 14]           6,693
│    └─InvertedResidual: 2-8                       [1, 32, 14, 14]           --
│    │    └─Sequential: 3-10                       [1, 32, 14, 14]           9,925
│    └─InvertedResidual: 2-9                       [1, 32, 14, 14]           --
│    │    └─Sequential: 3-11                       [1, 32, 14, 14]           9,925
│    └─InvertedResidual: 2-10                      [1, 64, 14, 14]           --
│    │    └─Sequential: 3-12                       [1, 64, 14, 14]           7,109
│    └─InvertedResidual: 2-11                      [1, 64, 14, 14]           --
│    │    └─Sequential: 3-13                       [1, 64, 14, 14]           18,181
│    └─ConvBNReLU: 2-12                            [1, 128, 14, 14]          --
│    │    └─Conv2d: 3-14                           [1, 128, 14, 14]          8,192
│    │    └─BatchNorm2d: 3-15                      [1, 128, 14, 14]          256
│    │    └─ReLU6: 3-16                            [1, 128, 14, 14]          --
├─AdaptiveAvgPool2d: 1-2                           [1, 128, 1, 1]            --
├─Sequential: 1-3                                  [1, 2]                    --
│    └─Dropout: 2-13                               [1, 128]                  --
│    └─Linear: 2-14                                [1, 2]                    258
====================================================================================================
Total params: 68,926
Trainable params: 68,926
Non-trainable params: 0
Total mult-adds (M): 41.82
====================================================================================================
Input size (MB): 0.60
Forward/backward pass size (MB): 32.52
Params size (MB): 0.28
Estimated Total Size (MB): 33.39
…
