…
    (relu72): ReLU()
    (conv73): Conv2d(16, 16, kernel_size=(1, 1), stride=(1, 1), bias=False)
    (bn73): BatchNorm2d(16, eps=1e-05, momentum=0.1, affine=True, track_running_stats=True)
    (relu73): ReLU()
    (conv74): Conv2d(16, 12, kernel_size=(1, 1), stride=(1, 1))
  )
)

ORIGINAL Model Summary
==========================================================================================
Layer (type:depth-idx)                   Output Shape              Param #
==========================================================================================
SIMPLE_BED_DETECTOR                      [1, 12, 7, 7]             --
├─Sequential: 1-1                        [1, 12, 7, 7]             --
│    └─Conv2d: 2-1                       [1, 32, 224, 224]         864
│    └─BatchNorm2d: 2-2                  [1, 32, 224, 224]         64
│    └─ReLU: 2-3                         [1, 32, 224, 224]         --
│    └─Dropout2d: 2-4                    [1, 32, 224, 224]         --
│    └─MaxPool2d: 2-5                    [1, 32, 112, 112]         --
│    └─Conv2d: 2-6                       [1, 16, 112, 112]         4,608
│    └─BatchNorm2d: 2-7                  [1, 16, 112, 112]         32
│    └─ReLU: 2-8                         [1, 16, 112, 112]         --
│    └─Dropout2d: 2-9                    [1, 16, 112, 112]         --
│    └─MaxPool2d: 2-10                   [1, 16, 56, 56]           --
│    └─Conv2d: 2-11                      [1, 16, 56, 56]           256
│    └─BatchNorm2d: 2-12                 [1, 16, 56, 56]           32
│    └─ReLU: 2-13                        [1, 16, 56, 56]           --
│    └─Conv2d: 2-14                      [1, 32, 56, 56]           4,608
│    └─BatchNorm2d: 2-15                 [1, 32, 56, 56]           64
│    └─ReLU: 2-16                        [1, 32, 56, 56]           --
│    └─Conv2d: 2-17                      [1, 32, 56, 56]           1,024
│    └─BatchNorm2d: 2-18                 [1, 32, 56, 56]           64
│    └─ReLU: 2-19                        [1, 32, 56, 56]           --
│    └─Conv2d: 2-20                      [1, 64, 56, 56]           18,432
│    └─BatchNorm2d: 2-21                 [1, 64, 56, 56]           128
│    └─ReLU: 2-22                        [1, 64, 56, 56]           --
│    └─MaxPool2d: 2-23                   [1, 64, 28, 28]           --
│    └─Conv2d: 2-24                      [1, 32, 28, 28]           2,048
│    └─BatchNorm2d: 2-25                 [1, 32, 28, 28]           64
│    └─ReLU: 2-26                        [1, 32, 28, 28]           --
│    └─Conv2d: 2-27                      [1, 64, 28, 28]           18,432
│    └─BatchNorm2d: 2-28                 [1, 64, 28, 28]           128
│    └─ReLU: 2-29                        [1, 64, 28, 28]           --
│    └─Conv2d: 2-30                      [1, 32, 28, 28]           2,048
│    └─BatchNorm2d: 2-31                 [1, 32, 28, 28]           64
│    └─ReLU: 2-32                        [1, 32, 28, 28]           --
│    └─Conv2d: 2-33                      [1, 64, 28, 28]           18,432
│    └─BatchNorm2d: 2-34                 [1, 64, 28, 28]           128
│    └─ReLU: 2-35                        [1, 64, 28, 28]           --
│    └─Conv2d: 2-36                      [1, 32, 28, 28]           2,048
│    └─BatchNorm2d: 2-37                 [1, 32, 28, 28]           64
│    └─ReLU: 2-38                        [1, 32, 28, 28]           --
│    └─Conv2d: 2-39                      [1, 64, 28, 28]           18,432
│    └─BatchNorm2d: 2-40                 [1, 64, 28, 28]           128
│    └─ReLU: 2-41                        [1, 64, 28, 28]           --
│    └─MaxPool2d: 2-42                   [1, 64, 14, 14]           --
│    └─Conv2d: 2-43                      [1, 32, 14, 14]           2,048
│    └─BatchNorm2d: 2-44                 [1, 32, 14, 14]           64
│    └─ReLU: 2-45                        [1, 32, 14, 14]           --
│    └─Conv2d: 2-46                      [1, 64, 14, 14]           18,432
│    └─BatchNorm2d: 2-47                 [1, 64, 14, 14]           128
│    └─ReLU: 2-48                        [1, 64, 14, 14]           --
│    └─Conv2d: 2-49                      [1, 32, 14, 14]           2,048
│    └─BatchNorm2d: 2-50                 [1, 32, 14, 14]           64
│    └─ReLU: 2-51                        [1, 32, 14, 14]           --
│    └─Conv2d: 2-52                      [1, 64, 14, 14]           18,432
│    └─BatchNorm2d: 2-53                 [1, 64, 14, 14]           128
│    └─ReLU: 2-54                        [1, 64, 14, 14]           --
│    └─Conv2d: 2-55                      [1, 64, 14, 14]           36,864
│    └─BatchNorm2d: 2-56                 [1, 64, 14, 14]           128
│    └─ReLU: 2-57                        [1, 64, 14, 14]           --
│    └─Conv2d: 2-58                      [1, 64, 14, 14]           36,864
│    └─BatchNorm2d: 2-59                 [1, 64, 14, 14]           128
│    └─ReLU: 2-60                        [1, 64, 14, 14]           --
│    └─MaxPool2d: 2-61                   [1, 64, 7, 7]             --
│    └─Conv2d: 2-62                      [1, 64, 7, 7]             36,864
│    └─BatchNorm2d: 2-63                 [1, 64, 7, 7]             128
│    └─ReLU: 2-64                        [1, 64, 7, 7]             --
│    └─Conv2d: 2-65                      [1, 64, 7, 7]             36,864
│    └─BatchNorm2d: 2-66                 [1, 64, 7, 7]             128
│    └─ReLU: 2-67                        [1, 64, 7, 7]             --
│    └─Conv2d: 2-68                      [1, 64, 7, 7]             4,096
│    └─BatchNorm2d: 2-69                 [1, 64, 7, 7]             128
│    └─ReLU: 2-70                        [1, 64, 7, 7]             --
│    └─Conv2d: 2-71                      [1, 16, 7, 7]             1,024
│    └─BatchNorm2d: 2-72                 [1, 16, 7, 7]             32
│    └─ReLU: 2-73                        [1, 16, 7, 7]             --
│    └─Conv2d: 2-74                      [1, 16, 7, 7]             256
│    └─BatchNorm2d: 2-75                 [1, 16, 7, 7]             32
│    └─ReLU: 2-76                        [1, 16, 7, 7]             --
│    └─Conv2d: 2-77                      [1, 12, 7, 7]             204
==========================================================================================
Total params: 287,276
Trainable params: 287,276
Non-trainable params: 0
Total mult-adds (M): 251.96
==========================================================================================
Input size (MB): 0.60
Forward/backward pass size (MB): 40.92
Params size (MB): 1.15
Estimated Total Size (MB): 42.67
==========================================================================================
…
Non Fused Model mAP metrics:
{'mAP': tensor(0.6361), 'AP': [0.6540707349777222, 0.6181649565696716], 'AR': [0.7165802717208862, 0.6699047088623047]}

Fused Model mAP metrics:
{'mAP': tensor(0.6361), 'AP': [0.6540480256080627, 0.6181602478027344], 'AR': [0.7164952754974365, 0.6699047088623047]}

FUSED Model Summary
==========================================================================================
Layer (type:depth-idx)                   Output Shape              Param #
==========================================================================================
SIMPLE_BED_DETECTOR                      [1, 12, 7, 7]             --
├─Sequential: 1-1                        [1, 12, 7, 7]             --
│    └─Conv2d: 2-1                       [1, 32, 224, 224]         896
│    └─Identity: 2-2                     [1, 32, 224, 224]         --
│    └─ReLU: 2-3                         [1, 32, 224, 224]         --
│    └─Dropout2d: 2-4                    [1, 32, 224, 224]         --
│    └─MaxPool2d: 2-5                    [1, 32, 112, 112]         --
│    └─Conv2d: 2-6                       [1, 16, 112, 112]         4,624
│    └─Identity: 2-7                     [1, 16, 112, 112]         --
│    └─ReLU: 2-8                         [1, 16, 112, 112]         --
│    └─Dropout2d: 2-9                    [1, 16, 112, 112]         --
│    └─MaxPool2d: 2-10                   [1, 16, 56, 56]           --
│    └─Conv2d: 2-11                      [1, 16, 56, 56]           272
│    └─Identity: 2-12                    [1, 16, 56, 56]           --
│    └─ReLU: 2-13                        [1, 16, 56, 56]           --
│    └─Conv2d: 2-14                      [1, 32, 56, 56]           4,640
│    └─Identity: 2-15                    [1, 32, 56, 56]           --
│    └─ReLU: 2-16                        [1, 32, 56, 56]           --
│    └─Conv2d: 2-17                      [1, 32, 56, 56]           1,056
│    └─Identity: 2-18                    [1, 32, 56, 56]           --
│    └─ReLU: 2-19                        [1, 32, 56, 56]           --
│    └─Conv2d: 2-20                      [1, 64, 56, 56]           18,496
│    └─Identity: 2-21                    [1, 64, 56, 56]           --
│    └─ReLU: 2-22                        [1, 64, 56, 56]           --
│    └─MaxPool2d: 2-23                   [1, 64, 28, 28]           --
│    └─Conv2d: 2-24                      [1, 32, 28, 28]           2,080
│    └─Identity: 2-25                    [1, 32, 28, 28]           --
│    └─ReLU: 2-26                        [1, 32, 28, 28]           --
│    └─Conv2d: 2-27                      [1, 64, 28, 28]           18,496
│    └─Identity: 2-28                    [1, 64, 28, 28]           --
│    └─ReLU: 2-29                        [1, 64, 28, 28]           --
│    └─Conv2d: 2-30                      [1, 32, 28, 28]           2,080
│    └─Identity: 2-31                    [1, 32, 28, 28]           --
│    └─ReLU: 2-32                        [1, 32, 28, 28]           --
│    └─Conv2d: 2-33                      [1, 64, 28, 28]           18,496
│    └─Identity: 2-34                    [1, 64, 28, 28]           --
│    └─ReLU: 2-35                        [1, 64, 28, 28]           --
│    └─Conv2d: 2-36                      [1, 32, 28, 28]           2,080
│    └─Identity: 2-37                    [1, 32, 28, 28]           --
│    └─ReLU: 2-38                        [1, 32, 28, 28]           --
│    └─Conv2d: 2-39                      [1, 64, 28, 28]           18,496
│    └─Identity: 2-40                    [1, 64, 28, 28]           --
│    └─ReLU: 2-41                        [1, 64, 28, 28]           --
│    └─MaxPool2d: 2-42                   [1, 64, 14, 14]           --
│    └─Conv2d: 2-43                      [1, 32, 14, 14]           2,080
│    └─Identity: 2-44                    [1, 32, 14, 14]           --
│    └─ReLU: 2-45                        [1, 32, 14, 14]           --
│    └─Conv2d: 2-46                      [1, 64, 14, 14]           18,496
│    └─Identity: 2-47                    [1, 64, 14, 14]           --
│    └─ReLU: 2-48                        [1, 64, 14, 14]           --
│    └─Conv2d: 2-49                      [1, 32, 14, 14]           2,080
│    └─Identity: 2-50                    [1, 32, 14, 14]           --
│    └─ReLU: 2-51                        [1, 32, 14, 14]           --
│    └─Conv2d: 2-52                      [1, 64, 14, 14]           18,496
│    └─Identity: 2-53                    [1, 64, 14, 14]           --
│    └─ReLU: 2-54                        [1, 64, 14, 14]           --
│    └─Conv2d: 2-55                      [1, 64, 14, 14]           36,928
│    └─Identity: 2-56                    [1, 64, 14, 14]           --
│    └─ReLU: 2-57                        [1, 64, 14, 14]           --
│    └─Conv2d: 2-58                      [1, 64, 14, 14]           36,928
│    └─Identity: 2-59                    [1, 64, 14, 14]           --
│    └─ReLU: 2-60                        [1, 64, 14, 14]           --
│    └─MaxPool2d: 2-61                   [1, 64, 7, 7]             --
│    └─Conv2d: 2-62                      [1, 64, 7, 7]             36,928
│    └─Identity: 2-63                    [1, 64, 7, 7]             --
│    └─ReLU: 2-64                        [1, 64, 7, 7]             --
│    └─Conv2d: 2-65                      [1, 64, 7, 7]             36,928
│    └─Identity: 2-66                    [1, 64, 7, 7]             --
│    └─ReLU: 2-67                        [1, 64, 7, 7]             --
│    └─Conv2d: 2-68                      [1, 64, 7, 7]             4,160
│    └─Identity: 2-69                    [1, 64, 7, 7]             --
│    └─ReLU: 2-70                        [1, 64, 7, 7]             --
│    └─Conv2d: 2-71                      [1, 16, 7, 7]             1,040
│    └─Identity: 2-72                    [1, 16, 7, 7]             --
│    └─ReLU: 2-73                        [1, 16, 7, 7]             --
│    └─Conv2d: 2-74                      [1, 16, 7, 7]             272
│    └─Identity: 2-75                    [1, 16, 7, 7]             --
│    └─ReLU: 2-76                        [1, 16, 7, 7]             --
│    └─Conv2d: 2-77                      [1, 12, 7, 7]             204
==========================================================================================
Total params: 286,252
Trainable params: 285,228
Non-trainable params: 1,024
Total mult-adds (M): 254.51
==========================================================================================
Input size (MB): 0.60
Forward/backward pass size (MB): 20.46
Params size (MB): 1.15
Estimated Total Size (MB): 22.21
==========================================================================================

Using Brevitas BED Detector

Trainable parameters = 287311
Total parameters = 287311

Brevitas QUANT Model Summary
=============================================================================================================================
Layer (type:depth-idx)                                                      Output Shape              Param #
=============================================================================================================================
FIXED_POINT_QUANT_SIMPLE_BED_DETECTOR                                       [1, 12, 7, 7]             --
├─Sequential: 1-1                                                           [1, 12, 7, 7]             --
│    └─QuantIdentity: 2-1                                                   [1, 3, 224, 224]          --
│    │    └─ActQuantProxyFromInjector: 3-1                                  [1, 3, 224, 224]          --
│    │    └─ActQuantProxyFromInjector: 3-2                                  [1, 3, 224, 224]          --
│    └─QuantReLU: 2-97                                                      --                        (recursive)
│    │    └─ActQuantProxyFromInjector: 3-179                                --                        (recursive)
│    └─QuantIdentity: 2-3                                                   --                        --
│    │    └─ActQuantProxyFromInjector: 3-4                                  --                        --
│    └─QuantConv2d: 2-4                                                     [1, 32, 224, 224]         --
│    │    └─ActQuantProxyFromInjector: 3-5                                  [1, 3, 224, 224]          --
│    │    └─WeightQuantProxyFromInjector: 3-6                               [32, 3, 3, 3]             896
│    │    └─BiasQuantProxyFromInjector: 3-7                                 [32]                      32
│    │    └─ActQuantProxyFromInjector: 3-8                                  [1, 32, 224, 224]         --
│    └─QuantReLU: 2-5                                                       [1, 32, 224, 224]         --
│    │    └─ActQuantProxyFromInjector: 3-9                                  [1, 32, 224, 224]         --
│    │    └─ActQuantProxyFromInjector: 3-10                                 [1, 32, 224, 224]         1
│    └─QuantReLU: 2-97                                                      --                        (recursive)
│    │    └─ActQuantProxyFromInjector: 3-179                                --                        (recursive)
│    └─QuantReLU: 2-7                                                       --                        (recursive)
│    │    └─ActQuantProxyFromInjector: 3-12                                 --                        (recursive)
│    └─Dropout2d: 2-8                                                       [1, 32, 224, 224]         --
│    └─QuantMaxPool2d: 2-9                                                  [1, 32, 112, 112]         --
│    └─QuantConv2d: 2-10                                                    [1, 16, 112, 112]         --
│    │    └─ActQuantProxyFromInjector: 3-13                                 [1, 32, 112, 112]         --
│    │    └─WeightQuantProxyFromInjector: 3-14                              [16, 32, 3, 3]            4,624
│    │    └─BiasQuantProxyFromInjector: 3-15                                [16]                      16
│    │    └─ActQuantProxyFromInjector: 3-16                                 [1, 16, 112, 112]         --
│    └─QuantReLU: 2-11                                                      [1, 16, 112, 112]         --
│    │    └─ActQuantProxyFromInjector: 3-17                                 [1, 16, 112, 112]         --
│    │    └─ActQuantProxyFromInjector: 3-18                                 [1, 16, 112, 112]         1
│    └─QuantReLU: 2-97                                                      --                        (recursive)
│    │    └─ActQuantProxyFromInjector: 3-179                                --                        (recursive)
│    └─QuantReLU: 2-13                                                      --                        (recursive)
│    │    └─ActQuantProxyFromInjector: 3-20                                 --                        (recursive)
│    └─Dropout2d: 2-14                                                      [1, 16, 112, 112]         --
│    └─QuantMaxPool2d: 2-15                                                 [1, 16, 56, 56]           --
│    └─QuantConv2d: 2-16                                                    [1, 16, 56, 56]           --
│    │    └─ActQuantProxyFromInjector: 3-21                                 [1, 16, 56, 56]           --
│    │    └─WeightQuantProxyFromInjector: 3-22                              [16, 16, 1, 1]            272
│    │    └─BiasQuantProxyFromInjector: 3-23                                [16]                      16
│    │    └─ActQuantProxyFromInjector: 3-24                                 [1, 16, 56, 56]           --
│    └─QuantReLU: 2-17                                                      [1, 16, 56, 56]           --
│    │    └─ActQuantProxyFromInjector: 3-25                                 [1, 16, 56, 56]           --
│    │    └─ActQuantProxyFromInjector: 3-26                                 [1, 16, 56, 56]           1
│    └─QuantReLU: 2-97                                                      --                        (recursive)
│    │    └─ActQuantProxyFromInjector: 3-179                                --                        (recursive)
│    └─QuantReLU: 2-19                                                      --                        (recursive)
│    │    └─ActQuantProxyFromInjector: 3-28                                 --                        (recursive)
│    └─QuantConv2d: 2-20                                                    [1, 32, 56, 56]           --
│    │    └─ActQuantProxyFromInjector: 3-29                                 [1, 16, 56, 56]           --
│    │    └─WeightQuantProxyFromInjector: 3-30                              [32, 16, 3, 3]            4,640
│    │    └─BiasQuantProxyFromInjector: 3-31                                [32]                      32
│    │    └─ActQuantProxyFromInjector: 3-32                                 [1, 32, 56, 56]           --
│    └─QuantReLU: 2-21                                                      [1, 32, 56, 56]           --
│    │    └─ActQuantProxyFromInjector: 3-33                                 [1, 32, 56, 56]           --
│    │    └─ActQuantProxyFromInjector: 3-34                                 [1, 32, 56, 56]           1
│    └─QuantReLU: 2-97                                                      --                        (recursive)
│    │    └─ActQuantProxyFromInjector: 3-179                                --                        (recursive)
│    └─QuantReLU: 2-23                                                      --                        (recursive)
│    │    └─ActQuantProxyFromInjector: 3-36                                 --                        (recursive)
│    └─QuantConv2d: 2-24                                                    [1, 32, 56, 56]           --
│    │    └─ActQuantProxyFromInjector: 3-37                                 [1, 32, 56, 56]           --
│    │    └─WeightQuantProxyFromInjector: 3-38                              [32, 32, 1, 1]            1,056
│    │    └─BiasQuantProxyFromInjector: 3-39                                [32]                      32
│    │    └─ActQuantProxyFromInjector: 3-40                                 [1, 32, 56, 56]           --
│    └─QuantReLU: 2-25                                                      [1, 32, 56, 56]           --
│    │    └─ActQuantProxyFromInjector: 3-41                                 [1, 32, 56, 56]           --
│    │    └─ActQuantProxyFromInjector: 3-42                                 [1, 32, 56, 56]           1
│    └─QuantReLU: 2-97                                                      --                        (recursive)
│    │    └─ActQuantProxyFromInjector: 3-179                                --                        (recursive)
│    └─QuantReLU: 2-27                                                      --                        (recursive)
│    │    └─ActQuantProxyFromInjector: 3-44                                 --                        (recursive)
│    └─QuantConv2d: 2-28                                                    [1, 64, 56, 56]           --
│    │    └─ActQuantProxyFromInjector: 3-45                                 [1, 32, 56, 56]           --
│    │    └─WeightQuantProxyFromInjector: 3-46                              [64, 32, 3, 3]            18,496
│    │    └─BiasQuantProxyFromInjector: 3-47                                [64]                      64
│    │    └─ActQuantProxyFromInjector: 3-48                                 [1, 64, 56, 56]           --
│    └─QuantReLU: 2-29                                                      [1, 64, 56, 56]           --
│    │    └─ActQuantProxyFromInjector: 3-49                                 [1, 64, 56, 56]           --
│    │    └─ActQuantProxyFromInjector: 3-50                                 [1, 64, 56, 56]           1
│    └─QuantReLU: 2-97                                                      --                        (recursive)
│    │    └─ActQuantProxyFromInjector: 3-179                                --                        (recursive)
│    └─QuantReLU: 2-31                                                      --                        (recursive)
│    │    └─ActQuantProxyFromInjector: 3-52                                 --                        (recursive)
│    └─QuantMaxPool2d: 2-32                                                 [1, 64, 28, 28]           --
│    └─QuantConv2d: 2-33                                                    [1, 32, 28, 28]           --
│    │    └─ActQuantProxyFromInjector: 3-53                                 [1, 64, 28, 28]           --
│    │    └─WeightQuantProxyFromInjector: 3-54                              [32, 64, 1, 1]            2,080
│    │    └─BiasQuantProxyFromInjector: 3-55                                [32]                      32
│    │    └─ActQuantProxyFromInjector: 3-56                                 [1, 32, 28, 28]           --
│    └─QuantReLU: 2-34                                                      [1, 32, 28, 28]           --
│    │    └─ActQuantProxyFromInjector: 3-57                                 [1, 32, 28, 28]           --
│    │    └─ActQuantProxyFromInjector: 3-58                                 [1, 32, 28, 28]           1
│    └─QuantReLU: 2-97                                                      --                        (recursive)
│    │    └─ActQuantProxyFromInjector: 3-179                                --                        (recursive)
│    └─QuantReLU: 2-36                                                      --                        (recursive)
│    │    └─ActQuantProxyFromInjector: 3-60                                 --                        (recursive)
│    └─QuantConv2d: 2-37                                                    [1, 64, 28, 28]           --
│    │    └─ActQuantProxyFromInjector: 3-61                                 [1, 32, 28, 28]           --
│    │    └─WeightQuantProxyFromInjector: 3-62                              [64, 32, 3, 3]            18,496
│    │    └─BiasQuantProxyFromInjector: 3-63                                [64]                      64
│    │    └─ActQuantProxyFromInjector: 3-64                                 [1, 64, 28, 28]           --
│    └─QuantReLU: 2-38                                                      [1, 64, 28, 28]           --
│    │    └─ActQuantProxyFromInjector: 3-65                                 [1, 64, 28, 28]           --
│    │    └─ActQuantProxyFromInjector: 3-66                                 [1, 64, 28, 28]           1
│    └─QuantReLU: 2-97                                                      --                        (recursive)
│    │    └─ActQuantProxyFromInjector: 3-179                                --                        (recursive)
│    └─QuantReLU: 2-40                                                      --                        (recursive)
│    │    └─ActQuantProxyFromInjector: 3-68                                 --                        (recursive)
│    └─QuantConv2d: 2-41                                                    [1, 32, 28, 28]           --
│    │    └─ActQuantProxyFromInjector: 3-69                                 [1, 64, 28, 28]           --
│    │    └─WeightQuantProxyFromInjector: 3-70                              [32, 64, 1, 1]            2,080
│    │    └─BiasQuantProxyFromInjector: 3-71                                [32]                      32
│    │    └─ActQuantProxyFromInjector: 3-72                                 [1, 32, 28, 28]           --
│    └─QuantReLU: 2-42                                                      [1, 32, 28, 28]           --
│    │    └─ActQuantProxyFromInjector: 3-73                                 [1, 32, 28, 28]           --
│    │    └─ActQuantProxyFromInjector: 3-74                                 [1, 32, 28, 28]           1
│    └─QuantReLU: 2-97                                                      --                        (recursive)
│    │    └─ActQuantProxyFromInjector: 3-179                                --                        (recursive)
│    └─QuantReLU: 2-44                                                      --                        (recursive)
│    │    └─ActQuantProxyFromInjector: 3-76                                 --                        (recursive)
│    └─QuantConv2d: 2-45                                                    [1, 64, 28, 28]           --
│    │    └─ActQuantProxyFromInjector: 3-77                                 [1, 32, 28, 28]           --
│    │    └─WeightQuantProxyFromInjector: 3-78                              [64, 32, 3, 3]            18,496
│    │    └─BiasQuantProxyFromInjector: 3-79                                [64]                      64
│    │    └─ActQuantProxyFromInjector: 3-80                                 [1, 64, 28, 28]           --
│    └─QuantReLU: 2-46                                                      [1, 64, 28, 28]           --
│    │    └─ActQuantProxyFromInjector: 3-81                                 [1, 64, 28, 28]           --
│    │    └─ActQuantProxyFromInjector: 3-82                                 [1, 64, 28, 28]           1
│    └─QuantReLU: 2-97                                                      --                        (recursive)
│    │    └─ActQuantProxyFromInjector: 3-179                                --                        (recursive)
│    └─QuantReLU: 2-48                                                      --                        (recursive)
│    │    └─ActQuantProxyFromInjector: 3-84                                 --                        (recursive)
│    └─QuantConv2d: 2-49                                                    [1, 32, 28, 28]           --
│    │    └─ActQuantProxyFromInjector: 3-85                                 [1, 64, 28, 28]           --
│    │    └─WeightQuantProxyFromInjector: 3-86                              [32, 64, 1, 1]            2,080
│    │    └─BiasQuantProxyFromInjector: 3-87                                [32]                      32
│    │    └─ActQuantProxyFromInjector: 3-88                                 [1, 32, 28, 28]           --
│    └─QuantReLU: 2-50                                                      [1, 32, 28, 28]           --
│    │    └─ActQuantProxyFromInjector: 3-89                                 [1, 32, 28, 28]           --
│    │    └─ActQuantProxyFromInjector: 3-90                                 [1, 32, 28, 28]           1
│    └─QuantReLU: 2-97                                                      --                        (recursive)
│    │    └─ActQuantProxyFromInjector: 3-179                                --                        (recursive)
│    └─QuantReLU: 2-52                                                      --                        (recursive)
│    │    └─ActQuantProxyFromInjector: 3-92                                 --                        (recursive)
│    └─QuantConv2d: 2-53                                                    [1, 64, 28, 28]           --
│    │    └─ActQuantProxyFromInjector: 3-93                                 [1, 32, 28, 28]           --
│    │    └─WeightQuantProxyFromInjector: 3-94                              [64, 32, 3, 3]            18,496
│    │    └─BiasQuantProxyFromInjector: 3-95                                [64]                      64
│    │    └─ActQuantProxyFromInjector: 3-96                                 [1, 64, 28, 28]           --
│    └─QuantReLU: 2-54                                                      [1, 64, 28, 28]           --
│    │    └─ActQuantProxyFromInjector: 3-97                                 [1, 64, 28, 28]           --
│    │    └─ActQuantProxyFromInjector: 3-98                                 [1, 64, 28, 28]           1
│    └─QuantReLU: 2-97                                                      --                        (recursive)
│    │    └─ActQuantProxyFromInjector: 3-179                                --                        (recursive)
│    └─QuantReLU: 2-56                                                      --                        (recursive)
│    │    └─ActQuantProxyFromInjector: 3-100                                --                        (recursive)
│    └─QuantMaxPool2d: 2-57                                                 [1, 64, 14, 14]           --
│    └─QuantConv2d: 2-58                                                    [1, 32, 14, 14]           --
│    │    └─ActQuantProxyFromInjector: 3-101                                [1, 64, 14, 14]           --
│    │    └─WeightQuantProxyFromInjector: 3-102                             [32, 64, 1, 1]            2,080
│    │    └─BiasQuantProxyFromInjector: 3-103                               [32]                      32
│    │    └─ActQuantProxyFromInjector: 3-104                                [1, 32, 14, 14]           --
│    └─QuantReLU: 2-59                                                      [1, 32, 14, 14]           --
│    │    └─ActQuantProxyFromInjector: 3-105                                [1, 32, 14, 14]           --
│    │    └─ActQuantProxyFromInjector: 3-106                                [1, 32, 14, 14]           1
│    └─QuantReLU: 2-97                                                      --                        (recursive)
│    │    └─ActQuantProxyFromInjector: 3-179                                --                        (recursive)
│    └─QuantReLU: 2-61                                                      --                        (recursive)
│    │    └─ActQuantProxyFromInjector: 3-108                                --                        (recursive)
│    └─QuantConv2d: 2-62                                                    [1, 64, 14, 14]           --
│    │    └─ActQuantProxyFromInjector: 3-109                                [1, 32, 14, 14]           --
│    │    └─WeightQuantProxyFromInjector: 3-110                             [64, 32, 3, 3]            18,496
│    │    └─BiasQuantProxyFromInjector: 3-111                               [64]                      64
│    │    └─ActQuantProxyFromInjector: 3-112                                [1, 64, 14, 14]           --
│    └─QuantReLU: 2-63                                                      [1, 64, 14, 14]           --
│    │    └─ActQuantProxyFromInjector: 3-113                                [1, 64, 14, 14]           --
│    │    └─ActQuantProxyFromInjector: 3-114                                [1, 64, 14, 14]           1
│    └─QuantReLU: 2-97                                                      --                        (recursive)
│    │    └─ActQuantProxyFromInjector: 3-179                                --                        (recursive)
│    └─QuantReLU: 2-65                                                      --                        (recursive)
│    │    └─ActQuantProxyFromInjector: 3-116                                --                        (recursive)
│    └─QuantConv2d: 2-66                                                    [1, 32, 14, 14]           --
│    │    └─ActQuantProxyFromInjector: 3-117                                [1, 64, 14, 14]           --
│    │    └─WeightQuantProxyFromInjector: 3-118                             [32, 64, 1, 1]            2,080
│    │    └─BiasQuantProxyFromInjector: 3-119                               [32]                      32
│    │    └─ActQuantProxyFromInjector: 3-120                                [1, 32, 14, 14]           --
│    └─QuantReLU: 2-67                                                      [1, 32, 14, 14]           --
│    │    └─ActQuantProxyFromInjector: 3-121                                [1, 32, 14, 14]           --
│    │    └─ActQuantProxyFromInjector: 3-122                                [1, 32, 14, 14]           1
│    └─QuantReLU: 2-97                                                      --                        (recursive)
│    │    └─ActQuantProxyFromInjector: 3-179                                --                        (recursive)
│    └─QuantReLU: 2-69                                                      --                        (recursive)
│    │    └─ActQuantProxyFromInjector: 3-124                                --                        (recursive)
│    └─QuantConv2d: 2-70                                                    [1, 64, 14, 14]           --
│    │    └─ActQuantProxyFromInjector: 3-125                                [1, 32, 14, 14]           --
│    │    └─WeightQuantProxyFromInjector: 3-126                             [64, 32, 3, 3]            18,496
│    │    └─BiasQuantProxyFromInjector: 3-127                               [64]                      64
│    │    └─ActQuantProxyFromInjector: 3-128                                [1, 64, 14, 14]           --
│    └─QuantReLU: 2-71                                                      [1, 64, 14, 14]           --
│    │    └─ActQuantProxyFromInjector: 3-129                                [1, 64, 14, 14]           --
│    │    └─ActQuantProxyFromInjector: 3-130                                [1, 64, 14, 14]           1
│    └─QuantReLU: 2-97                                                      --                        (recursive)
│    │    └─ActQuantProxyFromInjector: 3-179                                --                        (recursive)
│    └─QuantReLU: 2-73                                                      --                        (recursive)
│    │    └─ActQuantProxyFromInjector: 3-132                                --                        (recursive)
│    └─QuantConv2d: 2-74                                                    [1, 64, 14, 14]           --
│    │    └─ActQuantProxyFromInjector: 3-133                                [1, 64, 14, 14]           --
│    │    └─WeightQuantProxyFromInjector: 3-134                             [64, 64, 3, 3]            36,928
│    │    └─BiasQuantProxyFromInjector: 3-135                               [64]                      64
│    │    └─ActQuantProxyFromInjector: 3-136                                [1, 64, 14, 14]           --
│    └─QuantReLU: 2-75                                                      [1, 64, 14, 14]           --
│    │    └─ActQuantProxyFromInjector: 3-137                                [1, 64, 14, 14]           --
│    │    └─ActQuantProxyFromInjector: 3-138                                [1, 64, 14, 14]           1
│    └─QuantReLU: 2-97                                                      --                        (recursive)
│    │    └─ActQuantProxyFromInjector: 3-179                                --                        (recursive)
│    └─QuantReLU: 2-77                                                      --                        (recursive)
│    │    └─ActQuantProxyFromInjector: 3-140                                --                        (recursive)
│    └─QuantConv2d: 2-78                                                    [1, 64, 14, 14]           --
│    │    └─ActQuantProxyFromInjector: 3-141                                [1, 64, 14, 14]           --
│    │    └─WeightQuantProxyFromInjector: 3-142                             [64, 64, 3, 3]            36,928
│    │    └─BiasQuantProxyFromInjector: 3-143                               [64]                      64
│    │    └─ActQuantProxyFromInjector: 3-144                                [1, 64, 14, 14]           --
│    └─QuantReLU: 2-79                                                      [1, 64, 14, 14]           --
│    │    └─ActQuantProxyFromInjector: 3-145                                [1, 64, 14, 14]           --
│    │    └─ActQuantProxyFromInjector: 3-146                                [1, 64, 14, 14]           1
│    └─QuantReLU: 2-97                                                      --                        (recursive)
│    │    └─ActQuantProxyFromInjector: 3-179                                --                        (recursive)
│    └─QuantReLU: 2-81                                                      --                        (recursive)
│    │    └─ActQuantProxyFromInjector: 3-148                                --                        (recursive)
│    └─QuantMaxPool2d: 2-82                                                 [1, 64, 7, 7]             --
│    └─QuantConv2d: 2-83                                                    [1, 64, 7, 7]             --
│    │    └─ActQuantProxyFromInjector: 3-149                                [1, 64, 7, 7]             --
│    │    └─WeightQuantProxyFromInjector: 3-150                             [64, 64, 3, 3]            36,928
│    │    └─BiasQuantProxyFromInjector: 3-151                               [64]                      64
│    │    └─ActQuantProxyFromInjector: 3-152                                [1, 64, 7, 7]             --
│    └─QuantReLU: 2-84                                                      [1, 64, 7, 7]             --
│    │    └─ActQuantProxyFromInjector: 3-153                                [1, 64, 7, 7]             --
│    │    └─ActQuantProxyFromInjector: 3-154                                [1, 64, 7, 7]             1
│    └─QuantReLU: 2-97                                                      --                        (recursive)
│    │    └─ActQuantProxyFromInjector: 3-179                                --                        (recursive)
│    └─QuantReLU: 2-86                                                      --                        (recursive)
│    │    └─ActQuantProxyFromInjector: 3-156                                --                        (recursive)
│    └─QuantConv2d: 2-87                                                    [1, 64, 7, 7]             --
│    │    └─ActQuantProxyFromInjector: 3-157                                [1, 64, 7, 7]             --
│    │    └─WeightQuantProxyFromInjector: 3-158                             [64, 64, 3, 3]            36,928
│    │    └─BiasQuantProxyFromInjector: 3-159                               [64]                      64
│    │    └─ActQuantProxyFromInjector: 3-160                                [1, 64, 7, 7]             --
│    └─QuantReLU: 2-88                                                      [1, 64, 7, 7]             --
│    │    └─ActQuantProxyFromInjector: 3-161                                [1, 64, 7, 7]             --
│    │    └─ActQuantProxyFromInjector: 3-162                                [1, 64, 7, 7]             1
│    └─QuantReLU: 2-97                                                      --                        (recursive)
│    │    └─ActQuantProxyFromInjector: 3-179                                --                        (recursive)
│    └─QuantReLU: 2-90                                                      --                        (recursive)
│    │    └─ActQuantProxyFromInjector: 3-164                                --                        (recursive)
│    └─QuantConv2d: 2-91                                                    [1, 64, 7, 7]             --
│    │    └─ActQuantProxyFromInjector: 3-165                                [1, 64, 7, 7]             --
│    │    └─WeightQuantProxyFromInjector: 3-166                             [64, 64, 1, 1]            4,160
│    │    └─BiasQuantProxyFromInjector: 3-167                               [64]                      64
│    │    └─ActQuantProxyFromInjector: 3-168                                [1, 64, 7, 7]             --
│    └─QuantReLU: 2-92                                                      [1, 64, 7, 7]             --
│    │    └─ActQuantProxyFromInjector: 3-169                                [1, 64, 7, 7]             --
│    │    └─ActQuantProxyFromInjector: 3-170                                [1, 64, 7, 7]             1
│    └─QuantReLU: 2-97                                                      --                        (recursive)
│    │    └─ActQuantProxyFromInjector: 3-179                                --                        (recursive)
│    └─QuantReLU: 2-94                                                      --                        (recursive)
│    │    └─ActQuantProxyFromInjector: 3-172                                --                        (recursive)
│    └─QuantConv2d: 2-95                                                    [1, 16, 7, 7]             --
│    │    └─ActQuantProxyFromInjector: 3-173                                [1, 64, 7, 7]             --
│    │    └─WeightQuantProxyFromInjector: 3-174                             [16, 64, 1, 1]            1,040
│    │    └─BiasQuantProxyFromInjector: 3-175                               [16]                      16
│    │    └─ActQuantProxyFromInjector: 3-176                                [1, 16, 7, 7]             --
│    └─QuantReLU: 2-96                                                      [1, 16, 7, 7]             --
│    │    └─ActQuantProxyFromInjector: 3-177                                [1, 16, 7, 7]             --
│    │    └─ActQuantProxyFromInjector: 3-178                                [1, 16, 7, 7]             1
│    └─QuantReLU: 2-97                                                      --                        (recursive)
│    │    └─ActQuantProxyFromInjector: 3-179                                --                        (recursive)
│    └─QuantReLU: 2-98                                                      --                        (recursive)
│    │    └─ActQuantProxyFromInjector: 3-180                                --                        (recursive)
│    └─QuantConv2d: 2-99                                                    [1, 16, 7, 7]             --
│    │    └─ActQuantProxyFromInjector: 3-181                                [1, 16, 7, 7]             --
│    │    └─WeightQuantProxyFromInjector: 3-182                             [16, 16, 1, 1]            272
│    │    └─BiasQuantProxyFromInjector: 3-183                               [16]                      16
│    │    └─ActQuantProxyFromInjector: 3-184                                [1, 16, 7, 7]             --
│    └─QuantReLU: 2-100                                                     [1, 16, 7, 7]             --
│    │    └─ActQuantProxyFromInjector: 3-185                                [1, 16, 7, 7]             --
│    │    └─ActQuantProxyFromInjector: 3-186                                [1, 16, 7, 7]             1
│    └─QuantConv2d: 2-101                                                   [1, 12, 7, 7]             --
│    │    └─ActQuantProxyFromInjector: 3-187                                [1, 16, 7, 7]             --
│    │    └─WeightQuantProxyFromInjector: 3-188                             [12, 16, 1, 1]            204
│    │    └─BiasQuantProxyFromInjector: 3-189                               [12]                      12
│    │    └─ActQuantProxyFromInjector: 3-190                                [1, 12, 7, 7]             --
=============================================================================================================================
Total params: 287,311
Trainable params: 287,311
Non-trainable params: 0
Total mult-adds (M): 0
=============================================================================================================================
Input size (MB): 0.60
Forward/backward pass size (MB): 0.00
…
