…
	Scheduler min learning rate: 1e-06

Batch Size: 64
Num Workers: 8
Pin Memory: True
Epochs: 100

IMG DIMS:
	Width: 224
	Height: 224

Brevitas Config:
	Fixed Point: True
	Weights Bit Width: 4
	Big Layers Weights Bit Width: 2
	Bias Bit Width: 4
	Activations Bit Width: 4

Trainable parameters = 786718
Total parameters = 786718

==========================================================================================
Layer (type:depth-idx)                   Output Shape              Param #
==========================================================================================
Torch_CNV_w1a1_Balanced_Resnet_bram      [1, 2]                    --
├─Sequential: 1-1                        [1, 240, 1, 1]            --
│    └─Sequential: 2-1                   [1, 8, 112, 112]          --
│    │    └─Conv2d: 3-1                  [1, 8, 224, 224]          216
│    │    └─BatchNorm2d: 3-2             [1, 8, 224, 224]          16
│    │    └─ReLU: 3-3                    [1, 8, 224, 224]          --
│    │    └─MaxPool2d: 3-4               [1, 8, 112, 112]          --
│    └─Sequential: 2-2                   [1, 14, 56, 56]           --
│    │    └─Conv2d: 3-5                  [1, 14, 112, 112]         1,008
│    │    └─BatchNorm2d: 3-6             [1, 14, 112, 112]         28
│    │    └─ReLU: 3-7                    [1, 14, 112, 112]         --
│    │    └─MaxPool2d: 3-8               [1, 14, 56, 56]           --
│    └─ConvBlock: 2-3                    [1, 28, 28, 28]           --
│    │    └─Sequential: 3-9              [1, 28, 56, 56]           4,344
│    │    └─Sequential: 3-10             [1, 28, 56, 56]           4,568
│    │    └─MaxPool2d: 3-11              [1, 28, 28, 28]           --
│    └─ConvBlock: 2-4                    [1, 60, 14, 14]           --
│    │    └─Sequential: 3-12             [1, 60, 28, 28]           17,220
│    │    └─Sequential: 3-13             [1, 60, 28, 28]           18,180
│    │    └─MaxPool2d: 3-14              [1, 60, 14, 14]           --
│    └─ConvBlock: 2-5                    [1, 120, 7, 7]            --
│    │    └─Sequential: 3-15             [1, 120, 14, 14]          68,760
│    │    └─Sequential: 3-16             [1, 120, 14, 14]          72,360
│    │    └─MaxPool2d: 3-17              [1, 120, 7, 7]            --
│    └─ConvBlock: 2-6                    [1, 240, 1, 1]            --
│    │    └─Sequential: 3-18             [1, 240, 7, 7]            274,320
│    │    └─Sequential: 3-19             [1, 240, 7, 7]            288,720
│    │    └─AvgPool2d: 3-20              [1, 240, 1, 1]            --
├─Sequential: 1-2                        [1, 2]                    --
│    └─Sequential: 2-7                   [1, 120]                  --
│    │    └─Linear: 3-21                 [1, 120]                  28,800
│    │    └─BatchNorm1d: 3-22            [1, 120]                  240
│    │    └─ReLU: 3-23                   [1, 120]                  --
│    └─Sequential: 2-8                   [1, 64]                   --
│    │    └─Linear: 3-24                 [1, 64]                   7,680
│    │    └─BatchNorm1d: 3-25            [1, 64]                   128
│    │    └─ReLU: 3-26                   [1, 64]                   --
│    └─Linear: 2-9                       [1, 2]                    130
==========================================================================================
Total params: 786,718
Trainable params: 786,718
Non-trainable params: 0
Total mult-adds (M): 133.43
==========================================================================================
Input size (MB): 0.60
Forward/backward pass size (MB): 17.60
Params size (MB): 3.15
Estimated Total Size (MB): 21.35
==========================================================================================
…
