…
          (msb_clamp_bit_width_impl): BitWidthConst(
            (bit_width): StatelessBuffer()
          )
        )
      )
    )
  )
)
Loading Model. Trained during 133 epochs
=============================================================================================================================
Layer (type:depth-idx)                                                      Output Shape              Param #
=============================================================================================================================
QUANT_FixedPoint_NoBN_BED_CLASSIFIER                                        [64, 2]                   --
Sequential: 1-1                                                           [64, 2]                   --
    QuantIdentity: 2-1                                                   [64, 3, 224, 224]         --
        ActQuantProxyFromInjector: 3-1                                  [64, 3, 224, 224]         --
        ActQuantProxyFromInjector: 3-2                                  [64, 3, 224, 224]         1
    QuantReLU: 2-55                                                      --                        (recursive)
        ActQuantProxyFromInjector: 3-99                                 --                        (recursive)
    QuantIdentity: 2-3                                                   --                        (recursive)
        ActQuantProxyFromInjector: 3-4                                  --                        (recursive)
    QuantConv2d: 2-4                                                     [64, 32, 224, 224]        --
        ActQuantProxyFromInjector: 3-5                                  [64, 3, 224, 224]         --
        WeightQuantProxyFromInjector: 3-6                               [32, 3, 3, 3]             896
        BiasQuantProxyFromInjector: 3-7                                 [32]                      32
        ActQuantProxyFromInjector: 3-8                                  [64, 32, 224, 224]        --
    QuantReLU: 2-5                                                       [64, 32, 224, 224]        --
        ActQuantProxyFromInjector: 3-9                                  [64, 32, 224, 224]        --
        ActQuantProxyFromInjector: 3-10                                 [64, 32, 224, 224]        1
    QuantReLU: 2-55                                                      --                        (recursive)
        ActQuantProxyFromInjector: 3-99                                 --                        (recursive)
    QuantReLU: 2-7                                                       --                        (recursive)
        ActQuantProxyFromInjector: 3-12                                 --                        (recursive)
    Dropout2d: 2-8                                                       [64, 32, 224, 224]        --
    MaxPool2d: 2-9                                                       [64, 32, 112, 112]        --
    QuantConv2d: 2-10                                                    [64, 16, 112, 112]        --
        ActQuantProxyFromInjector: 3-13                                 [64, 32, 112, 112]        --
        WeightQuantProxyFromInjector: 3-14                              [16, 32, 3, 3]            4,624
        BiasQuantProxyFromInjector: 3-15                                [16]                      16
        ActQuantProxyFromInjector: 3-16                                 [64, 16, 112, 112]        --
    QuantReLU: 2-11                                                      [64, 16, 112, 112]        --
        ActQuantProxyFromInjector: 3-17                                 [64, 16, 112, 112]        --
        ActQuantProxyFromInjector: 3-18                                 [64, 16, 112, 112]        1
    QuantReLU: 2-55                                                      --                        (recursive)
        ActQuantProxyFromInjector: 3-99                                 --                        (recursive)
    QuantReLU: 2-13                                                      --                        (recursive)
        ActQuantProxyFromInjector: 3-20                                 --                        (recursive)
    Dropout2d: 2-14                                                      [64, 16, 112, 112]        --
    MaxPool2d: 2-15                                                      [64, 16, 56, 56]          --
    QuantConv2d: 2-16                                                    [64, 16, 56, 56]          --
        ActQuantProxyFromInjector: 3-21                                 [64, 16, 56, 56]          --
        WeightQuantProxyFromInjector: 3-22                              [16, 16, 1, 1]            272
        BiasQuantProxyFromInjector: 3-23                                [16]                      16
        ActQuantProxyFromInjector: 3-24                                 [64, 16, 56, 56]          --
    QuantReLU: 2-17                                                      [64, 16, 56, 56]          --
        ActQuantProxyFromInjector: 3-25                                 [64, 16, 56, 56]          --
        ActQuantProxyFromInjector: 3-26                                 [64, 16, 56, 56]          1
    QuantReLU: 2-55                                                      --                        (recursive)
        ActQuantProxyFromInjector: 3-99                                 --                        (recursive)
    QuantReLU: 2-19                                                      --                        (recursive)
        ActQuantProxyFromInjector: 3-28                                 --                        (recursive)
    QuantConv2d: 2-20                                                    [64, 32, 56, 56]          --
        ActQuantProxyFromInjector: 3-29                                 [64, 16, 56, 56]          --
        WeightQuantProxyFromInjector: 3-30                              [32, 16, 3, 3]            4,640
        BiasQuantProxyFromInjector: 3-31                                [32]                      32
        ActQuantProxyFromInjector: 3-32                                 [64, 32, 56, 56]          --
    QuantReLU: 2-21                                                      [64, 32, 56, 56]          --
        ActQuantProxyFromInjector: 3-33                                 [64, 32, 56, 56]          --
        ActQuantProxyFromInjector: 3-34                                 [64, 32, 56, 56]          1
    QuantReLU: 2-55                                                      --                        (recursive)
        ActQuantProxyFromInjector: 3-99                                 --                        (recursive)
    QuantReLU: 2-23                                                      --                        (recursive)
        ActQuantProxyFromInjector: 3-36                                 --                        (recursive)
    QuantConv2d: 2-24                                                    [64, 32, 56, 56]          --
        ActQuantProxyFromInjector: 3-37                                 [64, 32, 56, 56]          --
        WeightQuantProxyFromInjector: 3-38                              [32, 32, 1, 1]            1,056
        BiasQuantProxyFromInjector: 3-39                                [32]                      32
        ActQuantProxyFromInjector: 3-40                                 [64, 32, 56, 56]          --
    QuantReLU: 2-25                                                      [64, 32, 56, 56]          --
        ActQuantProxyFromInjector: 3-41                                 [64, 32, 56, 56]          --
        ActQuantProxyFromInjector: 3-42                                 [64, 32, 56, 56]          1
    QuantReLU: 2-55                                                      --                        (recursive)
        ActQuantProxyFromInjector: 3-99                                 --                        (recursive)
    QuantReLU: 2-27                                                      --                        (recursive)
        ActQuantProxyFromInjector: 3-44                                 --                        (recursive)
    QuantConv2d: 2-28                                                    [64, 64, 56, 56]          --
        ActQuantProxyFromInjector: 3-45                                 [64, 32, 56, 56]          --
        WeightQuantProxyFromInjector: 3-46                              [64, 32, 3, 3]            18,496
        BiasQuantProxyFromInjector: 3-47                                [64]                      64
        ActQuantProxyFromInjector: 3-48                                 [64, 64, 56, 56]          --
    QuantReLU: 2-29                                                      [64, 64, 56, 56]          --
        ActQuantProxyFromInjector: 3-49                                 [64, 64, 56, 56]          --
        ActQuantProxyFromInjector: 3-50                                 [64, 64, 56, 56]          1
    QuantReLU: 2-55                                                      --                        (recursive)
        ActQuantProxyFromInjector: 3-99                                 --                        (recursive)
    QuantReLU: 2-31                                                      --                        (recursive)
        ActQuantProxyFromInjector: 3-52                                 --                        (recursive)
    MaxPool2d: 2-32                                                      [64, 64, 28, 28]          --
    QuantConv2d: 2-33                                                    [64, 32, 28, 28]          --
        ActQuantProxyFromInjector: 3-53                                 [64, 64, 28, 28]          --
        WeightQuantProxyFromInjector: 3-54                              [32, 64, 1, 1]            2,080
        BiasQuantProxyFromInjector: 3-55                                [32]                      32
        ActQuantProxyFromInjector: 3-56                                 [64, 32, 28, 28]          --
    QuantReLU: 2-34                                                      [64, 32, 28, 28]          --
        ActQuantProxyFromInjector: 3-57                                 [64, 32, 28, 28]          --
        ActQuantProxyFromInjector: 3-58                                 [64, 32, 28, 28]          1
    QuantReLU: 2-55                                                      --                        (recursive)
        ActQuantProxyFromInjector: 3-99                                 --                        (recursive)
    QuantReLU: 2-36                                                      --                        (recursive)
        ActQuantProxyFromInjector: 3-60                                 --                        (recursive)
    QuantConv2d: 2-37                                                    [64, 64, 28, 28]          --
        ActQuantProxyFromInjector: 3-61                                 [64, 32, 28, 28]          --
        WeightQuantProxyFromInjector: 3-62                              [64, 32, 3, 3]            18,496
        BiasQuantProxyFromInjector: 3-63                                [64]                      64
        ActQuantProxyFromInjector: 3-64                                 [64, 64, 28, 28]          --
    QuantReLU: 2-38                                                      [64, 64, 28, 28]          --
        ActQuantProxyFromInjector: 3-65                                 [64, 64, 28, 28]          --
        ActQuantProxyFromInjector: 3-66                                 [64, 64, 28, 28]          1
    QuantReLU: 2-55                                                      --                        (recursive)
        ActQuantProxyFromInjector: 3-99                                 --                        (recursive)
    QuantReLU: 2-40                                                      --                        (recursive)
        ActQuantProxyFromInjector: 3-68                                 --                        (recursive)
    QuantConv2d: 2-41                                                    [64, 32, 28, 28]          --
        ActQuantProxyFromInjector: 3-69                                 [64, 64, 28, 28]          --
        WeightQuantProxyFromInjector: 3-70                              [32, 64, 1, 1]            2,080
        BiasQuantProxyFromInjector: 3-71                                [32]                      32
        ActQuantProxyFromInjector: 3-72                                 [64, 32, 28, 28]          --
    QuantReLU: 2-42                                                      [64, 32, 28, 28]          --
        ActQuantProxyFromInjector: 3-73                                 [64, 32, 28, 28]          --
        ActQuantProxyFromInjector: 3-74                                 [64, 32, 28, 28]          1
    QuantReLU: 2-55                                                      --                        (recursive)
        ActQuantProxyFromInjector: 3-99                                 --                        (recursive)
    QuantReLU: 2-44                                                      --                        (recursive)
        ActQuantProxyFromInjector: 3-76                                 --                        (recursive)
    QuantConv2d: 2-45                                                    [64, 64, 28, 28]          --
        ActQuantProxyFromInjector: 3-77                                 [64, 32, 28, 28]          --
        WeightQuantProxyFromInjector: 3-78                              [64, 32, 3, 3]            18,496
        BiasQuantProxyFromInjector: 3-79                                [64]                      64
        ActQuantProxyFromInjector: 3-80                                 [64, 64, 28, 28]          --
    QuantReLU: 2-46                                                      [64, 64, 28, 28]          --
        ActQuantProxyFromInjector: 3-81                                 [64, 64, 28, 28]          --
        ActQuantProxyFromInjector: 3-82                                 [64, 64, 28, 28]          1
    QuantReLU: 2-55                                                      --                        (recursive)
        ActQuantProxyFromInjector: 3-99                                 --                        (recursive)
    QuantReLU: 2-48                                                      --                        (recursive)
        ActQuantProxyFromInjector: 3-84                                 --                        (recursive)
    QuantConv2d: 2-49                                                    [64, 32, 28, 28]          --
        ActQuantProxyFromInjector: 3-85                                 [64, 64, 28, 28]          --
        WeightQuantProxyFromInjector: 3-86                              [32, 64, 1, 1]            2,080
        BiasQuantProxyFromInjector: 3-87                                [32]                      32
        ActQuantProxyFromInjector: 3-88                                 [64, 32, 28, 28]          --
    QuantReLU: 2-50                                                      [64, 32, 28, 28]          --
        ActQuantProxyFromInjector: 3-89                                 [64, 32, 28, 28]          --
        ActQuantProxyFromInjector: 3-90                                 [64, 32, 28, 28]          1
    QuantReLU: 2-55                                                      --                        (recursive)
        ActQuantProxyFromInjector: 3-99                                 --                        (recursive)
    QuantReLU: 2-52                                                      --                        (recursive)
        ActQuantProxyFromInjector: 3-92                                 --                        (recursive)
    QuantConv2d: 2-53                                                    [64, 64, 28, 28]          --
        ActQuantProxyFromInjector: 3-93                                 [64, 32, 28, 28]          --
        WeightQuantProxyFromInjector: 3-94                              [64, 32, 3, 3]            18,496
        BiasQuantProxyFromInjector: 3-95                                [64]                      64
        ActQuantProxyFromInjector: 3-96                                 [64, 64, 28, 28]          --
    QuantReLU: 2-54                                                      [64, 64, 28, 28]          --
        ActQuantProxyFromInjector: 3-97                                 [64, 64, 28, 28]          --
        ActQuantProxyFromInjector: 3-98                                 [64, 64, 28, 28]          1
    QuantReLU: 2-55                                                      --                        (recursive)
        ActQuantProxyFromInjector: 3-99                                 --                        (recursive)
    QuantReLU: 2-56                                                      --                        (recursive)
        ActQuantProxyFromInjector: 3-100                                --                        (recursive)
    TruncAvgPool2d: 2-57                                                 [64, 64, 1, 1]            --
        TruncQuantProxyFromInjector: 3-101                              [64, 64, 1, 1]            --
    Flatten: 2-58                                                        [64, 64]                  --
    Dropout: 2-59                                                        [64, 64]                  --
    QuantLinear: 2-60                                                    [64, 16]                  --
        ActQuantProxyFromInjector: 3-102                                [64, 64]                  --
        WeightQuantProxyFromInjector: 3-103                             [16, 64]                  1,040
        BiasQuantProxyFromInjector: 3-104                               [16]                      16
        ActQuantProxyFromInjector: 3-105                                [64, 16]                  --
    QuantReLU: 2-61                                                      [64, 16]                  --
        ActQuantProxyFromInjector: 3-106                                [64, 16]                  --
        ActQuantProxyFromInjector: 3-107                                [64, 16]                  1
    QuantLinear: 2-62                                                    [64, 2]                   --
        ActQuantProxyFromInjector: 3-108                                [64, 16]                  --
        WeightQuantProxyFromInjector: 3-109                             [2, 16]                   34
        BiasQuantProxyFromInjector: 3-110                               [2]                       2
        ActQuantProxyFromInjector: 3-111                                [64, 2]                   --
=============================================================================================================================
Total params: 93,298
Trainable params: 93,298
Non-trainable params: 0
Total mult-adds (M): 0
=============================================================================================================================
Input size (MB): 38.54
Forward/backward pass size (MB): 0.00
Params size (MB): 0.00
Estimated Total Size (MB): 38.54
=============================================================================================================================
==========================================================================================
Layer (type:depth-idx)                   Output Shape              Param #
==========================================================================================
BED_CLASSIFIER                           [64, 2]                   --
Sequential: 1-1                        [64, 2]                   --
    Conv2d: 2-1                       [64, 32, 224, 224]        864
    BatchNorm2d: 2-2                  [64, 32, 224, 224]        64
    ReLU: 2-3                         [64, 32, 224, 224]        --
    Dropout2d: 2-4                    [64, 32, 224, 224]        --
    MaxPool2d: 2-5                    [64, 32, 112, 112]        --
    Conv2d: 2-6                       [64, 16, 112, 112]        4,608
    BatchNorm2d: 2-7                  [64, 16, 112, 112]        32
    ReLU: 2-8                         [64, 16, 112, 112]        --
    Dropout2d: 2-9                    [64, 16, 112, 112]        --
    MaxPool2d: 2-10                   [64, 16, 56, 56]          --
    Conv2d: 2-11                      [64, 16, 56, 56]          256
    BatchNorm2d: 2-12                 [64, 16, 56, 56]          32
    ReLU: 2-13                        [64, 16, 56, 56]          --
    Conv2d: 2-14                      [64, 32, 56, 56]          4,608
    BatchNorm2d: 2-15                 [64, 32, 56, 56]          64
    ReLU: 2-16                        [64, 32, 56, 56]          --
    Conv2d: 2-17                      [64, 32, 56, 56]          1,024
    BatchNorm2d: 2-18                 [64, 32, 56, 56]          64
    ReLU: 2-19                        [64, 32, 56, 56]          --
    Conv2d: 2-20                      [64, 64, 56, 56]          18,432
    BatchNorm2d: 2-21                 [64, 64, 56, 56]          128
    ReLU: 2-22                        [64, 64, 56, 56]          --
    MaxPool2d: 2-23                   [64, 64, 28, 28]          --
    Conv2d: 2-24                      [64, 32, 28, 28]          2,048
    BatchNorm2d: 2-25                 [64, 32, 28, 28]          64
    ReLU: 2-26                        [64, 32, 28, 28]          --
    Conv2d: 2-27                      [64, 64, 28, 28]          18,432
    BatchNorm2d: 2-28                 [64, 64, 28, 28]          128
    ReLU: 2-29                        [64, 64, 28, 28]          --
    Conv2d: 2-30                      [64, 32, 28, 28]          2,048
    BatchNorm2d: 2-31                 [64, 32, 28, 28]          64
    ReLU: 2-32                        [64, 32, 28, 28]          --
    Conv2d: 2-33                      [64, 64, 28, 28]          18,432
    BatchNorm2d: 2-34                 [64, 64, 28, 28]          128
    ReLU: 2-35                        [64, 64, 28, 28]          --
    Conv2d: 2-36                      [64, 32, 28, 28]          2,048
    BatchNorm2d: 2-37                 [64, 32, 28, 28]          64
    ReLU: 2-38                        [64, 32, 28, 28]          --
    Conv2d: 2-39                      [64, 64, 28, 28]          18,432
    BatchNorm2d: 2-40                 [64, 64, 28, 28]          128
    ReLU: 2-41                        [64, 64, 28, 28]          --
    AdaptiveAvgPool2d: 2-42           [64, 64, 1, 1]            --
    Flatten: 2-43                     [64, 64]                  --
    Dropout: 2-44                     [64, 64]                  --
    Linear: 2-45                      [64, 16]                  1,040
    ReLU: 2-46                        [64, 16]                  --
    Linear: 2-47                      [64, 2]                   34
==========================================================================================
Total params: 93,266
Trainable params: 93,266
Non-trainable params: 0
Total mult-adds (G): 14.44
==========================================================================================
Input size (MB): 38.54
Forward/backward pass size (MB): 2543.33
Params size (MB): 0.37
Estimated Total Size (MB): 2582.24
==========================================================================================
==========================================================================================
Layer (type:depth-idx)                   Output Shape              Param #
==========================================================================================
BED_CLASSIFIER                           [64, 2]                   --
Sequential: 1-1                        [64, 2]                   --
    Conv2d: 2-1                       [64, 32, 224, 224]        896
    Identity: 2-2                     [64, 32, 224, 224]        --
    ReLU: 2-3                         [64, 32, 224, 224]        --
    Dropout2d: 2-4                    [64, 32, 224, 224]        --
    MaxPool2d: 2-5                    [64, 32, 112, 112]        --
    Conv2d: 2-6                       [64, 16, 112, 112]        4,624
    Identity: 2-7                     [64, 16, 112, 112]        --
    ReLU: 2-8                         [64, 16, 112, 112]        --
    Dropout2d: 2-9                    [64, 16, 112, 112]        --
    MaxPool2d: 2-10                   [64, 16, 56, 56]          --
    Conv2d: 2-11                      [64, 16, 56, 56]          272
    Identity: 2-12                    [64, 16, 56, 56]          --
    ReLU: 2-13                        [64, 16, 56, 56]          --
    Conv2d: 2-14                      [64, 32, 56, 56]          4,640
    Identity: 2-15                    [64, 32, 56, 56]          --
    ReLU: 2-16                        [64, 32, 56, 56]          --
    Conv2d: 2-17                      [64, 32, 56, 56]          1,056
    Identity: 2-18                    [64, 32, 56, 56]          --
    ReLU: 2-19                        [64, 32, 56, 56]          --
    Conv2d: 2-20                      [64, 64, 56, 56]          18,496
    Identity: 2-21                    [64, 64, 56, 56]          --
    ReLU: 2-22                        [64, 64, 56, 56]          --
    MaxPool2d: 2-23                   [64, 64, 28, 28]          --
    Conv2d: 2-24                      [64, 32, 28, 28]          2,080
    Identity: 2-25                    [64, 32, 28, 28]          --
    ReLU: 2-26                        [64, 32, 28, 28]          --
    Conv2d: 2-27                      [64, 64, 28, 28]          18,496
    Identity: 2-28                    [64, 64, 28, 28]          --
    ReLU: 2-29                        [64, 64, 28, 28]          --
    Conv2d: 2-30                      [64, 32, 28, 28]          2,080
    Identity: 2-31                    [64, 32, 28, 28]          --
    ReLU: 2-32                        [64, 32, 28, 28]          --
    Conv2d: 2-33                      [64, 64, 28, 28]          18,496
    Identity: 2-34                    [64, 64, 28, 28]          --
    ReLU: 2-35                        [64, 64, 28, 28]          --
    Conv2d: 2-36                      [64, 32, 28, 28]          2,080
    Identity: 2-37                    [64, 32, 28, 28]          --
    ReLU: 2-38                        [64, 32, 28, 28]          --
    Conv2d: 2-39                      [64, 64, 28, 28]          18,496
    Identity: 2-40                    [64, 64, 28, 28]          --
    ReLU: 2-41                        [64, 64, 28, 28]          --
    AdaptiveAvgPool2d: 2-42           [64, 64, 1, 1]            --
    Flatten: 2-43                     [64, 64]                  --
    Dropout: 2-44                     [64, 64]                  --
    Linear: 2-45                      [64, 16]                  1,040
    ReLU: 2-46                        [64, 16]                  --
    Linear: 2-47                      [64, 2]                   34
==========================================================================================
Total params: 92,786
Trainable params: 92,306
Non-trainable params: 480
Total mult-adds (G): 14.60
==========================================================================================
Input size (MB): 38.54
Forward/backward pass size (MB): 1271.67
Params size (MB): 0.37
Estimated Total Size (MB): 1310.58
…
