…
	Weights Bit Width: 4
	Big Layers Weights Bit Width: 4
	Bias Bit Width: 4
	Activations Bit Width: 4

********* Datasets Length *********
Train Dataset Length: 117567
Test Dataset Length: 24371

Trainable parameters = 737474
Total parameters = 737474


Torch Summary
====================================================================================================
Layer (type:depth-idx)                             Output Shape              Param #
====================================================================================================
MobileViTv3_v1                                     [1, 2]                    --
├─Sequential: 1-1                                  [1, 16, 111, 111]         --
│    └─Conv2d: 2-1                                 [1, 16, 111, 111]         432
│    └─BatchNorm2d: 2-2                            [1, 16, 111, 111]         32
│    └─SiLU: 2-3                                   [1, 16, 111, 111]         --
├─Sequential: 1-2                                  [1, 16, 111, 111]         --
│    └─InvertedResidual: 2-4                       [1, 16, 111, 111]         --
│    │    └─Sequential: 3-1                        [1, 16, 111, 111]         1,472
├─Sequential: 1-3                                  [1, 24, 56, 56]           --
│    └─InvertedResidual: 2-5                       [1, 24, 56, 56]           --
│    │    └─Sequential: 3-2                        [1, 24, 56, 56]           1,744
│    └─InvertedResidual: 2-6                       [1, 24, 56, 56]           --
│    │    └─Sequential: 3-3                        [1, 24, 56, 56]           2,976
│    └─InvertedResidual: 2-7                       [1, 24, 56, 56]           --
│    │    └─Sequential: 3-4                        [1, 24, 56, 56]           2,976
├─Sequential: 1-4                                  [1, 64, 28, 28]           --
│    └─InvertedResidual: 2-8                       [1, 64, 28, 28]           --
│    │    └─Sequential: 3-5                        [1, 64, 28, 28]           4,976
│    └─MobileViTBlockV3_v1: 2-9                    [1, 64, 28, 28]           --
│    │    └─Sequential: 3-6                        [1, 64, 28, 28]           4,800
│    │    └─Sequential: 3-7                        [4, 196, 64]              67,072
│    │    └─Sequential: 3-8                        [1, 64, 28, 28]           4,224
│    │    └─Sequential: 3-9                        [1, 64, 28, 28]           8,320
├─Sequential: 1-5                                  [1, 80, 14, 14]           --
│    └─InvertedResidual: 2-10                      [1, 80, 14, 14]           --
│    │    └─Sequential: 3-10                       [1, 80, 14, 14]           20,256
│    └─MobileViTBlockV3_v1: 2-11                   [1, 80, 14, 14]           --
│    │    └─Sequential: 3-11                       [1, 80, 14, 14]           7,280
│    │    └─Sequential: 3-12                       [4, 49, 80]               208,480
│    │    └─Sequential: 3-13                       [1, 80, 14, 14]           6,560
│    │    └─Sequential: 3-14                       [1, 80, 14, 14]           12,960
├─Sequential: 1-6                                  [1, 128, 7, 7]            --
│    └─InvertedResidual: 2-12                      [1, 128, 7, 7]            --
│    │    └─Sequential: 3-15                       [1, 128, 7, 7]            35,616
│    └─MobileViTBlockV3_v1: 2-13                   [1, 128, 7, 7]            --
│    │    └─Sequential: 3-16                       [1, 96, 7, 7]             13,696
│    │    └─Sequential: 3-17                       [4, 16, 96]               224,544
│    │    └─Sequential: 3-18                       [1, 128, 7, 7]            12,544
│    │    └─Sequential: 3-19                       [1, 128, 7, 7]            28,928
├─Sequential: 1-7                                  [1, 512, 7, 7]            --
│    └─Conv2d: 2-14                                [1, 512, 7, 7]            65,536
│    └─BatchNorm2d: 2-15                           [1, 512, 7, 7]            1,024
│    └─SiLU: 2-16                                  [1, 512, 7, 7]            --
├─Linear: 1-8                                      [1, 2]                    1,026
====================================================================================================
Total params: 737,474
Trainable params: 737,474
Non-trainable params: 0
Total mult-adds (M): 93.21
====================================================================================================
Input size (MB): 0.60
Forward/backward pass size (MB): 64.96
Params size (MB): 2.95
Estimated Total Size (MB): 68.51
…
