…
	Height: 224

Brevitas Config:
	Fixed Point: True
	Weights Bit Width: 4
	Big Layers Weights Bit Width: 4
	Bias Bit Width: 4
	Activations Bit Width: 4

********* Datasets Length *********
Train Dataset Length: 640
Test Dataset Length: 384

Trainable parameters = 78258
Total parameters = 78258


Torch Summary
==========================================================================================
Layer (type:depth-idx)                   Output Shape              Param #
==========================================================================================
MobileNetV2                              [1, 2]                    --
├─Sequential: 1-1                        [1, 32, 7, 7]             --
│    └─Sequential: 2-1                   [1, 4, 112, 112]          --
│    │    └─Conv2d: 3-1                  [1, 4, 112, 112]          108
│    │    └─BatchNorm2d: 3-2             [1, 4, 112, 112]          8
│    │    └─ReLU6: 3-3                   [1, 4, 112, 112]          --
│    └─InvertedResidual: 2-2             [1, 4, 112, 112]          --
│    │    └─Sequential: 3-4              [1, 4, 112, 112]          68
│    └─InvertedResidual: 2-3             [1, 4, 56, 56]            --
│    │    └─Sequential: 3-5              [1, 4, 56, 56]            512
│    └─InvertedResidual: 2-4             [1, 4, 56, 56]            --
│    │    └─Sequential: 3-6              [1, 4, 56, 56]            512
│    └─InvertedResidual: 2-5             [1, 4, 28, 28]            --
│    │    └─Sequential: 3-7              [1, 4, 28, 28]            512
│    └─InvertedResidual: 2-6             [1, 4, 28, 28]            --
│    │    └─Sequential: 3-8              [1, 4, 28, 28]            512
│    └─InvertedResidual: 2-7             [1, 4, 28, 28]            --
│    │    └─Sequential: 3-9              [1, 4, 28, 28]            512
│    └─InvertedResidual: 2-8             [1, 8, 14, 14]            --
│    │    └─Sequential: 3-10             [1, 8, 14, 14]            616
│    └─InvertedResidual: 2-9             [1, 8, 14, 14]            --
│    │    └─Sequential: 3-11             [1, 8, 14, 14]            1,408
│    └─InvertedResidual: 2-10            [1, 8, 14, 14]            --
│    │    └─Sequential: 3-12             [1, 8, 14, 14]            1,408
│    └─InvertedResidual: 2-11            [1, 8, 14, 14]            --
│    │    └─Sequential: 3-13             [1, 8, 14, 14]            1,408
│    └─InvertedResidual: 2-12            [1, 12, 14, 14]           --
│    │    └─Sequential: 3-14             [1, 12, 14, 14]           1,608
│    └─InvertedResidual: 2-13            [1, 12, 14, 14]           --
│    │    └─Sequential: 3-15             [1, 12, 14, 14]           2,688
│    └─InvertedResidual: 2-14            [1, 12, 14, 14]           --
│    │    └─Sequential: 3-16             [1, 12, 14, 14]           2,688
│    └─InvertedResidual: 2-15            [1, 16, 7, 7]             --
│    │    └─Sequential: 3-17             [1, 16, 7, 7]             2,984
│    └─InvertedResidual: 2-16            [1, 16, 7, 7]             --
│    │    └─Sequential: 3-18             [1, 16, 7, 7]             4,352
│    └─InvertedResidual: 2-17            [1, 16, 7, 7]             --
│    │    └─Sequential: 3-19             [1, 16, 7, 7]             4,352
│    └─InvertedResidual: 2-18            [1, 32, 7, 7]             --
│    │    └─Sequential: 3-20             [1, 32, 7, 7]             5,920
├─Sequential: 1-2                        [1, 1280, 7, 7]           --
│    └─Conv2d: 2-19                      [1, 1280, 7, 7]           40,960
│    └─BatchNorm2d: 2-20                 [1, 1280, 7, 7]           2,560
│    └─ReLU6: 2-21                       [1, 1280, 7, 7]           --
├─AdaptiveAvgPool2d: 1-3                 [1, 1280, 1, 1]           --
├─Linear: 1-4                            [1, 2]                    2,562
==========================================================================================
Total params: 78,258
Trainable params: 78,258
Non-trainable params: 0
Total mult-adds (M): 11.65
==========================================================================================
Input size (MB): 0.60
Forward/backward pass size (MB): 18.60
Params size (MB): 0.31
Estimated Total Size (MB): 19.51
==========================================================================================
…
