…
	Weights Bit Width: 4
	Big Layers Weights Bit Width: 4
	Bias Bit Width: 4
	Activations Bit Width: 4

Trainable parameters = 68914
Total parameters = 68914

==================================================================================================================================
Layer (type:depth-idx)                                                           Output Shape              Param #
==================================================================================================================================
MobileNetV2_MINI_112                                                             [1, 2]                    --
├─Sequential: 1-1                                                                [1, 64, 7, 7]             60,206
│    └─QuantIdentity: 2-1                                                        [1, 3, 112, 112]          --
│    │    └─ActQuantProxyFromInjector: 3-1                                       [1, 3, 112, 112]          --
│    │    └─ActQuantProxyFromInjector: 3-2                                       [1, 3, 112, 112]          1
├─Sequential: 1-62                                                               --                        (recursive)
│    └─QuantReLU: 2-73                                                           --                        (recursive)
│    │    └─ActQuantProxyFromInjector: 3-76                                      --                        (recursive)
├─Sequential: 1-63                                                               --                        (recursive)
│    └─QuantIdentity: 2-3                                                        --                        (recursive)
│    │    └─ActQuantProxyFromInjector: 3-4                                       --                        (recursive)
│    └─Sequential: 2-4                                                           [1, 32, 56, 56]           --
│    │    └─QuantConv2d: 3-5                                                     [1, 32, 56, 56]           864
│    │    └─BatchNorm2d: 3-6                                                     [1, 32, 56, 56]           64
│    │    └─QuantReLU: 3-7                                                       [1, 32, 56, 56]           1
├─Sequential: 1-62                                                               --                        (recursive)
│    └─QuantReLU: 2-73                                                           --                        (recursive)
│    │    └─ActQuantProxyFromInjector: 3-76                                      --                        (recursive)
├─Sequential: 1-63                                                               --                        (recursive)
│    └─Sequential: 2-6                                                           --                        (recursive)
│    │    └─QuantReLU: 3-9                                                       --                        (recursive)
│    └─InvertedBlock: 2-7                                                        [1, 8, 56, 56]            --
│    │    └─Sequential: 3-10                                                     [1, 8, 56, 56]            626
├─Sequential: 1-62                                                               --                        (recursive)
│    └─QuantReLU: 2-73                                                           --                        (recursive)
│    │    └─ActQuantProxyFromInjector: 3-76                                      --                        (recursive)
├─Sequential: 1-63                                                               --                        (recursive)
…
│    └─QuantReLU: 2-73                                                           --                        (recursive)
│    │    └─ActQuantProxyFromInjector: 3-76                                      --                        (recursive)
├─Sequential: 1-63                                                               --                        (recursive)
│    └─InvertedBlock: 2-74                                                       --                        (recursive)
│    │    └─Sequential: 3-77                                                     --                        (recursive)
├─Sequential: 1-64                                                               [1, 128, 7, 7]            --
│    └─QuantConv2d: 2-75                                                         [1, 128, 7, 7]            --
│    │    └─ActQuantProxyFromInjector: 3-78                                      [1, 64, 7, 7]             --
│    │    └─WeightQuantProxyFromInjector: 3-79                                   [128, 64, 1, 1]           8,192
│    │    └─ActQuantProxyFromInjector: 3-80                                      [1, 128, 7, 7]            --
│    └─BatchNorm2d: 2-76                                                         [1, 128, 7, 7]            256
│    └─QuantReLU: 2-77                                                           [1, 128, 7, 7]            --
│    │    └─ActQuantProxyFromInjector: 3-81                                      [1, 128, 7, 7]            --
│    │    └─ActQuantProxyFromInjector: 3-82                                      [1, 128, 7, 7]            1
├─TruncAvgPool2d: 1-65                                                           [1, 128, 1, 1]            --
│    └─TruncQuantProxyFromInjector: 2-78                                         [1, 128, 1, 1]            --
│    │    └─TruncIntQuant: 3-83                                                  [1, 128, 1, 1]            --
├─QuantLinear: 1-66                                                              [1, 2]                    2
│    └─ActQuantProxyFromInjector: 2-79                                           [1, 128]                  --
│    └─WeightQuantProxyFromInjector: 2-80                                        [2, 128]                  --
│    │    └─RescalingIntQuant: 3-84                                              [2, 128]                  256
│    └─BiasQuantProxyFromInjector: 2-81                                          [2]                       --
│    │    └─PrescaledRestrictIntQuant: 3-85                                      [2]                       --
│    └─ActQuantProxyFromInjector: 2-82                                           [1, 2]                    --
==================================================================================================================================
Total params: 163,651
Trainable params: 163,651
Non-trainable params: 0
Total mult-adds (M): 0.00
==================================================================================================================================
Input size (MB): 0.15
Forward/backward pass size (MB): 4.06
…
