…
	Weights Bit Width: 4
	Big Layers Weights Bit Width: 4
	Bias Bit Width: 4
	Activations Bit Width: 4

Trainable parameters = 78311
Total parameters = 78311

==================================================================================================================================
Layer (type:depth-idx)                                                           Output Shape              Param #
==================================================================================================================================
MobileNetV2_ORI_RESNET                                                           [1, 2]                    --
├─Sequential: 1-1                                                                [1, 32, 7, 7]             32,227
│    └─QuantIdentity: 2-1                                                        [1, 3, 224, 224]          --
│    │    └─ActQuantProxyFromInjector: 3-1                                       [1, 3, 224, 224]          --
│    │    └─ActQuantProxyFromInjector: 3-2                                       [1, 3, 224, 224]          1
├─Sequential: 1-126                                                              --                        (recursive)
│    └─QuantReLU: 2-155                                                          --                        (recursive)
│    │    └─ActQuantProxyFromInjector: 3-169                                     --                        (recursive)
├─Sequential: 1-127                                                              --                        (recursive)
│    └─QuantIdentity: 2-3                                                        --                        (recursive)
│    │    └─ActQuantProxyFromInjector: 3-4                                       --                        (recursive)
│    └─Sequential: 2-4                                                           [1, 4, 112, 112]          --
│    │    └─QuantConv2d: 3-5                                                     [1, 4, 112, 112]          108
│    │    └─BatchNorm2d: 3-6                                                     [1, 4, 112, 112]          8
│    │    └─QuantReLU: 3-7                                                       [1, 4, 112, 112]          1
│    └─InvertedBlock: 2-14                                                       --                        (recursive)
│    │    └─Sequential: 3-15                                                     --                        (recursive)
├─Sequential: 1-126                                                              --                        (recursive)
│    └─QuantReLU: 2-155                                                          --                        (recursive)
…
│    └─QuantReLU: 2-155                                                          --                        (recursive)
│    │    └─ActQuantProxyFromInjector: 3-169                                     --                        (recursive)
├─Sequential: 1-127                                                              --                        (recursive)
│    └─InvertedBlock: 2-156                                                      --                        (recursive)
│    │    └─Sequential: 3-170                                                    --                        (recursive)
├─Sequential: 1-128                                                              [1, 1280, 7, 7]           --
│    └─QuantConv2d: 2-157                                                        [1, 1280, 7, 7]           --
│    │    └─ActQuantProxyFromInjector: 3-171                                     [1, 32, 7, 7]             --
│    │    └─WeightQuantProxyFromInjector: 3-172                                  [1280, 32, 1, 1]          40,960
│    │    └─ActQuantProxyFromInjector: 3-173                                     [1, 1280, 7, 7]           --
│    └─BatchNorm2d: 2-158                                                        [1, 1280, 7, 7]           2,560
│    └─QuantReLU: 2-159                                                          [1, 1280, 7, 7]           --
│    │    └─ActQuantProxyFromInjector: 3-174                                     [1, 1280, 7, 7]           --
│    │    └─ActQuantProxyFromInjector: 3-175                                     [1, 1280, 7, 7]           1
├─TruncAvgPool2d: 1-129                                                          [1, 1280, 1, 1]           --
│    └─TruncQuantProxyFromInjector: 2-160                                        [1, 1280, 1, 1]           --
│    │    └─TruncIntQuant: 3-176                                                 [1, 1280, 1, 1]           --
├─QuantLinear: 1-130                                                             [1, 2]                    2
│    └─ActQuantProxyFromInjector: 2-161                                          [1, 1280]                 --
│    └─WeightQuantProxyFromInjector: 2-162                                       [2, 1280]                 --
│    │    └─RescalingIntQuant: 3-177                                             [2, 1280]                 2,560
│    └─BiasQuantProxyFromInjector: 2-163                                         [2]                       --
│    │    └─PrescaledRestrictIntQuant: 3-178                                     [2]                       --
│    └─ActQuantProxyFromInjector: 2-164                                          [1, 2]                    --
==================================================================================================================================
Total params: 131,628
Trainable params: 131,628
Non-trainable params: 0
Total mult-adds (M): 0.01
==================================================================================================================================
Input size (MB): 0.60
Forward/backward pass size (MB): 9.30
…
