…
├─QuantReLU: 1-89                                                      --                        (recursive)
│    └─ActQuantProxyFromInjector: 2-161                                --                        (recursive)
│    │    └─FusedActivationQuantProxy: 3-202                           --                        (recursive)
├─ModuleList: 1-17                                                     --                        (recursive)
│    └─QuantIdentity: 2-5                                              --                        --
│    │    └─ActQuantProxyFromInjector: 3-6                             --                        --
│    └─QuantConv2d: 2-6                                                [1, 64, 224, 224]         --
│    │    └─ActQuantProxyFromInjector: 3-7                             [1, 3, 224, 224]          --
│    │    └─WeightQuantProxyFromInjector: 3-8                          [64, 3, 3, 3]             1,728
├─QuantReLU: 1-89                                                      --                        (recursive)
│    └─ActQuantProxyFromInjector: 2-161                                --                        (recursive)
│    │    └─FusedActivationQuantProxy: 3-202                           --                        (recursive)
├─ModuleList: 1-17                                                     --                        (recursive)
│    └─QuantConv2d: 2-8                                                --                        (recursive)
│    │    └─WeightQuantProxyFromInjector: 3-10                         --                        (recursive)
│    │    └─ActQuantProxyFromInjector: 3-11                            [1, 64, 224, 224]         --
│    └─BatchNorm2d: 2-9                                                [1, 64, 224, 224]         128
│    └─QuantReLU: 2-10                                                 [1, 64, 224, 224]         --
│    │    └─ActQuantProxyFromInjector: 3-12                            [1, 64, 224, 224]         --
│    │    └─ActQuantProxyFromInjector: 3-13                            [1, 64, 224, 224]         1
├─QuantReLU: 1-89                                                      --                        (recursive)
│    └─ActQuantProxyFromInjector: 2-161                                --                        (recursive)
│    │    └─FusedActivationQuantProxy: 3-202                           --                        (recursive)
├─ModuleList: 1-17                                                     --                        (recursive)
…
│    └─ActQuantProxyFromInjector: 2-161                                --                        (recursive)
│    │    └─FusedActivationQuantProxy: 3-202                           --                        (recursive)
├─ModuleList: 1-17                                                     --                        (recursive)
│    └─QuantReLU: 2-14                                                 --                        (recursive)
│    │    └─ActQuantProxyFromInjector: 3-17                            --                        (recursive)
│    └─MaxPool2d: 2-15                                                 [1, 64, 112, 112]         --
│    └─QuantConv2d: 2-16                                               [1, 32, 112, 112]         --
│    │    └─ActQuantProxyFromInjector: 3-18                            [1, 64, 112, 112]         --
│    │    └─WeightQuantProxyFromInjector: 3-19                         [32, 64, 3, 3]            18,432
├─QuantReLU: 1-89                                                      --                        (recursive)
│    └─ActQuantProxyFromInjector: 2-161                                --                        (recursive)
│    │    └─FusedActivationQuantProxy: 3-202                           --                        (recursive)
├─ModuleList: 1-17                                                     --                        (recursive)
│    └─QuantConv2d: 2-18                                               --                        (recursive)
│    │    └─WeightQuantProxyFromInjector: 3-21                         --                        (recursive)
│    │    └─ActQuantProxyFromInjector: 3-22                            [1, 32, 112, 112]         --
│    └─BatchNorm2d: 2-19                                               [1, 32, 112, 112]         64
│    └─QuantIdentity: 2-20                                             [1, 32, 112, 112]         --
│    │    └─ActQuantProxyFromInjector: 3-23                            [1, 32, 112, 112]         --
│    │    └─ActQuantProxyFromInjector: 3-24                            [1, 32, 112, 112]         --
├─QuantIdentity: 1-72                                                  --                        --
│    └─ActQuantProxyFromInjector: 2-137                                --                        --
│    │    └─FusedActivationQuantProxy: 3-174                           --                        --
├─ModuleList: 1-17                                                     --                        (recursive)
│    └─QuantIdentity: 2-22                                             --                        --
│    │    └─ActQuantProxyFromInjector: 3-26                            --                        --
│    └─MaxPool2d: 2-23                                                 [1, 32, 56, 56]           --
│    └─QuantIdentity: 2-24                                             [1, 32, 56, 56]           --
│    │    └─ActQuantProxyFromInjector: 3-27                            [1, 32, 56, 56]           --
│    │    └─ActQuantProxyFromInjector: 3-28                            [1, 32, 56, 56]           --
├─QuantIdentity: 1-72                                                  --                        --
│    └─ActQuantProxyFromInjector: 2-137                                --                        --
│    │    └─FusedActivationQuantProxy: 3-174                           --                        --
├─ModuleList: 1-17                                                     --                        (recursive)
│    └─QuantIdentity: 2-26                                             --                        --
│    │    └─ActQuantProxyFromInjector: 3-30                            --                        --
├─ModuleList: 1-24                                                     --                        (recursive)
│    └─QuantConv2d: 2-27                                               [1, 16, 56, 56]           512
│    │    └─ActQuantProxyFromInjector: 3-31                            [1, 32, 56, 56]           --
│    │    └─WeightQuantProxyFromInjector: 3-32                         [16, 32, 1, 1]            --
│    │    └─ActQuantProxyFromInjector: 3-33                            [1, 16, 56, 56]           --
│    └─BatchNorm2d: 2-28                                               [1, 16, 56, 56]           32
│    └─QuantIdentity: 2-29                                             [1, 16, 56, 56]           --
│    │    └─ActQuantProxyFromInjector: 3-34                            [1, 16, 56, 56]           --
│    │    └─ActQuantProxyFromInjector: 3-35                            [1, 16, 56, 56]           --
├─QuantIdentity: 1-72                                                  --                        --
│    └─ActQuantProxyFromInjector: 2-137                                --                        --
│    │    └─FusedActivationQuantProxy: 3-174                           --                        --
├─ModuleList: 1-24                                                     --                        (recursive)
│    └─QuantIdentity: 2-31                                             --                        --
│    │    └─ActQuantProxyFromInjector: 3-37                            --                        --
│    └─QuantConv2d: 2-32                                               [1, 32, 56, 56]           4,608
│    │    └─ActQuantProxyFromInjector: 3-38                            [1, 16, 56, 56]           --
│    │    └─WeightQuantProxyFromInjector: 3-39                         [32, 16, 3, 3]            --
│    │    └─ActQuantProxyFromInjector: 3-40                            [1, 32, 56, 56]           --
│    └─BatchNorm2d: 2-33                                               [1, 32, 56, 56]           64
│    └─QuantIdentity: 2-34                                             [1, 32, 56, 56]           --
│    │    └─ActQuantProxyFromInjector: 3-41                            [1, 32, 56, 56]           --
│    │    └─ActQuantProxyFromInjector: 3-42                            [1, 32, 56, 56]           --
├─QuantIdentity: 1-72                                                  --                        --
│    └─ActQuantProxyFromInjector: 2-137                                --                        --
│    │    └─FusedActivationQuantProxy: 3-174                           --                        --
├─ModuleList: 1-24                                                     --                        (recursive)
│    └─QuantIdentity: 2-36                                             --                        --
│    │    └─ActQuantProxyFromInjector: 3-44                            --                        --
│    └─QuantConv2d: 2-37                                               [1, 32, 56, 56]           1,024
│    │    └─ActQuantProxyFromInjector: 3-45                            [1, 32, 56, 56]           --
│    │    └─WeightQuantProxyFromInjector: 3-46                         [32, 32, 1, 1]            --
│    │    └─ActQuantProxyFromInjector: 3-47                            [1, 32, 56, 56]           --
│    └─BatchNorm2d: 2-38                                               [1, 32, 56, 56]           64
│    └─QuantIdentity: 2-39                                             [1, 32, 56, 56]           --
│    │    └─ActQuantProxyFromInjector: 3-48                            [1, 32, 56, 56]           --
│    │    └─ActQuantProxyFromInjector: 3-49                            [1, 32, 56, 56]           --
├─QuantIdentity: 1-72                                                  --                        --
│    └─ActQuantProxyFromInjector: 2-137                                --                        --
│    │    └─FusedActivationQuantProxy: 3-174                           --                        --
├─ModuleList: 1-24                                                     --                        (recursive)
│    └─QuantIdentity: 2-41                                             --                        --
│    │    └─ActQuantProxyFromInjector: 3-51                            --                        --
├─QuantIdentity: 1-25                                                  [1, 32, 56, 56]           --
│    └─ActQuantProxyFromInjector: 2-42                                 [1, 32, 56, 56]           --
│    └─ActQuantProxyFromInjector: 2-43                                 [1, 32, 56, 56]           --
│    │    └─FusedActivationQuantProxy: 3-52                            [1, 32, 56, 56]           --
├─QuantIdentity: 1-72                                                  --                        --
│    └─ActQuantProxyFromInjector: 2-137                                --                        --
│    │    └─FusedActivationQuantProxy: 3-174                           --                        --
├─QuantIdentity: 1-27                                                  --                        --
│    └─ActQuantProxyFromInjector: 2-45                                 --                        --
│    │    └─FusedActivationQuantProxy: 3-54                            --                        --
├─ModuleList: 1-32                                                     --                        (recursive)
│    └─QuantConv2d: 2-46                                               [1, 64, 56, 56]           18,432
│    │    └─ActQuantProxyFromInjector: 3-55                            [1, 32, 56, 56]           --
│    │    └─WeightQuantProxyFromInjector: 3-56                         [64, 32, 3, 3]            --
│    │    └─ActQuantProxyFromInjector: 3-57                            [1, 64, 56, 56]           --
│    └─BatchNorm2d: 2-47                                               [1, 64, 56, 56]           128
│    └─QuantIdentity: 2-48                                             [1, 64, 56, 56]           --
│    │    └─ActQuantProxyFromInjector: 3-58                            [1, 64, 56, 56]           --
│    │    └─ActQuantProxyFromInjector: 3-59                            [1, 64, 56, 56]           --
├─QuantIdentity: 1-72                                                  --                        --
│    └─ActQuantProxyFromInjector: 2-137                                --                        --
│    │    └─FusedActivationQuantProxy: 3-174                           --                        --
├─ModuleList: 1-32                                                     --                        (recursive)
│    └─QuantIdentity: 2-50                                             --                        --
│    │    └─ActQuantProxyFromInjector: 3-61                            --                        --
│    └─MaxPool2d: 2-51                                                 [1, 64, 28, 28]           --
│    └─QuantIdentity: 2-52                                             [1, 64, 28, 28]           --
│    │    └─ActQuantProxyFromInjector: 3-62                            [1, 64, 28, 28]           --
│    │    └─ActQuantProxyFromInjector: 3-63                            [1, 64, 28, 28]           --
├─QuantIdentity: 1-72                                                  --                        --
│    └─ActQuantProxyFromInjector: 2-137                                --                        --
│    │    └─FusedActivationQuantProxy: 3-174                           --                        --
├─ModuleList: 1-32                                                     --                        (recursive)
│    └─QuantIdentity: 2-54                                             --                        --
│    │    └─ActQuantProxyFromInjector: 3-65                            --                        --
├─ModuleList: 1-43                                                     --                        (recursive)
│    └─QuantConv2d: 2-55                                               [1, 32, 28, 28]           2,048
│    │    └─ActQuantProxyFromInjector: 3-66                            [1, 64, 28, 28]           --
│    │    └─WeightQuantProxyFromInjector: 3-67                         [32, 64, 1, 1]            --
│    │    └─ActQuantProxyFromInjector: 3-68                            [1, 32, 28, 28]           --
│    └─BatchNorm2d: 2-56                                               [1, 32, 28, 28]           64
│    └─QuantIdentity: 2-57                                             [1, 32, 28, 28]           --
│    │    └─ActQuantProxyFromInjector: 3-69                            [1, 32, 28, 28]           --
│    │    └─ActQuantProxyFromInjector: 3-70                            [1, 32, 28, 28]           --
├─QuantIdentity: 1-72                                                  --                        --
│    └─ActQuantProxyFromInjector: 2-137                                --                        --
│    │    └─FusedActivationQuantProxy: 3-174                           --                        --
├─ModuleList: 1-43                                                     --                        (recursive)
│    └─QuantIdentity: 2-59                                             --                        --
│    │    └─ActQuantProxyFromInjector: 3-72                            --                        --
│    └─QuantConv2d: 2-60                                               [1, 64, 28, 28]           18,432
│    │    └─ActQuantProxyFromInjector: 3-73                            [1, 32, 28, 28]           --
│    │    └─WeightQuantProxyFromInjector: 3-74                         [64, 32, 3, 3]            --
│    │    └─ActQuantProxyFromInjector: 3-75                            [1, 64, 28, 28]           --
│    └─BatchNorm2d: 2-61                                               [1, 64, 28, 28]           128
│    └─QuantIdentity: 2-62                                             [1, 64, 28, 28]           --
│    │    └─ActQuantProxyFromInjector: 3-76                            [1, 64, 28, 28]           --
│    │    └─ActQuantProxyFromInjector: 3-77                            [1, 64, 28, 28]           --
├─QuantIdentity: 1-72                                                  --                        --
│    └─ActQuantProxyFromInjector: 2-137                                --                        --
│    │    └─FusedActivationQuantProxy: 3-174                           --                        --
├─ModuleList: 1-43                                                     --                        (recursive)
│    └─QuantIdentity: 2-64                                             --                        --
│    │    └─ActQuantProxyFromInjector: 3-79                            --                        --
│    └─QuantConv2d: 2-65                                               [1, 32, 28, 28]           2,048
│    │    └─ActQuantProxyFromInjector: 3-80                            [1, 64, 28, 28]           --
│    │    └─WeightQuantProxyFromInjector: 3-81                         [32, 64, 1, 1]            --
│    │    └─ActQuantProxyFromInjector: 3-82                            [1, 32, 28, 28]           --
│    └─BatchNorm2d: 2-66                                               [1, 32, 28, 28]           64
│    └─QuantIdentity: 2-67                                             [1, 32, 28, 28]           --
│    │    └─ActQuantProxyFromInjector: 3-83                            [1, 32, 28, 28]           --
│    │    └─ActQuantProxyFromInjector: 3-84                            [1, 32, 28, 28]           --
├─QuantIdentity: 1-72                                                  --                        --
│    └─ActQuantProxyFromInjector: 2-137                                --                        --
│    │    └─FusedActivationQuantProxy: 3-174                           --                        --
├─ModuleList: 1-43                                                     --                        (recursive)
│    └─QuantIdentity: 2-69                                             --                        --
│    │    └─ActQuantProxyFromInjector: 3-86                            --                        --
│    └─QuantConv2d: 2-70                                               [1, 64, 28, 28]           18,432
│    │    └─ActQuantProxyFromInjector: 3-87                            [1, 32, 28, 28]           --
│    │    └─WeightQuantProxyFromInjector: 3-88                         [64, 32, 3, 3]            --
│    │    └─ActQuantProxyFromInjector: 3-89                            [1, 64, 28, 28]           --
│    └─BatchNorm2d: 2-71                                               [1, 64, 28, 28]           128
│    └─QuantIdentity: 2-72                                             [1, 64, 28, 28]           --
│    │    └─ActQuantProxyFromInjector: 3-90                            [1, 64, 28, 28]           --
│    │    └─ActQuantProxyFromInjector: 3-91                            [1, 64, 28, 28]           --
├─QuantIdentity: 1-72                                                  --                        --
│    └─ActQuantProxyFromInjector: 2-137                                --                        --
│    │    └─FusedActivationQuantProxy: 3-174                           --                        --
├─ModuleList: 1-43                                                     --                        (recursive)
│    └─QuantIdentity: 2-74                                             --                        --
│    │    └─ActQuantProxyFromInjector: 3-93                            --                        --
│    └─QuantConv2d: 2-75                                               [1, 64, 28, 28]           4,096
│    │    └─ActQuantProxyFromInjector: 3-94                            [1, 64, 28, 28]           --
│    │    └─WeightQuantProxyFromInjector: 3-95                         [64, 64, 1, 1]            --
│    │    └─ActQuantProxyFromInjector: 3-96                            [1, 64, 28, 28]           --
│    └─BatchNorm2d: 2-76                                               [1, 64, 28, 28]           128
│    └─QuantIdentity: 2-77                                             [1, 64, 28, 28]           --
│    │    └─ActQuantProxyFromInjector: 3-97                            [1, 64, 28, 28]           --
│    │    └─ActQuantProxyFromInjector: 3-98                            [1, 64, 28, 28]           --
├─QuantIdentity: 1-72                                                  --                        --
│    └─ActQuantProxyFromInjector: 2-137                                --                        --
│    │    └─FusedActivationQuantProxy: 3-174                           --                        --
├─ModuleList: 1-43                                                     --                        (recursive)
│    └─QuantIdentity: 2-79                                             --                        --
│    │    └─ActQuantProxyFromInjector: 3-100                           --                        --
├─QuantIdentity: 1-44                                                  [1, 64, 28, 28]           --
│    └─ActQuantProxyFromInjector: 2-80                                 [1, 64, 28, 28]           --
│    └─ActQuantProxyFromInjector: 2-81                                 [1, 64, 28, 28]           --
│    │    └─FusedActivationQuantProxy: 3-101                           [1, 64, 28, 28]           --
├─QuantIdentity: 1-72                                                  --                        --
│    └─ActQuantProxyFromInjector: 2-137                                --                        --
│    │    └─FusedActivationQuantProxy: 3-174                           --                        --
├─QuantIdentity: 1-46                                                  --                        --
│    └─ActQuantProxyFromInjector: 2-83                                 --                        --
│    │    └─FusedActivationQuantProxy: 3-103                           --                        --
├─ModuleList: 1-51                                                     --                        (recursive)
│    └─QuantConv2d: 2-84                                               [1, 96, 28, 28]           55,296
│    │    └─ActQuantProxyFromInjector: 3-104                           [1, 64, 28, 28]           --
│    │    └─WeightQuantProxyFromInjector: 3-105                        [96, 64, 3, 3]            --
│    │    └─ActQuantProxyFromInjector: 3-106                           [1, 96, 28, 28]           --
│    └─BatchNorm2d: 2-85                                               [1, 96, 28, 28]           192
│    └─QuantIdentity: 2-86                                             [1, 96, 28, 28]           --
│    │    └─ActQuantProxyFromInjector: 3-107                           [1, 96, 28, 28]           --
│    │    └─ActQuantProxyFromInjector: 3-108                           [1, 96, 28, 28]           --
├─QuantIdentity: 1-72                                                  --                        --
│    └─ActQuantProxyFromInjector: 2-137                                --                        --
│    │    └─FusedActivationQuantProxy: 3-174                           --                        --
├─ModuleList: 1-51                                                     --                        (recursive)
│    └─QuantIdentity: 2-88                                             --                        --
│    │    └─ActQuantProxyFromInjector: 3-110                           --                        --
│    └─MaxPool2d: 2-89                                                 [1, 96, 14, 14]           --
│    └─QuantIdentity: 2-90                                             [1, 96, 14, 14]           --
│    │    └─ActQuantProxyFromInjector: 3-111                           [1, 96, 14, 14]           --
│    │    └─ActQuantProxyFromInjector: 3-112                           [1, 96, 14, 14]           --
├─QuantIdentity: 1-72                                                  --                        --
│    └─ActQuantProxyFromInjector: 2-137                                --                        --
│    │    └─FusedActivationQuantProxy: 3-174                           --                        --
├─ModuleList: 1-51                                                     --                        (recursive)
│    └─QuantIdentity: 2-92                                             --                        --
│    │    └─ActQuantProxyFromInjector: 3-114                           --                        --
├─ModuleList: 1-62                                                     --                        (recursive)
│    └─QuantConv2d: 2-93                                               [1, 48, 14, 14]           4,608
│    │    └─ActQuantProxyFromInjector: 3-115                           [1, 96, 14, 14]           --
│    │    └─WeightQuantProxyFromInjector: 3-116                        [48, 96, 1, 1]            --
│    │    └─ActQuantProxyFromInjector: 3-117                           [1, 48, 14, 14]           --
│    └─BatchNorm2d: 2-94                                               [1, 48, 14, 14]           96
│    └─QuantIdentity: 2-95                                             [1, 48, 14, 14]           --
│    │    └─ActQuantProxyFromInjector: 3-118                           [1, 48, 14, 14]           --
│    │    └─ActQuantProxyFromInjector: 3-119                           [1, 48, 14, 14]           --
├─QuantIdentity: 1-72                                                  --                        --
│    └─ActQuantProxyFromInjector: 2-137                                --                        --
│    │    └─FusedActivationQuantProxy: 3-174                           --                        --
├─ModuleList: 1-62                                                     --                        (recursive)
│    └─QuantIdentity: 2-97                                             --                        --
│    │    └─ActQuantProxyFromInjector: 3-121                           --                        --
│    └─QuantConv2d: 2-98                                               [1, 96, 14, 14]           41,472
│    │    └─ActQuantProxyFromInjector: 3-122                           [1, 48, 14, 14]           --
│    │    └─WeightQuantProxyFromInjector: 3-123                        [96, 48, 3, 3]            --
│    │    └─ActQuantProxyFromInjector: 3-124                           [1, 96, 14, 14]           --
│    └─BatchNorm2d: 2-99                                               [1, 96, 14, 14]           192
│    └─QuantIdentity: 2-100                                            [1, 96, 14, 14]           --
│    │    └─ActQuantProxyFromInjector: 3-125                           [1, 96, 14, 14]           --
│    │    └─ActQuantProxyFromInjector: 3-126                           [1, 96, 14, 14]           --
├─QuantIdentity: 1-72                                                  --                        --
│    └─ActQuantProxyFromInjector: 2-137                                --                        --
│    │    └─FusedActivationQuantProxy: 3-174                           --                        --
├─ModuleList: 1-62                                                     --                        (recursive)
│    └─QuantIdentity: 2-102                                            --                        --
│    │    └─ActQuantProxyFromInjector: 3-128                           --                        --
│    └─QuantConv2d: 2-103                                              [1, 48, 14, 14]           4,608
│    │    └─ActQuantProxyFromInjector: 3-129                           [1, 96, 14, 14]           --
│    │    └─WeightQuantProxyFromInjector: 3-130                        [48, 96, 1, 1]            --
│    │    └─ActQuantProxyFromInjector: 3-131                           [1, 48, 14, 14]           --
│    └─BatchNorm2d: 2-104                                              [1, 48, 14, 14]           96
│    └─QuantIdentity: 2-105                                            [1, 48, 14, 14]           --
│    │    └─ActQuantProxyFromInjector: 3-132                           [1, 48, 14, 14]           --
│    │    └─ActQuantProxyFromInjector: 3-133                           [1, 48, 14, 14]           --
├─QuantIdentity: 1-72                                                  --                        --
│    └─ActQuantProxyFromInjector: 2-137                                --                        --
│    │    └─FusedActivationQuantProxy: 3-174                           --                        --
├─ModuleList: 1-62                                                     --                        (recursive)
│    └─QuantIdentity: 2-107                                            --                        --
│    │    └─ActQuantProxyFromInjector: 3-135                           --                        --
│    └─QuantConv2d: 2-108                                              [1, 96, 14, 14]           41,472
│    │    └─ActQuantProxyFromInjector: 3-136                           [1, 48, 14, 14]           --
│    │    └─WeightQuantProxyFromInjector: 3-137                        [96, 48, 3, 3]            --
│    │    └─ActQuantProxyFromInjector: 3-138                           [1, 96, 14, 14]           --
│    └─BatchNorm2d: 2-109                                              [1, 96, 14, 14]           192
│    └─QuantIdentity: 2-110                                            [1, 96, 14, 14]           --
│    │    └─ActQuantProxyFromInjector: 3-139                           [1, 96, 14, 14]           --
│    │    └─ActQuantProxyFromInjector: 3-140                           [1, 96, 14, 14]           --
├─QuantIdentity: 1-72                                                  --                        --
│    └─ActQuantProxyFromInjector: 2-137                                --                        --
│    │    └─FusedActivationQuantProxy: 3-174                           --                        --
├─ModuleList: 1-62                                                     --                        (recursive)
│    └─QuantIdentity: 2-112                                            --                        --
│    │    └─ActQuantProxyFromInjector: 3-142                           --                        --
│    └─QuantConv2d: 2-113                                              [1, 96, 14, 14]           82,944
│    │    └─ActQuantProxyFromInjector: 3-143                           [1, 96, 14, 14]           --
│    │    └─WeightQuantProxyFromInjector: 3-144                        [96, 96, 3, 3]            --
│    │    └─ActQuantProxyFromInjector: 3-145                           [1, 96, 14, 14]           --
│    └─BatchNorm2d: 2-114                                              [1, 96, 14, 14]           192
│    └─QuantIdentity: 2-115                                            [1, 96, 14, 14]           --
│    │    └─ActQuantProxyFromInjector: 3-146                           [1, 96, 14, 14]           --
│    │    └─ActQuantProxyFromInjector: 3-147                           [1, 96, 14, 14]           --
├─QuantIdentity: 1-72                                                  --                        --
│    └─ActQuantProxyFromInjector: 2-137                                --                        --
│    │    └─FusedActivationQuantProxy: 3-174                           --                        --
├─ModuleList: 1-62                                                     --                        (recursive)
│    └─QuantIdentity: 2-117                                            --                        --
│    │    └─ActQuantProxyFromInjector: 3-149                           --                        --
├─QuantIdentity: 1-63                                                  [1, 96, 14, 14]           --
│    └─ActQuantProxyFromInjector: 2-118                                [1, 96, 14, 14]           --
│    └─ActQuantProxyFromInjector: 2-119                                [1, 96, 14, 14]           --
│    │    └─FusedActivationQuantProxy: 3-150                           [1, 96, 14, 14]           --
├─ModuleList: 1-68                                                     --                        (recursive)
│    └─QuantConv2d: 2-120                                              [1, 128, 14, 14]          110,592
│    │    └─ActQuantProxyFromInjector: 3-151                           [1, 96, 14, 14]           --
│    │    └─WeightQuantProxyFromInjector: 3-152                        [128, 96, 3, 3]           --
│    │    └─ActQuantProxyFromInjector: 3-153                           [1, 128, 14, 14]          --
│    └─BatchNorm2d: 2-121                                              [1, 128, 14, 14]          256
│    └─QuantIdentity: 2-122                                            [1, 128, 14, 14]          --
│    │    └─ActQuantProxyFromInjector: 3-154                           [1, 128, 14, 14]          --
│    │    └─ActQuantProxyFromInjector: 3-155                           [1, 128, 14, 14]          --
├─QuantIdentity: 1-72                                                  --                        --
│    └─ActQuantProxyFromInjector: 2-137                                --                        --
│    │    └─FusedActivationQuantProxy: 3-174                           --                        --
├─ModuleList: 1-68                                                     --                        (recursive)
│    └─QuantIdentity: 2-124                                            --                        --
│    │    └─ActQuantProxyFromInjector: 3-157                           --                        --
│    └─MaxPool2d: 2-125                                                [1, 128, 7, 7]            --
│    └─QuantIdentity: 2-126                                            [1, 128, 7, 7]            --
│    │    └─ActQuantProxyFromInjector: 3-158                           [1, 128, 7, 7]            --
│    │    └─ActQuantProxyFromInjector: 3-159                           [1, 128, 7, 7]            --
├─QuantIdentity: 1-72                                                  --                        --
│    └─ActQuantProxyFromInjector: 2-137                                --                        --
│    │    └─FusedActivationQuantProxy: 3-174                           --                        --
├─ModuleList: 1-68                                                     --                        (recursive)
│    └─QuantIdentity: 2-128                                            --                        --
│    │    └─ActQuantProxyFromInjector: 3-161                           --                        --
├─ModuleList: 1-73                                                     --                        (recursive)
│    └─QuantConv2d: 2-129                                              [1, 128, 7, 7]            147,456
│    │    └─ActQuantProxyFromInjector: 3-162                           [1, 128, 7, 7]            --
│    │    └─WeightQuantProxyFromInjector: 3-163                        [128, 128, 3, 3]          --
│    │    └─ActQuantProxyFromInjector: 3-164                           [1, 128, 7, 7]            --
│    └─BatchNorm2d: 2-130                                              [1, 128, 7, 7]            256
│    └─QuantIdentity: 2-131                                            [1, 128, 7, 7]            --
│    │    └─ActQuantProxyFromInjector: 3-165                           [1, 128, 7, 7]            --
│    │    └─ActQuantProxyFromInjector: 3-166                           [1, 128, 7, 7]            --
├─QuantIdentity: 1-72                                                  --                        --
│    └─ActQuantProxyFromInjector: 2-137                                --                        --
│    │    └─FusedActivationQuantProxy: 3-174                           --                        --
├─ModuleList: 1-73                                                     --                        (recursive)
│    └─QuantIdentity: 2-133                                            --                        --
│    │    └─ActQuantProxyFromInjector: 3-168                           --                        --
│    └─QuantConv2d: 2-134                                              [1, 128, 7, 7]            147,456
│    │    └─ActQuantProxyFromInjector: 3-169                           [1, 128, 7, 7]            --
│    │    └─WeightQuantProxyFromInjector: 3-170                        [128, 128, 3, 3]          --
│    │    └─ActQuantProxyFromInjector: 3-171                           [1, 128, 7, 7]            --
│    └─BatchNorm2d: 2-135                                              [1, 128, 7, 7]            256
│    └─QuantIdentity: 2-136                                            [1, 128, 7, 7]            --
│    │    └─ActQuantProxyFromInjector: 3-172                           [1, 128, 7, 7]            --
│    │    └─ActQuantProxyFromInjector: 3-173                           [1, 128, 7, 7]            --
├─QuantIdentity: 1-72                                                  --                        --
│    └─ActQuantProxyFromInjector: 2-137                                --                        --
│    │    └─FusedActivationQuantProxy: 3-174                           --                        --
├─ModuleList: 1-73                                                     --                        (recursive)
│    └─QuantIdentity: 2-138                                            --                        --
│    │    └─ActQuantProxyFromInjector: 3-175                           --                        --
├─QuantReLU: 1-74                                                      [1, 128, 7, 7]            --
│    └─ActQuantProxyFromInjector: 2-139                                [1, 128, 7, 7]            --
│    └─ActQuantProxyFromInjector: 2-140                                [1, 128, 7, 7]            --
│    │    └─FusedActivationQuantProxy: 3-176                           [1, 128, 7, 7]            1
├─TruncAvgPool2d: 1-75                                                 [1, 128, 1, 1]            --
│    └─TruncQuantProxyFromInjector: 2-141                              [1, 128, 1, 1]            --
│    │    └─TruncIntQuant: 3-177                                       [1, 128, 1, 1]            --
├─ModuleList: 1-90                                                     --                        (recursive)
│    └─QuantLinear: 2-142                                              [1, 64]                   --
│    │    └─ActQuantProxyFromInjector: 3-178                           [1, 128]                  --
│    │    └─WeightQuantProxyFromInjector: 3-179                        [64, 128]                 8,192
├─QuantReLU: 1-89                                                      --                        (recursive)
│    └─ActQuantProxyFromInjector: 2-161                                --                        (recursive)
│    │    └─FusedActivationQuantProxy: 3-202                           --                        (recursive)
├─ModuleList: 1-90                                                     --                        (recursive)
│    └─QuantLinear: 2-144                                              --                        (recursive)
│    │    └─WeightQuantProxyFromInjector: 3-181                        --                        (recursive)
│    │    └─ActQuantProxyFromInjector: 3-182                           [1, 64]                   --
│    └─BatchNorm1d: 2-145                                              [1, 64]                   128
│    └─QuantReLU: 2-146                                                [1, 64]                   --
│    │    └─ActQuantProxyFromInjector: 3-183                           [1, 64]                   --
│    │    └─ActQuantProxyFromInjector: 3-184                           [1, 64]                   1
├─QuantReLU: 1-89                                                      --                        (recursive)
│    └─ActQuantProxyFromInjector: 2-161                                --                        (recursive)
│    │    └─FusedActivationQuantProxy: 3-202                           --                        (recursive)
├─ModuleList: 1-90                                                     --                        (recursive)
…
│    └─ActQuantProxyFromInjector: 2-161                                --                        (recursive)
│    │    └─FusedActivationQuantProxy: 3-202                           --                        (recursive)
├─ModuleList: 1-90                                                     --                        (recursive)
│    └─QuantReLU: 2-150                                                --                        (recursive)
│    │    └─ActQuantProxyFromInjector: 3-188                           --                        (recursive)
│    └─QuantLinear: 2-151                                              [1, 32]                   --
│    │    └─ActQuantProxyFromInjector: 3-189                           [1, 64]                   --
│    │    └─WeightQuantProxyFromInjector: 3-190                        [32, 64]                  2,048
├─QuantReLU: 1-89                                                      --                        (recursive)
│    └─ActQuantProxyFromInjector: 2-161                                --                        (recursive)
│    │    └─FusedActivationQuantProxy: 3-202                           --                        (recursive)
├─ModuleList: 1-90                                                     --                        (recursive)
│    └─QuantLinear: 2-153                                              --                        (recursive)
│    │    └─WeightQuantProxyFromInjector: 3-192                        --                        (recursive)
│    │    └─ActQuantProxyFromInjector: 3-193                           [1, 32]                   --
│    └─BatchNorm1d: 2-154                                              [1, 32]                   64
│    └─QuantReLU: 2-155                                                [1, 32]                   --
│    │    └─ActQuantProxyFromInjector: 3-194                           [1, 32]                   --
│    │    └─ActQuantProxyFromInjector: 3-195                           [1, 32]                   1
├─QuantReLU: 1-89                                                      --                        (recursive)
│    └─ActQuantProxyFromInjector: 2-161                                --                        (recursive)
│    │    └─FusedActivationQuantProxy: 3-202                           --                        (recursive)
├─ModuleList: 1-90                                                     --                        (recursive)
…
│    └─ActQuantProxyFromInjector: 2-161                                --                        (recursive)
│    │    └─FusedActivationQuantProxy: 3-202                           --                        (recursive)
├─ModuleList: 1-90                                                     --                        (recursive)
│    └─QuantReLU: 2-159                                                --                        (recursive)
│    │    └─ActQuantProxyFromInjector: 3-199                           --                        (recursive)
│    └─QuantLinear: 2-160                                              [1, 2]                    --
│    │    └─ActQuantProxyFromInjector: 3-200                           [1, 32]                   --
│    │    └─WeightQuantProxyFromInjector: 3-201                        [2, 32]                   64
├─QuantReLU: 1-89                                                      --                        (recursive)
│    └─ActQuantProxyFromInjector: 2-161                                --                        (recursive)
│    │    └─FusedActivationQuantProxy: 3-202                           --                        (recursive)
├─ModuleList: 1-90                                                     --                        (recursive)
│    └─QuantLinear: 2-162                                              --                        (recursive)
│    │    └─WeightQuantProxyFromInjector: 3-203                        --                        (recursive)
│    │    └─ActQuantProxyFromInjector: 3-204                           [1, 2]                    --
│    └─TensorNorm: 2-163                                               [1, 2]                    2
========================================================================================================================
Total params: 738,918
Trainable params: 738,918
Non-trainable params: 0
Total mult-adds (M): 0.00
========================================================================================================================
Input size (MB): 0.60
Forward/backward pass size (MB): 35.63
…
