…
          (msb_clamp_bit_width_impl): BitWidthConst(
            (bit_width): StatelessBuffer()
          )
          (zero_point): StatelessBuffer()
        )
      )
    )
  )
)
Loading Model. Trained during 133 epochs
========================================================================================================================
Layer (type:depth-idx)                                                 Output Shape              Param #
========================================================================================================================
QUANTWeights_BED_CLASSIFIER                                            [64, 2]                   --
Sequential: 1-1                                                      [64, 2]                   --
    QuantConv2d: 2-1                                                [64, 32, 224, 224]        --
        ActQuantProxyFromInjector: 3-1                             [64, 3, 224, 224]         --
        WeightQuantProxyFromInjector: 3-2                          [32, 3, 3, 3]             864
        ActQuantProxyFromInjector: 3-3                             [64, 32, 224, 224]        --
    BatchNorm2dToQuantScaleBias: 2-2                                [64, 32, 224, 224]        32
        ActQuantProxyFromInjector: 3-4                             [64, 32, 224, 224]        --
        WeightQuantProxyFromInjector: 3-5                          [32]                      32
        BiasQuantProxyFromInjector: 3-6                            [32]                      --
        ActQuantProxyFromInjector: 3-7                             [64, 32, 224, 224]        --
    QuantReLU: 2-3                                                  [64, 32, 224, 224]        --
        ActQuantProxyFromInjector: 3-8                             [64, 32, 224, 224]        --
        ActQuantProxyFromInjector: 3-9                             [64, 32, 224, 224]        1
    QuantReLU: 2-64                                                 --                        (recursive)
        ActQuantProxyFromInjector: 3-131                           --                        (recursive)
    QuantReLU: 2-5                                                  --                        (recursive)
        ActQuantProxyFromInjector: 3-11                            --                        (recursive)
    Dropout2d: 2-6                                                  [64, 32, 224, 224]        --
    MaxPool2d: 2-7                                                  [64, 32, 112, 112]        --
    QuantConv2d: 2-8                                                [64, 16, 112, 112]        --
        ActQuantProxyFromInjector: 3-12                            [64, 32, 112, 112]        --
        WeightQuantProxyFromInjector: 3-13                         [16, 32, 3, 3]            4,608
        ActQuantProxyFromInjector: 3-14                            [64, 16, 112, 112]        --
    BatchNorm2dToQuantScaleBias: 2-9                                [64, 16, 112, 112]        16
        ActQuantProxyFromInjector: 3-15                            [64, 16, 112, 112]        --
        WeightQuantProxyFromInjector: 3-16                         [16]                      16
        BiasQuantProxyFromInjector: 3-17                           [16]                      --
        ActQuantProxyFromInjector: 3-18                            [64, 16, 112, 112]        --
    QuantReLU: 2-10                                                 [64, 16, 112, 112]        --
        ActQuantProxyFromInjector: 3-19                            [64, 16, 112, 112]        --
        ActQuantProxyFromInjector: 3-20                            [64, 16, 112, 112]        1
    QuantReLU: 2-64                                                 --                        (recursive)
        ActQuantProxyFromInjector: 3-131                           --                        (recursive)
    QuantReLU: 2-12                                                 --                        (recursive)
        ActQuantProxyFromInjector: 3-22                            --                        (recursive)
    Dropout2d: 2-13                                                 [64, 16, 112, 112]        --
    MaxPool2d: 2-14                                                 [64, 16, 56, 56]          --
    QuantConv2d: 2-15                                               [64, 16, 56, 56]          --
        ActQuantProxyFromInjector: 3-23                            [64, 16, 56, 56]          --
        WeightQuantProxyFromInjector: 3-24                         [16, 16, 1, 1]            256
        ActQuantProxyFromInjector: 3-25                            [64, 16, 56, 56]          --
    BatchNorm2dToQuantScaleBias: 2-16                               [64, 16, 56, 56]          16
        ActQuantProxyFromInjector: 3-26                            [64, 16, 56, 56]          --
        WeightQuantProxyFromInjector: 3-27                         [16]                      16
        BiasQuantProxyFromInjector: 3-28                           [16]                      --
        ActQuantProxyFromInjector: 3-29                            [64, 16, 56, 56]          --
    QuantReLU: 2-17                                                 [64, 16, 56, 56]          --
        ActQuantProxyFromInjector: 3-30                            [64, 16, 56, 56]          --
        ActQuantProxyFromInjector: 3-31                            [64, 16, 56, 56]          1
    QuantReLU: 2-64                                                 --                        (recursive)
        ActQuantProxyFromInjector: 3-131                           --                        (recursive)
    QuantReLU: 2-19                                                 --                        (recursive)
        ActQuantProxyFromInjector: 3-33                            --                        (recursive)
    QuantConv2d: 2-20                                               [64, 32, 56, 56]          --
        ActQuantProxyFromInjector: 3-34                            [64, 16, 56, 56]          --
        WeightQuantProxyFromInjector: 3-35                         [32, 16, 3, 3]            4,608
        ActQuantProxyFromInjector: 3-36                            [64, 32, 56, 56]          --
    BatchNorm2dToQuantScaleBias: 2-21                               [64, 32, 56, 56]          32
        ActQuantProxyFromInjector: 3-37                            [64, 32, 56, 56]          --
        WeightQuantProxyFromInjector: 3-38                         [32]                      32
        BiasQuantProxyFromInjector: 3-39                           [32]                      --
        ActQuantProxyFromInjector: 3-40                            [64, 32, 56, 56]          --
    QuantReLU: 2-22                                                 [64, 32, 56, 56]          --
        ActQuantProxyFromInjector: 3-41                            [64, 32, 56, 56]          --
        ActQuantProxyFromInjector: 3-42                            [64, 32, 56, 56]          1
    QuantReLU: 2-64                                                 --                        (recursive)
        ActQuantProxyFromInjector: 3-131                           --                        (recursive)
    QuantReLU: 2-24                                                 --                        (recursive)
        ActQuantProxyFromInjector: 3-44                            --                        (recursive)
    QuantConv2d: 2-25                                               [64, 32, 56, 56]          --
        ActQuantProxyFromInjector: 3-45                            [64, 32, 56, 56]          --
        WeightQuantProxyFromInjector: 3-46                         [32, 32, 1, 1]            1,024
        ActQuantProxyFromInjector: 3-47                            [64, 32, 56, 56]          --
    BatchNorm2dToQuantScaleBias: 2-26                               [64, 32, 56, 56]          32
        ActQuantProxyFromInjector: 3-48                            [64, 32, 56, 56]          --
        WeightQuantProxyFromInjector: 3-49                         [32]                      32
        BiasQuantProxyFromInjector: 3-50                           [32]                      --
        ActQuantProxyFromInjector: 3-51                            [64, 32, 56, 56]          --
    QuantReLU: 2-27                                                 [64, 32, 56, 56]          --
        ActQuantProxyFromInjector: 3-52                            [64, 32, 56, 56]          --
        ActQuantProxyFromInjector: 3-53                            [64, 32, 56, 56]          1
    QuantReLU: 2-64                                                 --                        (recursive)
        ActQuantProxyFromInjector: 3-131                           --                        (recursive)
    QuantReLU: 2-29                                                 --                        (recursive)
        ActQuantProxyFromInjector: 3-55                            --                        (recursive)
    QuantConv2d: 2-30                                               [64, 64, 56, 56]          --
        ActQuantProxyFromInjector: 3-56                            [64, 32, 56, 56]          --
        WeightQuantProxyFromInjector: 3-57                         [64, 32, 3, 3]            18,432
        ActQuantProxyFromInjector: 3-58                            [64, 64, 56, 56]          --
    BatchNorm2dToQuantScaleBias: 2-31                               [64, 64, 56, 56]          64
        ActQuantProxyFromInjector: 3-59                            [64, 64, 56, 56]          --
        WeightQuantProxyFromInjector: 3-60                         [64]                      64
        BiasQuantProxyFromInjector: 3-61                           [64]                      --
        ActQuantProxyFromInjector: 3-62                            [64, 64, 56, 56]          --
    QuantReLU: 2-32                                                 [64, 64, 56, 56]          --
        ActQuantProxyFromInjector: 3-63                            [64, 64, 56, 56]          --
        ActQuantProxyFromInjector: 3-64                            [64, 64, 56, 56]          1
    QuantReLU: 2-64                                                 --                        (recursive)
        ActQuantProxyFromInjector: 3-131                           --                        (recursive)
    QuantReLU: 2-34                                                 --                        (recursive)
        ActQuantProxyFromInjector: 3-66                            --                        (recursive)
    MaxPool2d: 2-35                                                 [64, 64, 28, 28]          --
    QuantConv2d: 2-36                                               [64, 32, 28, 28]          --
        ActQuantProxyFromInjector: 3-67                            [64, 64, 28, 28]          --
        WeightQuantProxyFromInjector: 3-68                         [32, 64, 1, 1]            2,048
        ActQuantProxyFromInjector: 3-69                            [64, 32, 28, 28]          --
    BatchNorm2dToQuantScaleBias: 2-37                               [64, 32, 28, 28]          32
        ActQuantProxyFromInjector: 3-70                            [64, 32, 28, 28]          --
        WeightQuantProxyFromInjector: 3-71                         [32]                      32
        BiasQuantProxyFromInjector: 3-72                           [32]                      --
        ActQuantProxyFromInjector: 3-73                            [64, 32, 28, 28]          --
    QuantReLU: 2-38                                                 [64, 32, 28, 28]          --
        ActQuantProxyFromInjector: 3-74                            [64, 32, 28, 28]          --
        ActQuantProxyFromInjector: 3-75                            [64, 32, 28, 28]          1
    QuantReLU: 2-64                                                 --                        (recursive)
        ActQuantProxyFromInjector: 3-131                           --                        (recursive)
    QuantReLU: 2-40                                                 --                        (recursive)
        ActQuantProxyFromInjector: 3-77                            --                        (recursive)
    QuantConv2d: 2-41                                               [64, 64, 28, 28]          --
        ActQuantProxyFromInjector: 3-78                            [64, 32, 28, 28]          --
        WeightQuantProxyFromInjector: 3-79                         [64, 32, 3, 3]            18,432
        ActQuantProxyFromInjector: 3-80                            [64, 64, 28, 28]          --
    BatchNorm2dToQuantScaleBias: 2-42                               [64, 64, 28, 28]          64
        ActQuantProxyFromInjector: 3-81                            [64, 64, 28, 28]          --
        WeightQuantProxyFromInjector: 3-82                         [64]                      64
        BiasQuantProxyFromInjector: 3-83                           [64]                      --
        ActQuantProxyFromInjector: 3-84                            [64, 64, 28, 28]          --
    QuantReLU: 2-43                                                 [64, 64, 28, 28]          --
        ActQuantProxyFromInjector: 3-85                            [64, 64, 28, 28]          --
        ActQuantProxyFromInjector: 3-86                            [64, 64, 28, 28]          1
    QuantReLU: 2-64                                                 --                        (recursive)
        ActQuantProxyFromInjector: 3-131                           --                        (recursive)
    QuantReLU: 2-45                                                 --                        (recursive)
        ActQuantProxyFromInjector: 3-88                            --                        (recursive)
    QuantConv2d: 2-46                                               [64, 32, 28, 28]          --
        ActQuantProxyFromInjector: 3-89                            [64, 64, 28, 28]          --
        WeightQuantProxyFromInjector: 3-90                         [32, 64, 1, 1]            2,048
        ActQuantProxyFromInjector: 3-91                            [64, 32, 28, 28]          --
    BatchNorm2dToQuantScaleBias: 2-47                               [64, 32, 28, 28]          32
        ActQuantProxyFromInjector: 3-92                            [64, 32, 28, 28]          --
        WeightQuantProxyFromInjector: 3-93                         [32]                      32
        BiasQuantProxyFromInjector: 3-94                           [32]                      --
        ActQuantProxyFromInjector: 3-95                            [64, 32, 28, 28]          --
    QuantReLU: 2-48                                                 [64, 32, 28, 28]          --
        ActQuantProxyFromInjector: 3-96                            [64, 32, 28, 28]          --
        ActQuantProxyFromInjector: 3-97                            [64, 32, 28, 28]          1
    QuantReLU: 2-64                                                 --                        (recursive)
        ActQuantProxyFromInjector: 3-131                           --                        (recursive)
    QuantReLU: 2-50                                                 --                        (recursive)
        ActQuantProxyFromInjector: 3-99                            --                        (recursive)
    QuantConv2d: 2-51                                               [64, 64, 28, 28]          --
        ActQuantProxyFromInjector: 3-100                           [64, 32, 28, 28]          --
        WeightQuantProxyFromInjector: 3-101                        [64, 32, 3, 3]            18,432
        ActQuantProxyFromInjector: 3-102                           [64, 64, 28, 28]          --
    BatchNorm2dToQuantScaleBias: 2-52                               [64, 64, 28, 28]          64
        ActQuantProxyFromInjector: 3-103                           [64, 64, 28, 28]          --
        WeightQuantProxyFromInjector: 3-104                        [64]                      64
        BiasQuantProxyFromInjector: 3-105                          [64]                      --
        ActQuantProxyFromInjector: 3-106                           [64, 64, 28, 28]          --
    QuantReLU: 2-53                                                 [64, 64, 28, 28]          --
        ActQuantProxyFromInjector: 3-107                           [64, 64, 28, 28]          --
        ActQuantProxyFromInjector: 3-108                           [64, 64, 28, 28]          1
    QuantReLU: 2-64                                                 --                        (recursive)
        ActQuantProxyFromInjector: 3-131                           --                        (recursive)
    QuantReLU: 2-55                                                 --                        (recursive)
        ActQuantProxyFromInjector: 3-110                           --                        (recursive)
    QuantConv2d: 2-56                                               [64, 32, 28, 28]          --
        ActQuantProxyFromInjector: 3-111                           [64, 64, 28, 28]          --
        WeightQuantProxyFromInjector: 3-112                        [32, 64, 1, 1]            2,048
        ActQuantProxyFromInjector: 3-113                           [64, 32, 28, 28]          --
    BatchNorm2dToQuantScaleBias: 2-57                               [64, 32, 28, 28]          32
        ActQuantProxyFromInjector: 3-114                           [64, 32, 28, 28]          --
        WeightQuantProxyFromInjector: 3-115                        [32]                      32
        BiasQuantProxyFromInjector: 3-116                          [32]                      --
        ActQuantProxyFromInjector: 3-117                           [64, 32, 28, 28]          --
    QuantReLU: 2-58                                                 [64, 32, 28, 28]          --
        ActQuantProxyFromInjector: 3-118                           [64, 32, 28, 28]          --
        ActQuantProxyFromInjector: 3-119                           [64, 32, 28, 28]          1
    QuantReLU: 2-64                                                 --                        (recursive)
        ActQuantProxyFromInjector: 3-131                           --                        (recursive)
    QuantReLU: 2-60                                                 --                        (recursive)
        ActQuantProxyFromInjector: 3-121                           --                        (recursive)
    QuantConv2d: 2-61                                               [64, 64, 28, 28]          --
        ActQuantProxyFromInjector: 3-122                           [64, 32, 28, 28]          --
        WeightQuantProxyFromInjector: 3-123                        [64, 32, 3, 3]            18,432
        ActQuantProxyFromInjector: 3-124                           [64, 64, 28, 28]          --
    BatchNorm2dToQuantScaleBias: 2-62                               [64, 64, 28, 28]          64
        ActQuantProxyFromInjector: 3-125                           [64, 64, 28, 28]          --
        WeightQuantProxyFromInjector: 3-126                        [64]                      64
        BiasQuantProxyFromInjector: 3-127                          [64]                      --
        ActQuantProxyFromInjector: 3-128                           [64, 64, 28, 28]          --
    QuantReLU: 2-63                                                 [64, 64, 28, 28]          --
        ActQuantProxyFromInjector: 3-129                           [64, 64, 28, 28]          --
        ActQuantProxyFromInjector: 3-130                           [64, 64, 28, 28]          1
    QuantReLU: 2-64                                                 --                        (recursive)
        ActQuantProxyFromInjector: 3-131                           --                        (recursive)
    QuantReLU: 2-65                                                 --                        (recursive)
        ActQuantProxyFromInjector: 3-132                           --                        (recursive)
    TruncAvgPool2d: 2-66                                            [64, 64, 1, 1]            --
        TruncQuantProxyFromInjector: 3-133                         [64, 64, 1, 1]            --
    Flatten: 2-67                                                   [64, 64]                  --
    Dropout: 2-68                                                   [64, 64]                  --
    QuantLinear: 2-69                                               [64, 16]                  16
        ActQuantProxyFromInjector: 3-134                           [64, 64]                  --
        WeightQuantProxyFromInjector: 3-135                        [16, 64]                  1,024
        BiasQuantProxyFromInjector: 3-136                          [16]                      --
        ActQuantProxyFromInjector: 3-137                           [64, 16]                  --
    QuantReLU: 2-70                                                 [64, 16]                  --
        ActQuantProxyFromInjector: 3-138                           [64, 16]                  --
        ActQuantProxyFromInjector: 3-139                           [64, 16]                  1
    QuantLinear: 2-71                                               [64, 2]                   2
        ActQuantProxyFromInjector: 3-140                           [64, 16]                  --
        WeightQuantProxyFromInjector: 3-141                        [2, 16]                   32
        BiasQuantProxyFromInjector: 3-142                          [2]                       --
        ActQuantProxyFromInjector: 3-143                           [64, 2]                   --
========================================================================================================================
Total params: 93,279
Trainable params: 93,279
Non-trainable params: 0
Total mult-adds (M): 0
========================================================================================================================
Input size (MB): 38.54
Forward/backward pass size (MB): 0.00
Params size (MB): 0.00
Estimated Total Size (MB): 38.54
========================================================================================================================
==========================================================================================
Layer (type:depth-idx)                   Output Shape              Param #
==========================================================================================
BED_CLASSIFIER                           [64, 2]                   --
Sequential: 1-1                        [64, 2]                   --
    Conv2d: 2-1                       [64, 32, 224, 224]        864
    BatchNorm2d: 2-2                  [64, 32, 224, 224]        64
    ReLU: 2-3                         [64, 32, 224, 224]        --
    Dropout2d: 2-4                    [64, 32, 224, 224]        --
    MaxPool2d: 2-5                    [64, 32, 112, 112]        --
    Conv2d: 2-6                       [64, 16, 112, 112]        4,608
    BatchNorm2d: 2-7                  [64, 16, 112, 112]        32
    ReLU: 2-8                         [64, 16, 112, 112]        --
    Dropout2d: 2-9                    [64, 16, 112, 112]        --
    MaxPool2d: 2-10                   [64, 16, 56, 56]          --
    Conv2d: 2-11                      [64, 16, 56, 56]          256
    BatchNorm2d: 2-12                 [64, 16, 56, 56]          32
    ReLU: 2-13                        [64, 16, 56, 56]          --
    Conv2d: 2-14                      [64, 32, 56, 56]          4,608
    BatchNorm2d: 2-15                 [64, 32, 56, 56]          64
    ReLU: 2-16                        [64, 32, 56, 56]          --
    Conv2d: 2-17                      [64, 32, 56, 56]          1,024
    BatchNorm2d: 2-18                 [64, 32, 56, 56]          64
    ReLU: 2-19                        [64, 32, 56, 56]          --
    Conv2d: 2-20                      [64, 64, 56, 56]          18,432
    BatchNorm2d: 2-21                 [64, 64, 56, 56]          128
    ReLU: 2-22                        [64, 64, 56, 56]          --
    MaxPool2d: 2-23                   [64, 64, 28, 28]          --
    Conv2d: 2-24                      [64, 32, 28, 28]          2,048
    BatchNorm2d: 2-25                 [64, 32, 28, 28]          64
    ReLU: 2-26                        [64, 32, 28, 28]          --
    Conv2d: 2-27                      [64, 64, 28, 28]          18,432
    BatchNorm2d: 2-28                 [64, 64, 28, 28]          128
    ReLU: 2-29                        [64, 64, 28, 28]          --
    Conv2d: 2-30                      [64, 32, 28, 28]          2,048
    BatchNorm2d: 2-31                 [64, 32, 28, 28]          64
    ReLU: 2-32                        [64, 32, 28, 28]          --
    Conv2d: 2-33                      [64, 64, 28, 28]          18,432
    BatchNorm2d: 2-34                 [64, 64, 28, 28]          128
    ReLU: 2-35                        [64, 64, 28, 28]          --
    Conv2d: 2-36                      [64, 32, 28, 28]          2,048
    BatchNorm2d: 2-37                 [64, 32, 28, 28]          64
    ReLU: 2-38                        [64, 32, 28, 28]          --
    Conv2d: 2-39                      [64, 64, 28, 28]          18,432
    BatchNorm2d: 2-40                 [64, 64, 28, 28]          128
    ReLU: 2-41                        [64, 64, 28, 28]          --
    AdaptiveAvgPool2d: 2-42           [64, 64, 1, 1]            --
    Flatten: 2-43                     [64, 64]                  --
    Dropout: 2-44                     [64, 64]                  --
    Linear: 2-45                      [64, 16]                  1,040
    ReLU: 2-46                        [64, 16]                  --
    Linear: 2-47                      [64, 2]                   34
==========================================================================================
Total params: 93,266
Trainable params: 93,266
Non-trainable params: 0
Total mult-adds (G): 14.44
==========================================================================================
Input size (MB): 38.54
Forward/backward pass size (MB): 2543.33
Params size (MB): 0.37
Estimated Total Size (MB): 2582.24
…
