…
          )
        )
      )
      (bias_quant): BiasQuantProxyFromInjector(
        (_zero_hw_sentinel): StatelessBuffer()
      )
    )
  )
)
Loading Model. Trained during 115 epochs
========================================================================================================================
Layer (type:depth-idx)                                                 Output Shape              Param #
========================================================================================================================
QUANTWeights_BED_CLASSIFIER                                            [64, 2]                   --
├─Sequential: 1-1                                                      [64, 2]                   --
│    └─QuantConv2d: 2-1                                                [64, 32, 224, 224]        --
│    │    └─ActQuantProxyFromInjector: 3-1                             [64, 3, 224, 224]         --
│    │    └─WeightQuantProxyFromInjector: 3-2                          [32, 3, 3, 3]             864
│    │    └─ActQuantProxyFromInjector: 3-3                             [64, 32, 224, 224]        --
│    └─BatchNorm2d: 2-2                                                [64, 32, 224, 224]        --
│    └─QuantReLU: 2-3                                                  [64, 32, 224, 224]        --
│    │    └─ActQuantProxyFromInjector: 3-4                             [64, 32, 224, 224]        --
│    │    └─ActQuantProxyFromInjector: 3-5                             [64, 32, 224, 224]        1
│    └─QuantReLU: 2-64                                                 --                        (recursive)
│    │    └─ActQuantProxyFromInjector: 3-83                            --                        (recursive)
│    └─QuantReLU: 2-5                                                  --                        (recursive)
│    │    └─ActQuantProxyFromInjector: 3-7                             --                        (recursive)
│    └─Dropout2d: 2-6                                                  [64, 32, 224, 224]        --
│    └─MaxPool2d: 2-7                                                  [64, 32, 112, 112]        --
│    └─QuantConv2d: 2-8                                                [64, 16, 112, 112]        --
│    │    └─ActQuantProxyFromInjector: 3-8                             [64, 32, 112, 112]        --
│    │    └─WeightQuantProxyFromInjector: 3-9                          [16, 32, 3, 3]            4,608
│    │    └─ActQuantProxyFromInjector: 3-10                            [64, 16, 112, 112]        --
│    └─BatchNorm2d: 2-9                                                [64, 16, 112, 112]        --
│    └─QuantReLU: 2-10                                                 [64, 16, 112, 112]        --
│    │    └─ActQuantProxyFromInjector: 3-11                            [64, 16, 112, 112]        --
│    │    └─ActQuantProxyFromInjector: 3-12                            [64, 16, 112, 112]        1
│    └─QuantReLU: 2-64                                                 --                        (recursive)
│    │    └─ActQuantProxyFromInjector: 3-83                            --                        (recursive)
│    └─QuantReLU: 2-12                                                 --                        (recursive)
│    │    └─ActQuantProxyFromInjector: 3-14                            --                        (recursive)
│    └─Dropout2d: 2-13                                                 [64, 16, 112, 112]        --
│    └─MaxPool2d: 2-14                                                 [64, 16, 56, 56]          --
│    └─QuantConv2d: 2-15                                               [64, 16, 56, 56]          --
│    │    └─ActQuantProxyFromInjector: 3-15                            [64, 16, 56, 56]          --
│    │    └─WeightQuantProxyFromInjector: 3-16                         [16, 16, 1, 1]            256
│    │    └─ActQuantProxyFromInjector: 3-17                            [64, 16, 56, 56]          --
│    └─BatchNorm2d: 2-16                                               [64, 16, 56, 56]          --
│    └─QuantReLU: 2-17                                                 [64, 16, 56, 56]          --
│    │    └─ActQuantProxyFromInjector: 3-18                            [64, 16, 56, 56]          --
│    │    └─ActQuantProxyFromInjector: 3-19                            [64, 16, 56, 56]          1
│    └─QuantReLU: 2-64                                                 --                        (recursive)
│    │    └─ActQuantProxyFromInjector: 3-83                            --                        (recursive)
│    └─QuantReLU: 2-19                                                 --                        (recursive)
│    │    └─ActQuantProxyFromInjector: 3-21                            --                        (recursive)
│    └─QuantConv2d: 2-20                                               [64, 32, 56, 56]          --
│    │    └─ActQuantProxyFromInjector: 3-22                            [64, 16, 56, 56]          --
│    │    └─WeightQuantProxyFromInjector: 3-23                         [32, 16, 3, 3]            4,608
│    │    └─ActQuantProxyFromInjector: 3-24                            [64, 32, 56, 56]          --
│    └─BatchNorm2d: 2-21                                               [64, 32, 56, 56]          --
│    └─QuantReLU: 2-22                                                 [64, 32, 56, 56]          --
│    │    └─ActQuantProxyFromInjector: 3-25                            [64, 32, 56, 56]          --
│    │    └─ActQuantProxyFromInjector: 3-26                            [64, 32, 56, 56]          1
│    └─QuantReLU: 2-64                                                 --                        (recursive)
│    │    └─ActQuantProxyFromInjector: 3-83                            --                        (recursive)
│    └─QuantReLU: 2-24                                                 --                        (recursive)
│    │    └─ActQuantProxyFromInjector: 3-28                            --                        (recursive)
│    └─QuantConv2d: 2-25                                               [64, 32, 56, 56]          --
│    │    └─ActQuantProxyFromInjector: 3-29                            [64, 32, 56, 56]          --
│    │    └─WeightQuantProxyFromInjector: 3-30                         [32, 32, 1, 1]            1,024
│    │    └─ActQuantProxyFromInjector: 3-31                            [64, 32, 56, 56]          --
│    └─BatchNorm2d: 2-26                                               [64, 32, 56, 56]          --
│    └─QuantReLU: 2-27                                                 [64, 32, 56, 56]          --
│    │    └─ActQuantProxyFromInjector: 3-32                            [64, 32, 56, 56]          --
│    │    └─ActQuantProxyFromInjector: 3-33                            [64, 32, 56, 56]          1
│    └─QuantReLU: 2-64                                                 --                        (recursive)
│    │    └─ActQuantProxyFromInjector: 3-83                            --                        (recursive)
│    └─QuantReLU: 2-29                                                 --                        (recursive)
│    │    └─ActQuantProxyFromInjector: 3-35                            --                        (recursive)
│    └─QuantConv2d: 2-30                                               [64, 64, 56, 56]          --
│    │    └─ActQuantProxyFromInjector: 3-36                            [64, 32, 56, 56]          --
│    │    └─WeightQuantProxyFromInjector: 3-37                         [64, 32, 3, 3]            18,432
│    │    └─ActQuantProxyFromInjector: 3-38                            [64, 64, 56, 56]          --
│    └─BatchNorm2d: 2-31                                               [64, 64, 56, 56]          --
│    └─QuantReLU: 2-32                                                 [64, 64, 56, 56]          --
│    │    └─ActQuantProxyFromInjector: 3-39                            [64, 64, 56, 56]          --
│    │    └─ActQuantProxyFromInjector: 3-40                            [64, 64, 56, 56]          1
│    └─QuantReLU: 2-64                                                 --                        (recursive)
│    │    └─ActQuantProxyFromInjector: 3-83                            --                        (recursive)
│    └─QuantReLU: 2-34                                                 --                        (recursive)
│    │    └─ActQuantProxyFromInjector: 3-42                            --                        (recursive)
│    └─MaxPool2d: 2-35                                                 [64, 64, 28, 28]          --
│    └─QuantConv2d: 2-36                                               [64, 32, 28, 28]          --
│    │    └─ActQuantProxyFromInjector: 3-43                            [64, 64, 28, 28]          --
│    │    └─WeightQuantProxyFromInjector: 3-44                         [32, 64, 1, 1]            2,048
│    │    └─ActQuantProxyFromInjector: 3-45                            [64, 32, 28, 28]          --
│    └─BatchNorm2d: 2-37                                               [64, 32, 28, 28]          --
│    └─QuantReLU: 2-38                                                 [64, 32, 28, 28]          --
│    │    └─ActQuantProxyFromInjector: 3-46                            [64, 32, 28, 28]          --
│    │    └─ActQuantProxyFromInjector: 3-47                            [64, 32, 28, 28]          1
│    └─QuantReLU: 2-64                                                 --                        (recursive)
│    │    └─ActQuantProxyFromInjector: 3-83                            --                        (recursive)
│    └─QuantReLU: 2-40                                                 --                        (recursive)
│    │    └─ActQuantProxyFromInjector: 3-49                            --                        (recursive)
│    └─QuantConv2d: 2-41                                               [64, 64, 28, 28]          --
│    │    └─ActQuantProxyFromInjector: 3-50                            [64, 32, 28, 28]          --
│    │    └─WeightQuantProxyFromInjector: 3-51                         [64, 32, 3, 3]            18,432
│    │    └─ActQuantProxyFromInjector: 3-52                            [64, 64, 28, 28]          --
│    └─BatchNorm2d: 2-42                                               [64, 64, 28, 28]          --
│    └─QuantReLU: 2-43                                                 [64, 64, 28, 28]          --
│    │    └─ActQuantProxyFromInjector: 3-53                            [64, 64, 28, 28]          --
│    │    └─ActQuantProxyFromInjector: 3-54                            [64, 64, 28, 28]          1
│    └─QuantReLU: 2-64                                                 --                        (recursive)
│    │    └─ActQuantProxyFromInjector: 3-83                            --                        (recursive)
│    └─QuantReLU: 2-45                                                 --                        (recursive)
│    │    └─ActQuantProxyFromInjector: 3-56                            --                        (recursive)
│    └─QuantConv2d: 2-46                                               [64, 32, 28, 28]          --
│    │    └─ActQuantProxyFromInjector: 3-57                            [64, 64, 28, 28]          --
│    │    └─WeightQuantProxyFromInjector: 3-58                         [32, 64, 1, 1]            2,048
│    │    └─ActQuantProxyFromInjector: 3-59                            [64, 32, 28, 28]          --
│    └─BatchNorm2d: 2-47                                               [64, 32, 28, 28]          --
│    └─QuantReLU: 2-48                                                 [64, 32, 28, 28]          --
│    │    └─ActQuantProxyFromInjector: 3-60                            [64, 32, 28, 28]          --
│    │    └─ActQuantProxyFromInjector: 3-61                            [64, 32, 28, 28]          1
│    └─QuantReLU: 2-64                                                 --                        (recursive)
│    │    └─ActQuantProxyFromInjector: 3-83                            --                        (recursive)
│    └─QuantReLU: 2-50                                                 --                        (recursive)
│    │    └─ActQuantProxyFromInjector: 3-63                            --                        (recursive)
│    └─QuantConv2d: 2-51                                               [64, 64, 28, 28]          --
│    │    └─ActQuantProxyFromInjector: 3-64                            [64, 32, 28, 28]          --
│    │    └─WeightQuantProxyFromInjector: 3-65                         [64, 32, 3, 3]            18,432
│    │    └─ActQuantProxyFromInjector: 3-66                            [64, 64, 28, 28]          --
│    └─BatchNorm2d: 2-52                                               [64, 64, 28, 28]          --
│    └─QuantReLU: 2-53                                                 [64, 64, 28, 28]          --
│    │    └─ActQuantProxyFromInjector: 3-67                            [64, 64, 28, 28]          --
│    │    └─ActQuantProxyFromInjector: 3-68                            [64, 64, 28, 28]          1
│    └─QuantReLU: 2-64                                                 --                        (recursive)
│    │    └─ActQuantProxyFromInjector: 3-83                            --                        (recursive)
│    └─QuantReLU: 2-55                                                 --                        (recursive)
│    │    └─ActQuantProxyFromInjector: 3-70                            --                        (recursive)
│    └─QuantConv2d: 2-56                                               [64, 32, 28, 28]          --
│    │    └─ActQuantProxyFromInjector: 3-71                            [64, 64, 28, 28]          --
│    │    └─WeightQuantProxyFromInjector: 3-72                         [32, 64, 1, 1]            2,048
│    │    └─ActQuantProxyFromInjector: 3-73                            [64, 32, 28, 28]          --
│    └─BatchNorm2d: 2-57                                               [64, 32, 28, 28]          --
│    └─QuantReLU: 2-58                                                 [64, 32, 28, 28]          --
│    │    └─ActQuantProxyFromInjector: 3-74                            [64, 32, 28, 28]          --
│    │    └─ActQuantProxyFromInjector: 3-75                            [64, 32, 28, 28]          1
│    └─QuantReLU: 2-64                                                 --                        (recursive)
│    │    └─ActQuantProxyFromInjector: 3-83                            --                        (recursive)
│    └─QuantReLU: 2-60                                                 --                        (recursive)
│    │    └─ActQuantProxyFromInjector: 3-77                            --                        (recursive)
│    └─QuantConv2d: 2-61                                               [64, 64, 28, 28]          --
│    │    └─ActQuantProxyFromInjector: 3-78                            [64, 32, 28, 28]          --
│    │    └─WeightQuantProxyFromInjector: 3-79                         [64, 32, 3, 3]            18,432
│    │    └─ActQuantProxyFromInjector: 3-80                            [64, 64, 28, 28]          --
│    └─BatchNorm2d: 2-62                                               [64, 64, 28, 28]          --
│    └─QuantReLU: 2-63                                                 [64, 64, 28, 28]          --
│    │    └─ActQuantProxyFromInjector: 3-81                            [64, 64, 28, 28]          --
│    │    └─ActQuantProxyFromInjector: 3-82                            [64, 64, 28, 28]          1
│    └─QuantReLU: 2-64                                                 --                        (recursive)
│    │    └─ActQuantProxyFromInjector: 3-83                            --                        (recursive)
│    └─QuantReLU: 2-65                                                 --                        (recursive)
│    │    └─ActQuantProxyFromInjector: 3-84                            --                        (recursive)
│    └─AdaptiveAvgPool2d: 2-66                                         [64, 64, 1, 1]            --
│    └─Flatten: 2-67                                                   [64, 64]                  --
│    └─Dropout: 2-68                                                   [64, 64]                  --
│    └─QuantLinear: 2-69                                               [64, 16]                  16
│    │    └─ActQuantProxyFromInjector: 3-85                            [64, 64]                  --
│    │    └─WeightQuantProxyFromInjector: 3-86                         [16, 64]                  1,024
│    │    └─BiasQuantProxyFromInjector: 3-87                           [16]                      --
│    │    └─ActQuantProxyFromInjector: 3-88                            [64, 16]                  --
│    └─QuantReLU: 2-70                                                 [64, 16]                  --
│    │    └─ActQuantProxyFromInjector: 3-89                            [64, 16]                  --
│    │    └─ActQuantProxyFromInjector: 3-90                            [64, 16]                  1
│    └─QuantLinear: 2-71                                               [64, 2]                   2
│    │    └─ActQuantProxyFromInjector: 3-91                            [64, 16]                  --
│    │    └─WeightQuantProxyFromInjector: 3-92                         [2, 16]                   32
│    │    └─BiasQuantProxyFromInjector: 3-93                           [2]                       --
│    │    └─ActQuantProxyFromInjector: 3-94                            [64, 2]                   --
========================================================================================================================
Total params: 92,319
Trainable params: 92,319
Non-trainable params: 0
Total mult-adds (M): 0
========================================================================================================================
Input size (MB): 38.54
Forward/backward pass size (MB): 0.00
Params size (MB): 0.00
Estimated Total Size (MB): 38.54
========================================================================================================================
==========================================================================================
Layer (type:depth-idx)                   Output Shape              Param #
==========================================================================================
BED_CLASSIFIER                           [64, 2]                   --
├─Sequential: 1-1                        [64, 2]                   --
│    └─Conv2d: 2-1                       [64, 32, 224, 224]        864
│    └─BatchNorm2d: 2-2                  [64, 32, 224, 224]        --
│    └─ReLU: 2-3                         [64, 32, 224, 224]        --
│    └─Dropout2d: 2-4                    [64, 32, 224, 224]        --
│    └─MaxPool2d: 2-5                    [64, 32, 112, 112]        --
│    └─Conv2d: 2-6                       [64, 16, 112, 112]        4,608
│    └─BatchNorm2d: 2-7                  [64, 16, 112, 112]        --
│    └─ReLU: 2-8                         [64, 16, 112, 112]        --
│    └─Dropout2d: 2-9                    [64, 16, 112, 112]        --
│    └─MaxPool2d: 2-10                   [64, 16, 56, 56]          --
│    └─Conv2d: 2-11                      [64, 16, 56, 56]          256
│    └─BatchNorm2d: 2-12                 [64, 16, 56, 56]          --
│    └─ReLU: 2-13                        [64, 16, 56, 56]          --
│    └─Conv2d: 2-14                      [64, 32, 56, 56]          4,608
│    └─BatchNorm2d: 2-15                 [64, 32, 56, 56]          --
│    └─ReLU: 2-16                        [64, 32, 56, 56]          --
│    └─Conv2d: 2-17                      [64, 32, 56, 56]          1,024
│    └─BatchNorm2d: 2-18                 [64, 32, 56, 56]          --
│    └─ReLU: 2-19                        [64, 32, 56, 56]          --
│    └─Conv2d: 2-20                      [64, 64, 56, 56]          18,432
│    └─BatchNorm2d: 2-21                 [64, 64, 56, 56]          --
│    └─ReLU: 2-22                        [64, 64, 56, 56]          --
│    └─MaxPool2d: 2-23                   [64, 64, 28, 28]          --
│    └─Conv2d: 2-24                      [64, 32, 28, 28]          2,048
│    └─BatchNorm2d: 2-25                 [64, 32, 28, 28]          --
│    └─ReLU: 2-26                        [64, 32, 28, 28]          --
│    └─Conv2d: 2-27                      [64, 64, 28, 28]          18,432
│    └─BatchNorm2d: 2-28                 [64, 64, 28, 28]          --
│    └─ReLU: 2-29                        [64, 64, 28, 28]          --
│    └─Conv2d: 2-30                      [64, 32, 28, 28]          2,048
│    └─BatchNorm2d: 2-31                 [64, 32, 28, 28]          --
│    └─ReLU: 2-32                        [64, 32, 28, 28]          --
│    └─Conv2d: 2-33                      [64, 64, 28, 28]          18,432
│    └─BatchNorm2d: 2-34                 [64, 64, 28, 28]          --
│    └─ReLU: 2-35                        [64, 64, 28, 28]          --
│    └─Conv2d: 2-36                      [64, 32, 28, 28]          2,048
│    └─BatchNorm2d: 2-37                 [64, 32, 28, 28]          --
│    └─ReLU: 2-38                        [64, 32, 28, 28]          --
│    └─Conv2d: 2-39                      [64, 64, 28, 28]          18,432
│    └─BatchNorm2d: 2-40                 [64, 64, 28, 28]          --
│    └─ReLU: 2-41                        [64, 64, 28, 28]          --
│    └─AdaptiveAvgPool2d: 2-42           [64, 64, 1, 1]            --
│    └─Flatten: 2-43                     [64, 64]                  --
│    └─Dropout: 2-44                     [64, 64]                  --
│    └─Linear: 2-45                      [64, 16]                  1,040
│    └─ReLU: 2-46                        [64, 16]                  --
│    └─Linear: 2-47                      [64, 2]                   34
==========================================================================================
Total params: 92,306
Trainable params: 92,306
Non-trainable params: 0
Total mult-adds (G): 14.44
==========================================================================================
Input size (MB): 38.54
Forward/backward pass size (MB): 1271.67
Params size (MB): 0.37
Estimated Total Size (MB): 1310.57
…
