…
        )
      )
    )
  )
)
Loading Model. Trained during 6 epochs
Baseline F1 mean of original model: 0.9267141819000244
Quant Model Summary
==================================================================================================================================
Layer (type:depth-idx)                                                           Output Shape              Param #
==================================================================================================================================
QUANT_MEDIUM_PRUNING_AFTER_SVD_CLASSIFIER                                        [1, 2]                    --
Sequential: 1-1                                                                [1, 2]                    --
    QuantIdentity: 2-1                                                        [1, 3, 224, 224]          --
        ActQuantProxyFromInjector: 3-1                                       [1, 3, 224, 224]          --
        ActQuantProxyFromInjector: 3-2                                       [1, 3, 224, 224]          --
    QuantReLU: 2-55                                                           --                        (recursive)
        ActQuantProxyFromInjector: 3-89                                      --                        (recursive)
    QuantIdentity: 2-3                                                        --                        --
        ActQuantProxyFromInjector: 3-4                                       --                        --
    QuantConv2d: 2-4                                                          [1, 32, 224, 224]         --
        ActQuantProxyFromInjector: 3-5                                       [1, 3, 224, 224]          --
        WeightQuantProxyFromInjector: 3-6                                    [32, 3, 3, 3]             896
        BiasQuantProxyFromInjector: 3-7                                      [32]                      32
        ActQuantProxyFromInjector: 3-8                                       [1, 32, 224, 224]         --
    QuantReLU: 2-5                                                            [1, 32, 224, 224]         --
        ActQuantProxyFromInjector: 3-9                                       [1, 32, 224, 224]         --
        ActQuantProxyFromInjector: 3-10                                      [1, 32, 224, 224]         1
    QuantReLU: 2-55                                                           --                        (recursive)
        ActQuantProxyFromInjector: 3-89                                      --                        (recursive)
    QuantReLU: 2-7                                                            --                        (recursive)
        ActQuantProxyFromInjector: 3-12                                      --                        (recursive)
    Dropout2d: 2-8                                                            [1, 32, 224, 224]         --
    MaxPool2d: 2-9                                                            [1, 32, 112, 112]         --
    Sequential: 2-10                                                          [1, 14, 112, 112]         --
        QuantConv2d: 3-13                                                    [1, 19, 112, 112]         1,843
        QuantConv2d: 3-14                                                    [1, 14, 112, 112]         826
    QuantReLU: 2-11                                                           [1, 14, 112, 112]         --
        ActQuantProxyFromInjector: 3-15                                      [1, 14, 112, 112]         --
        ActQuantProxyFromInjector: 3-16                                      [1, 14, 112, 112]         1
    QuantReLU: 2-55                                                           --                        (recursive)
        ActQuantProxyFromInjector: 3-89                                      --                        (recursive)
    QuantReLU: 2-13                                                           --                        (recursive)
        ActQuantProxyFromInjector: 3-18                                      --                        (recursive)
    Dropout2d: 2-14                                                           [1, 14, 112, 112]         --
    MaxPool2d: 2-15                                                           [1, 14, 56, 56]           --
    Sequential: 2-16                                                          [1, 11, 56, 56]           --
        QuantConv2d: 3-19                                                    [1, 6, 56, 56]            90
        QuantConv2d: 3-20                                                    [1, 11, 56, 56]           88
    QuantReLU: 2-17                                                           [1, 11, 56, 56]           --
        ActQuantProxyFromInjector: 3-21                                      [1, 11, 56, 56]           --
        ActQuantProxyFromInjector: 3-22                                      [1, 11, 56, 56]           1
    QuantReLU: 2-55                                                           --                        (recursive)
        ActQuantProxyFromInjector: 3-89                                      --                        (recursive)
    QuantReLU: 2-19                                                           --                        (recursive)
        ActQuantProxyFromInjector: 3-24                                      --                        (recursive)
    QuantConv2d: 2-20                                                         [1, 32, 56, 56]           --
        ActQuantProxyFromInjector: 3-25                                      [1, 11, 56, 56]           --
        WeightQuantProxyFromInjector: 3-26                                   [32, 11, 3, 3]            3,200
        BiasQuantProxyFromInjector: 3-27                                     [32]                      32
        ActQuantProxyFromInjector: 3-28                                      [1, 32, 56, 56]           --
    QuantReLU: 2-21                                                           [1, 32, 56, 56]           --
        ActQuantProxyFromInjector: 3-29                                      [1, 32, 56, 56]           --
        ActQuantProxyFromInjector: 3-30                                      [1, 32, 56, 56]           1
    QuantReLU: 2-55                                                           --                        (recursive)
        ActQuantProxyFromInjector: 3-89                                      --                        (recursive)
    QuantReLU: 2-23                                                           --                        (recursive)
        ActQuantProxyFromInjector: 3-32                                      --                        (recursive)
    QuantConv2d: 2-24                                                         [1, 32, 56, 56]           --
        ActQuantProxyFromInjector: 3-33                                      [1, 32, 56, 56]           --
        WeightQuantProxyFromInjector: 3-34                                   [32, 32, 1, 1]            1,056
        BiasQuantProxyFromInjector: 3-35                                     [32]                      32
        ActQuantProxyFromInjector: 3-36                                      [1, 32, 56, 56]           --
    QuantReLU: 2-25                                                           [1, 32, 56, 56]           --
        ActQuantProxyFromInjector: 3-37                                      [1, 32, 56, 56]           --
        ActQuantProxyFromInjector: 3-38                                      [1, 32, 56, 56]           1
    QuantReLU: 2-55                                                           --                        (recursive)
        ActQuantProxyFromInjector: 3-89                                      --                        (recursive)
    QuantReLU: 2-27                                                           --                        (recursive)
        ActQuantProxyFromInjector: 3-40                                      --                        (recursive)
    Sequential: 2-28                                                          [1, 57, 56, 56]           --
        QuantConv2d: 3-41                                                    [1, 45, 56, 56]           4,365
        QuantConv2d: 3-42                                                    [1, 57, 56, 56]           7,809
    QuantReLU: 2-29                                                           [1, 57, 56, 56]           --
        ActQuantProxyFromInjector: 3-43                                      [1, 57, 56, 56]           --
        ActQuantProxyFromInjector: 3-44                                      [1, 57, 56, 56]           1
    QuantReLU: 2-55                                                           --                        (recursive)
        ActQuantProxyFromInjector: 3-89                                      --                        (recursive)
    QuantReLU: 2-31                                                           --                        (recursive)
        ActQuantProxyFromInjector: 3-46                                      --                        (recursive)
    MaxPool2d: 2-32                                                           [1, 57, 28, 28]           --
    QuantConv2d: 2-33                                                         [1, 32, 28, 28]           --
        ActQuantProxyFromInjector: 3-47                                      [1, 57, 28, 28]           --
        WeightQuantProxyFromInjector: 3-48                                   [32, 57, 1, 1]            1,856
        BiasQuantProxyFromInjector: 3-49                                     [32]                      32
        ActQuantProxyFromInjector: 3-50                                      [1, 32, 28, 28]           --
    QuantReLU: 2-34                                                           [1, 32, 28, 28]           --
        ActQuantProxyFromInjector: 3-51                                      [1, 32, 28, 28]           --
        ActQuantProxyFromInjector: 3-52                                      [1, 32, 28, 28]           1
    QuantReLU: 2-55                                                           --                        (recursive)
        ActQuantProxyFromInjector: 3-89                                      --                        (recursive)
    QuantReLU: 2-36                                                           --                        (recursive)
        ActQuantProxyFromInjector: 3-54                                      --                        (recursive)
    QuantConv2d: 2-37                                                         [1, 64, 28, 28]           --
        ActQuantProxyFromInjector: 3-55                                      [1, 32, 28, 28]           --
        WeightQuantProxyFromInjector: 3-56                                   [64, 32, 3, 3]            18,496
        BiasQuantProxyFromInjector: 3-57                                     [64]                      64
        ActQuantProxyFromInjector: 3-58                                      [1, 64, 28, 28]           --
    QuantReLU: 2-38                                                           [1, 64, 28, 28]           --
        ActQuantProxyFromInjector: 3-59                                      [1, 64, 28, 28]           --
        ActQuantProxyFromInjector: 3-60                                      [1, 64, 28, 28]           1
    QuantReLU: 2-55                                                           --                        (recursive)
        ActQuantProxyFromInjector: 3-89                                      --                        (recursive)
    QuantReLU: 2-40                                                           --                        (recursive)
        ActQuantProxyFromInjector: 3-62                                      --                        (recursive)
    QuantConv2d: 2-41                                                         [1, 32, 28, 28]           --
        ActQuantProxyFromInjector: 3-63                                      [1, 64, 28, 28]           --
        WeightQuantProxyFromInjector: 3-64                                   [32, 64, 1, 1]            2,080
        BiasQuantProxyFromInjector: 3-65                                     [32]                      32
        ActQuantProxyFromInjector: 3-66                                      [1, 32, 28, 28]           --
    QuantReLU: 2-42                                                           [1, 32, 28, 28]           --
        ActQuantProxyFromInjector: 3-67                                      [1, 32, 28, 28]           --
        ActQuantProxyFromInjector: 3-68                                      [1, 32, 28, 28]           1
    QuantReLU: 2-55                                                           --                        (recursive)
        ActQuantProxyFromInjector: 3-89                                      --                        (recursive)
    QuantReLU: 2-44                                                           --                        (recursive)
        ActQuantProxyFromInjector: 3-70                                      --                        (recursive)
    QuantConv2d: 2-45                                                         [1, 57, 28, 28]           --
        ActQuantProxyFromInjector: 3-71                                      [1, 32, 28, 28]           --
        WeightQuantProxyFromInjector: 3-72                                   [57, 32, 3, 3]            16,473
        BiasQuantProxyFromInjector: 3-73                                     [57]                      57
        ActQuantProxyFromInjector: 3-74                                      [1, 57, 28, 28]           --
    QuantReLU: 2-46                                                           [1, 57, 28, 28]           --
        ActQuantProxyFromInjector: 3-75                                      [1, 57, 28, 28]           --
        ActQuantProxyFromInjector: 3-76                                      [1, 57, 28, 28]           1
    QuantReLU: 2-55                                                           --                        (recursive)
        ActQuantProxyFromInjector: 3-89                                      --                        (recursive)
    QuantReLU: 2-48                                                           --                        (recursive)
        ActQuantProxyFromInjector: 3-78                                      --                        (recursive)
    Sequential: 2-49                                                          [1, 32, 28, 28]           --
        QuantConv2d: 3-79                                                    [1, 17, 28, 28]           986
        QuantConv2d: 3-80                                                    [1, 32, 28, 28]           608
    QuantReLU: 2-50                                                           [1, 32, 28, 28]           --
        ActQuantProxyFromInjector: 3-81                                      [1, 32, 28, 28]           --
        ActQuantProxyFromInjector: 3-82                                      [1, 32, 28, 28]           1
    QuantReLU: 2-55                                                           --                        (recursive)
        ActQuantProxyFromInjector: 3-89                                      --                        (recursive)
    QuantReLU: 2-52                                                           --                        (recursive)
        ActQuantProxyFromInjector: 3-84                                      --                        (recursive)
    Sequential: 2-53                                                          [1, 64, 28, 28]           --
        QuantConv2d: 3-85                                                    [1, 5, 28, 28]            485
        QuantConv2d: 3-86                                                    [1, 64, 28, 28]           1,088
    QuantReLU: 2-54                                                           [1, 64, 28, 28]           --
        ActQuantProxyFromInjector: 3-87                                      [1, 64, 28, 28]           --
        ActQuantProxyFromInjector: 3-88                                      [1, 64, 28, 28]           1
    QuantReLU: 2-55                                                           --                        (recursive)
        ActQuantProxyFromInjector: 3-89                                      --                        (recursive)
    QuantReLU: 2-56                                                           --                        (recursive)
        ActQuantProxyFromInjector: 3-90                                      --                        (recursive)
    TruncAvgPool2d: 2-57                                                      [1, 64, 1, 1]             --
        TruncQuantProxyFromInjector: 3-91                                    [1, 64, 1, 1]             --
    Flatten: 2-58                                                             [1, 64]                   --
    Dropout: 2-59                                                             [1, 64]                   --
    QuantLinear: 2-60                                                         [1, 16]                   --
        ActQuantProxyFromInjector: 3-92                                      [1, 64]                   --
        WeightQuantProxyFromInjector: 3-93                                   [16, 64]                  1,040
        BiasQuantProxyFromInjector: 3-94                                     [16]                      16
        ActQuantProxyFromInjector: 3-95                                      [1, 16]                   --
    QuantReLU: 2-61                                                           [1, 16]                   --
        ActQuantProxyFromInjector: 3-96                                      [1, 16]                   --
        ActQuantProxyFromInjector: 3-97                                      [1, 16]                   1
    QuantLinear: 2-62                                                         [1, 2]                    --
        ActQuantProxyFromInjector: 3-98                                      [1, 16]                   --
        WeightQuantProxyFromInjector: 3-99                                   [2, 16]                   34
        BiasQuantProxyFromInjector: 3-100                                    [2]                       2
        ActQuantProxyFromInjector: 3-101                                     [1, 2]                    --
==================================================================================================================================
Total params: 63,631
Trainable params: 63,631
Non-trainable params: 0
Total mult-adds (M): 0
==================================================================================================================================
Input size (MB): 0.60
Forward/backward pass size (MB): 0.00
Params size (MB): 0.00
Estimated Total Size (MB): 0.60
==================================================================================================================================
Original FP32 Model Summary
===============================================================================================
Layer (type:depth-idx)                        Output Shape              Param #
===============================================================================================
ORIGINAL_MEDIUM_PRUNING_AFTER_SVD_CLASSIFIER  [1, 2]                    --
Sequential: 1-1                             [1, 2]                    --
    Conv2d: 2-1                            [1, 32, 224, 224]         896
    ReLU: 2-2                              [1, 32, 224, 224]         --
    Dropout2d: 2-3                         [1, 32, 224, 224]         --
    MaxPool2d: 2-4                         [1, 32, 112, 112]         --
    Sequential: 2-5                        [1, 14, 112, 112]         --
        Conv2d: 3-1                       [1, 19, 112, 112]         1,824
        Conv2d: 3-2                       [1, 14, 112, 112]         812
    ReLU: 2-6                              [1, 14, 112, 112]         --
    Dropout2d: 2-7                         [1, 14, 112, 112]         --
    MaxPool2d: 2-8                         [1, 14, 56, 56]           --
    Sequential: 2-9                        [1, 11, 56, 56]           --
        Conv2d: 3-3                       [1, 6, 56, 56]            84
        Conv2d: 3-4                       [1, 11, 56, 56]           77
    ReLU: 2-10                             [1, 11, 56, 56]           --
    Conv2d: 2-11                           [1, 32, 56, 56]           3,200
    ReLU: 2-12                             [1, 32, 56, 56]           --
    Conv2d: 2-13                           [1, 32, 56, 56]           1,056
    ReLU: 2-14                             [1, 32, 56, 56]           --
    Sequential: 2-15                       [1, 57, 56, 56]           --
        Conv2d: 3-5                       [1, 45, 56, 56]           4,320
        Conv2d: 3-6                       [1, 57, 56, 56]           7,752
    ReLU: 2-16                             [1, 57, 56, 56]           --
    MaxPool2d: 2-17                        [1, 57, 28, 28]           --
    Conv2d: 2-18                           [1, 32, 28, 28]           1,856
    ReLU: 2-19                             [1, 32, 28, 28]           --
    Conv2d: 2-20                           [1, 64, 28, 28]           18,496
    ReLU: 2-21                             [1, 64, 28, 28]           --
    Conv2d: 2-22                           [1, 32, 28, 28]           2,080
    ReLU: 2-23                             [1, 32, 28, 28]           --
    Conv2d: 2-24                           [1, 57, 28, 28]           16,473
    ReLU: 2-25                             [1, 57, 28, 28]           --
    Sequential: 2-26                       [1, 32, 28, 28]           --
        Conv2d: 3-7                       [1, 17, 28, 28]           969
        Conv2d: 3-8                       [1, 32, 28, 28]           576
    ReLU: 2-27                             [1, 32, 28, 28]           --
    Sequential: 2-28                       [1, 64, 28, 28]           --
        Conv2d: 3-9                       [1, 5, 28, 28]            480
        Conv2d: 3-10                      [1, 64, 28, 28]           1,024
    ReLU: 2-29                             [1, 64, 28, 28]           --
    AdaptiveAvgPool2d: 2-30                [1, 64, 1, 1]             --
    Flatten: 2-31                          [1, 64]                   --
    Dropout: 2-32                          [1, 64]                   --
    Linear: 2-33                           [1, 16]                   1,040
    ReLU: 2-34                             [1, 16]                   --
    Linear: 2-35                           [1, 2]                    34
===============================================================================================
Total params: 63,049
Trainable params: 63,049
Non-trainable params: 0
Total mult-adds (M): 162.63
===============================================================================================
Input size (MB): 0.60
Forward/backward pass size (MB): 22.65
Params size (MB): 0.25
Estimated Total Size (MB): 23.50
…
