…
    (flatten5): Flatten(start_dim=1, end_dim=-1)
    (dropout5): Dropout(p=0.2, inplace=False)
    (linear51): Linear(in_features=64, out_features=16, bias=True)
    (relu5): ReLU()
    (linear52): Linear(in_features=16, out_features=2, bias=True)
  )
)
Loading Model. Trained during 9 epochs
Original FP32 Model Summary
==========================================================================================
Layer (type:depth-idx)                   Output Shape              Param #
==========================================================================================
PRUNED_BED_CLASSIFIER                    [64, 2]                   --
├─Sequential: 1-1                        [64, 2]                   --
│    └─Conv2d: 2-1                       [64, 28, 224, 224]        784
│    └─ReLU: 2-2                         [64, 28, 224, 224]        --
│    └─Dropout2d: 2-3                    [64, 28, 224, 224]        --
│    └─MaxPool2d: 2-4                    [64, 28, 112, 112]        --
│    └─Conv2d: 2-5                       [64, 12, 112, 112]        3,036
│    └─ReLU: 2-6                         [64, 12, 112, 112]        --
│    └─Dropout2d: 2-7                    [64, 12, 112, 112]        --
│    └─MaxPool2d: 2-8                    [64, 12, 56, 56]          --
│    └─Conv2d: 2-9                       [64, 8, 56, 56]           104
│    └─ReLU: 2-10                        [64, 8, 56, 56]           --
│    └─Conv2d: 2-11                      [64, 22, 56, 56]          1,606
│    └─ReLU: 2-12                        [64, 22, 56, 56]          --
│    └─Conv2d: 2-13                      [64, 32, 56, 56]          736
│    └─ReLU: 2-14                        [64, 32, 56, 56]          --
│    └─Conv2d: 2-15                      [64, 57, 56, 56]          16,473
│    └─ReLU: 2-16                        [64, 57, 56, 56]          --
│    └─MaxPool2d: 2-17                   [64, 57, 28, 28]          --
│    └─Conv2d: 2-18                      [64, 32, 28, 28]          1,856
│    └─ReLU: 2-19                        [64, 32, 28, 28]          --
│    └─Conv2d: 2-20                      [64, 64, 28, 28]          18,496
│    └─ReLU: 2-21                        [64, 64, 28, 28]          --
│    └─Conv2d: 2-22                      [64, 32, 28, 28]          2,080
│    └─ReLU: 2-23                        [64, 32, 28, 28]          --
│    └─Conv2d: 2-24                      [64, 64, 28, 28]          18,496
│    └─ReLU: 2-25                        [64, 64, 28, 28]          --
│    └─Conv2d: 2-26                      [64, 25, 28, 28]          1,625
│    └─ReLU: 2-27                        [64, 25, 28, 28]          --
│    └─Conv2d: 2-28                      [64, 64, 28, 28]          14,464
│    └─ReLU: 2-29                        [64, 64, 28, 28]          --
│    └─AdaptiveAvgPool2d: 2-30           [64, 64, 1, 1]            --
│    └─Flatten: 2-31                     [64, 64]                  --
│    └─Dropout: 2-32                     [64, 64]                  --
│    └─Linear: 2-33                      [64, 16]                  1,040
│    └─ReLU: 2-34                        [64, 16]                  --
│    └─Linear: 2-35                      [64, 2]                   34
==========================================================================================
Total params: 80,830
Trainable params: 80,830
Non-trainable params: 0
Total mult-adds (G): 11.61
==========================================================================================
Input size (MB): 38.54
Forward/backward pass size (MB): 1100.27
Params size (MB): 0.32
Estimated Total Size (MB): 1139.13
…
        Ratio=0.6, Eval score=0.9168702363967896
        Ratio=0.7, Eval score=0.9169803857803345
        Ratio=0.8, Eval score=0.9168702363967896
        Ratio=0.9, Eval score=0.9169803857803345

**********************************************************************************************

Compressed Model Summary
==========================================================================================
Layer (type:depth-idx)                   Output Shape              Param #
==========================================================================================
PRUNED_BED_CLASSIFIER                    [64, 2]                   --
├─Sequential: 1-1                        [64, 2]                   --
│    └─Sequential: 2-1                   [64, 28, 224, 224]        --
│    │    └─Conv2d: 3-1                  [64, 7, 224, 224]         63
│    │    └─Conv2d: 3-2                  [64, 28, 224, 224]        616
│    └─ReLU: 2-2                         [64, 28, 224, 224]        --
│    └─Dropout2d: 2-3                    [64, 28, 224, 224]        --
│    └─MaxPool2d: 2-4                    [64, 28, 112, 112]        --
│    └─Sequential: 2-5                   [64, 12, 112, 112]        --
│    │    └─Conv2d: 3-3                  [64, 12, 112, 112]        1,008
│    │    └─Conv2d: 3-4                  [64, 12, 112, 112]        444
│    └─ReLU: 2-6                         [64, 12, 112, 112]        --
│    └─Dropout2d: 2-7                    [64, 12, 112, 112]        --
│    └─MaxPool2d: 2-8                    [64, 12, 56, 56]          --
│    └─Sequential: 2-9                   [64, 8, 56, 56]           --
│    │    └─Conv2d: 3-5                  [64, 4, 56, 56]           48
│    │    └─Conv2d: 3-6                  [64, 8, 56, 56]           40
│    └─ReLU: 2-10                        [64, 8, 56, 56]           --
│    └─Conv2d: 2-11                      [64, 22, 56, 56]          1,606
│    └─ReLU: 2-12                        [64, 22, 56, 56]          --
│    └─Conv2d: 2-13                      [64, 32, 56, 56]          736
│    └─ReLU: 2-14                        [64, 32, 56, 56]          --
│    └─Sequential: 2-15                  [64, 57, 56, 56]          --
│    │    └─Conv2d: 3-7                  [64, 43, 56, 56]          4,128
│    │    └─Conv2d: 3-8                  [64, 57, 56, 56]          7,410
│    └─ReLU: 2-16                        [64, 57, 56, 56]          --
│    └─MaxPool2d: 2-17                   [64, 57, 28, 28]          --
│    └─Conv2d: 2-18                      [64, 32, 28, 28]          1,856
│    └─ReLU: 2-19                        [64, 32, 28, 28]          --
│    └─Conv2d: 2-20                      [64, 64, 28, 28]          18,496
│    └─ReLU: 2-21                        [64, 64, 28, 28]          --
│    └─Conv2d: 2-22                      [64, 32, 28, 28]          2,080
│    └─ReLU: 2-23                        [64, 32, 28, 28]          --
│    └─Sequential: 2-24                  [64, 64, 28, 28]          --
│    │    └─Conv2d: 3-9                  [64, 44, 28, 28]          4,224
│    │    └─Conv2d: 3-10                 [64, 64, 28, 28]          8,512
│    └─ReLU: 2-25                        [64, 64, 28, 28]          --
│    └─Conv2d: 2-26                      [64, 25, 28, 28]          1,625
│    └─ReLU: 2-27                        [64, 25, 28, 28]          --
│    └─Sequential: 2-28                  [64, 64, 28, 28]          --
│    │    └─Conv2d: 3-11                 [64, 10, 28, 28]          750
│    │    └─Conv2d: 3-12                 [64, 64, 28, 28]          1,984
│    └─ReLU: 2-29                        [64, 64, 28, 28]          --
│    └─AdaptiveAvgPool2d: 2-30           [64, 64, 1, 1]            --
│    └─Flatten: 2-31                     [64, 64]                  --
│    └─Dropout: 2-32                     [64, 64]                  --
│    └─Linear: 2-33                      [64, 16]                  1,040
│    └─ReLU: 2-34                        [64, 16]                  --
│    └─Linear: 2-35                      [64, 2]                   34
==========================================================================================
Total params: 56,700
Trainable params: 56,700
Non-trainable params: 0
Total mult-adds (G): 8.13
==========================================================================================
Input size (MB): 38.54
Forward/backward pass size (MB): 1454.31
Params size (MB): 0.23
Estimated Total Size (MB): 1493.07
…
