…
          (msb_clamp_bit_width_impl): BitWidthConst(
            (bit_width): StatelessBuffer()
          )
          (zero_point): StatelessBuffer()
        )
      )
    )
  )
)
Loading Model. Trained during 133 epochs
========================================================================================================================
Layer (type:depth-idx)                                                 Output Shape              Param #
========================================================================================================================
QUANTWeights_BED_CLASSIFIER                                            [64, 2]                   --
Sequential: 1-1                                                      [64, 2]                   --
    QuantIdentity: 2-1                                              [64, 3, 224, 224]         --
        ActQuantProxyFromInjector: 3-1                             [64, 3, 224, 224]         --
        ActQuantProxyFromInjector: 3-2                             [64, 3, 224, 224]         1
    QuantReLU: 2-67                                                 --                        (recursive)
        ActQuantProxyFromInjector: 3-135                           --                        (recursive)
    QuantIdentity: 2-3                                              --                        (recursive)
        ActQuantProxyFromInjector: 3-4                             --                        (recursive)
    QuantConv2d: 2-4                                                [64, 32, 224, 224]        --
        ActQuantProxyFromInjector: 3-5                             [64, 3, 224, 224]         --
        WeightQuantProxyFromInjector: 3-6                          [32, 3, 3, 3]             864
        ActQuantProxyFromInjector: 3-7                             [64, 32, 224, 224]        --
    BatchNorm2dToQuantScaleBias: 2-5                                [64, 32, 224, 224]        32
        ActQuantProxyFromInjector: 3-8                             [64, 32, 224, 224]        --
        WeightQuantProxyFromInjector: 3-9                          [32]                      32
        BiasQuantProxyFromInjector: 3-10                           [32]                      --
        ActQuantProxyFromInjector: 3-11                            [64, 32, 224, 224]        --
    QuantReLU: 2-6                                                  [64, 32, 224, 224]        --
        ActQuantProxyFromInjector: 3-12                            [64, 32, 224, 224]        --
        ActQuantProxyFromInjector: 3-13                            [64, 32, 224, 224]        1
    QuantReLU: 2-67                                                 --                        (recursive)
        ActQuantProxyFromInjector: 3-135                           --                        (recursive)
    QuantReLU: 2-8                                                  --                        (recursive)
        ActQuantProxyFromInjector: 3-15                            --                        (recursive)
    Dropout2d: 2-9                                                  [64, 32, 224, 224]        --
    MaxPool2d: 2-10                                                 [64, 32, 112, 112]        --
    QuantConv2d: 2-11                                               [64, 16, 112, 112]        --
        ActQuantProxyFromInjector: 3-16                            [64, 32, 112, 112]        --
        WeightQuantProxyFromInjector: 3-17                         [16, 32, 3, 3]            4,608
        ActQuantProxyFromInjector: 3-18                            [64, 16, 112, 112]        --
    BatchNorm2dToQuantScaleBias: 2-12                               [64, 16, 112, 112]        16
        ActQuantProxyFromInjector: 3-19                            [64, 16, 112, 112]        --
        WeightQuantProxyFromInjector: 3-20                         [16]                      16
        BiasQuantProxyFromInjector: 3-21                           [16]                      --
        ActQuantProxyFromInjector: 3-22                            [64, 16, 112, 112]        --
    QuantReLU: 2-13                                                 [64, 16, 112, 112]        --
        ActQuantProxyFromInjector: 3-23                            [64, 16, 112, 112]        --
        ActQuantProxyFromInjector: 3-24                            [64, 16, 112, 112]        1
    QuantReLU: 2-67                                                 --                        (recursive)
        ActQuantProxyFromInjector: 3-135                           --                        (recursive)
    QuantReLU: 2-15                                                 --                        (recursive)
        ActQuantProxyFromInjector: 3-26                            --                        (recursive)
    Dropout2d: 2-16                                                 [64, 16, 112, 112]        --
    MaxPool2d: 2-17                                                 [64, 16, 56, 56]          --
    QuantConv2d: 2-18                                               [64, 16, 56, 56]          --
        ActQuantProxyFromInjector: 3-27                            [64, 16, 56, 56]          --
        WeightQuantProxyFromInjector: 3-28                         [16, 16, 1, 1]            256
        ActQuantProxyFromInjector: 3-29                            [64, 16, 56, 56]          --
    BatchNorm2dToQuantScaleBias: 2-19                               [64, 16, 56, 56]          16
        ActQuantProxyFromInjector: 3-30                            [64, 16, 56, 56]          --
        WeightQuantProxyFromInjector: 3-31                         [16]                      16
        BiasQuantProxyFromInjector: 3-32                           [16]                      --
        ActQuantProxyFromInjector: 3-33                            [64, 16, 56, 56]          --
    QuantReLU: 2-20                                                 [64, 16, 56, 56]          --
        ActQuantProxyFromInjector: 3-34                            [64, 16, 56, 56]          --
        ActQuantProxyFromInjector: 3-35                            [64, 16, 56, 56]          1
    QuantReLU: 2-67                                                 --                        (recursive)
        ActQuantProxyFromInjector: 3-135                           --                        (recursive)
    QuantReLU: 2-22                                                 --                        (recursive)
        ActQuantProxyFromInjector: 3-37                            --                        (recursive)
    QuantConv2d: 2-23                                               [64, 32, 56, 56]          --
        ActQuantProxyFromInjector: 3-38                            [64, 16, 56, 56]          --
        WeightQuantProxyFromInjector: 3-39                         [32, 16, 3, 3]            4,608
        ActQuantProxyFromInjector: 3-40                            [64, 32, 56, 56]          --
    BatchNorm2dToQuantScaleBias: 2-24                               [64, 32, 56, 56]          32
        ActQuantProxyFromInjector: 3-41                            [64, 32, 56, 56]          --
        WeightQuantProxyFromInjector: 3-42                         [32]                      32
        BiasQuantProxyFromInjector: 3-43                           [32]                      --
        ActQuantProxyFromInjector: 3-44                            [64, 32, 56, 56]          --
    QuantReLU: 2-25                                                 [64, 32, 56, 56]          --
        ActQuantProxyFromInjector: 3-45                            [64, 32, 56, 56]          --
        ActQuantProxyFromInjector: 3-46                            [64, 32, 56, 56]          1
    QuantReLU: 2-67                                                 --                        (recursive)
        ActQuantProxyFromInjector: 3-135                           --                        (recursive)
    QuantReLU: 2-27                                                 --                        (recursive)
        ActQuantProxyFromInjector: 3-48                            --                        (recursive)
    QuantConv2d: 2-28                                               [64, 32, 56, 56]          --
        ActQuantProxyFromInjector: 3-49                            [64, 32, 56, 56]          --
        WeightQuantProxyFromInjector: 3-50                         [32, 32, 1, 1]            1,024
        ActQuantProxyFromInjector: 3-51                            [64, 32, 56, 56]          --
    BatchNorm2dToQuantScaleBias: 2-29                               [64, 32, 56, 56]          32
        ActQuantProxyFromInjector: 3-52                            [64, 32, 56, 56]          --
        WeightQuantProxyFromInjector: 3-53                         [32]                      32
        BiasQuantProxyFromInjector: 3-54                           [32]                      --
        ActQuantProxyFromInjector: 3-55                            [64, 32, 56, 56]          --
    QuantReLU: 2-30                                                 [64, 32, 56, 56]          --
        ActQuantProxyFromInjector: 3-56                            [64, 32, 56, 56]          --
        ActQuantProxyFromInjector: 3-57                            [64, 32, 56, 56]          1
    QuantReLU: 2-67                                                 --                        (recursive)
        ActQuantProxyFromInjector: 3-135                           --                        (recursive)
    QuantReLU: 2-32                                                 --                        (recursive)
        ActQuantProxyFromInjector: 3-59                            --                        (recursive)
    QuantConv2d: 2-33                                               [64, 64, 56, 56]          --
        ActQuantProxyFromInjector: 3-60                            [64, 32, 56, 56]          --
        WeightQuantProxyFromInjector: 3-61                         [64, 32, 3, 3]            18,432
        ActQuantProxyFromInjector: 3-62                            [64, 64, 56, 56]          --
    BatchNorm2dToQuantScaleBias: 2-34                               [64, 64, 56, 56]          64
        ActQuantProxyFromInjector: 3-63                            [64, 64, 56, 56]          --
        WeightQuantProxyFromInjector: 3-64                         [64]                      64
        BiasQuantProxyFromInjector: 3-65                           [64]                      --
        ActQuantProxyFromInjector: 3-66                            [64, 64, 56, 56]          --
    QuantReLU: 2-35                                                 [64, 64, 56, 56]          --
        ActQuantProxyFromInjector: 3-67                            [64, 64, 56, 56]          --
        ActQuantProxyFromInjector: 3-68                            [64, 64, 56, 56]          1
    QuantReLU: 2-67                                                 --                        (recursive)
        ActQuantProxyFromInjector: 3-135                           --                        (recursive)
    QuantReLU: 2-37                                                 --                        (recursive)
        ActQuantProxyFromInjector: 3-70                            --                        (recursive)
    MaxPool2d: 2-38                                                 [64, 64, 28, 28]          --
    QuantConv2d: 2-39                                               [64, 32, 28, 28]          --
        ActQuantProxyFromInjector: 3-71                            [64, 64, 28, 28]          --
        WeightQuantProxyFromInjector: 3-72                         [32, 64, 1, 1]            2,048
        ActQuantProxyFromInjector: 3-73                            [64, 32, 28, 28]          --
    BatchNorm2dToQuantScaleBias: 2-40                               [64, 32, 28, 28]          32
        ActQuantProxyFromInjector: 3-74                            [64, 32, 28, 28]          --
        WeightQuantProxyFromInjector: 3-75                         [32]                      32
        BiasQuantProxyFromInjector: 3-76                           [32]                      --
        ActQuantProxyFromInjector: 3-77                            [64, 32, 28, 28]          --
    QuantReLU: 2-41                                                 [64, 32, 28, 28]          --
        ActQuantProxyFromInjector: 3-78                            [64, 32, 28, 28]          --
        ActQuantProxyFromInjector: 3-79                            [64, 32, 28, 28]          1
    QuantReLU: 2-67                                                 --                        (recursive)
        ActQuantProxyFromInjector: 3-135                           --                        (recursive)
    QuantReLU: 2-43                                                 --                        (recursive)
        ActQuantProxyFromInjector: 3-81                            --                        (recursive)
    QuantConv2d: 2-44                                               [64, 64, 28, 28]          --
        ActQuantProxyFromInjector: 3-82                            [64, 32, 28, 28]          --
        WeightQuantProxyFromInjector: 3-83                         [64, 32, 3, 3]            18,432
        ActQuantProxyFromInjector: 3-84                            [64, 64, 28, 28]          --
    BatchNorm2dToQuantScaleBias: 2-45                               [64, 64, 28, 28]          64
        ActQuantProxyFromInjector: 3-85                            [64, 64, 28, 28]          --
        WeightQuantProxyFromInjector: 3-86                         [64]                      64
        BiasQuantProxyFromInjector: 3-87                           [64]                      --
        ActQuantProxyFromInjector: 3-88                            [64, 64, 28, 28]          --
    QuantReLU: 2-46                                                 [64, 64, 28, 28]          --
        ActQuantProxyFromInjector: 3-89                            [64, 64, 28, 28]          --
        ActQuantProxyFromInjector: 3-90                            [64, 64, 28, 28]          1
    QuantReLU: 2-67                                                 --                        (recursive)
        ActQuantProxyFromInjector: 3-135                           --                        (recursive)
    QuantReLU: 2-48                                                 --                        (recursive)
        ActQuantProxyFromInjector: 3-92                            --                        (recursive)
    QuantConv2d: 2-49                                               [64, 32, 28, 28]          --
        ActQuantProxyFromInjector: 3-93                            [64, 64, 28, 28]          --
        WeightQuantProxyFromInjector: 3-94                         [32, 64, 1, 1]            2,048
        ActQuantProxyFromInjector: 3-95                            [64, 32, 28, 28]          --
    BatchNorm2dToQuantScaleBias: 2-50                               [64, 32, 28, 28]          32
        ActQuantProxyFromInjector: 3-96                            [64, 32, 28, 28]          --
        WeightQuantProxyFromInjector: 3-97                         [32]                      32
        BiasQuantProxyFromInjector: 3-98                           [32]                      --
        ActQuantProxyFromInjector: 3-99                            [64, 32, 28, 28]          --
    QuantReLU: 2-51                                                 [64, 32, 28, 28]          --
        ActQuantProxyFromInjector: 3-100                           [64, 32, 28, 28]          --
        ActQuantProxyFromInjector: 3-101                           [64, 32, 28, 28]          1
    QuantReLU: 2-67                                                 --                        (recursive)
        ActQuantProxyFromInjector: 3-135                           --                        (recursive)
    QuantReLU: 2-53                                                 --                        (recursive)
        ActQuantProxyFromInjector: 3-103                           --                        (recursive)
    QuantConv2d: 2-54                                               [64, 64, 28, 28]          --
        ActQuantProxyFromInjector: 3-104                           [64, 32, 28, 28]          --
        WeightQuantProxyFromInjector: 3-105                        [64, 32, 3, 3]            18,432
        ActQuantProxyFromInjector: 3-106                           [64, 64, 28, 28]          --
    BatchNorm2dToQuantScaleBias: 2-55                               [64, 64, 28, 28]          64
        ActQuantProxyFromInjector: 3-107                           [64, 64, 28, 28]          --
        WeightQuantProxyFromInjector: 3-108                        [64]                      64
        BiasQuantProxyFromInjector: 3-109                          [64]                      --
        ActQuantProxyFromInjector: 3-110                           [64, 64, 28, 28]          --
    QuantReLU: 2-56                                                 [64, 64, 28, 28]          --
        ActQuantProxyFromInjector: 3-111                           [64, 64, 28, 28]          --
        ActQuantProxyFromInjector: 3-112                           [64, 64, 28, 28]          1
    QuantReLU: 2-67                                                 --                        (recursive)
        ActQuantProxyFromInjector: 3-135                           --                        (recursive)
    QuantReLU: 2-58                                                 --                        (recursive)
        ActQuantProxyFromInjector: 3-114                           --                        (recursive)
    QuantConv2d: 2-59                                               [64, 32, 28, 28]          --
        ActQuantProxyFromInjector: 3-115                           [64, 64, 28, 28]          --
        WeightQuantProxyFromInjector: 3-116                        [32, 64, 1, 1]            2,048
        ActQuantProxyFromInjector: 3-117                           [64, 32, 28, 28]          --
    BatchNorm2dToQuantScaleBias: 2-60                               [64, 32, 28, 28]          32
        ActQuantProxyFromInjector: 3-118                           [64, 32, 28, 28]          --
        WeightQuantProxyFromInjector: 3-119                        [32]                      32
        BiasQuantProxyFromInjector: 3-120                          [32]                      --
        ActQuantProxyFromInjector: 3-121                           [64, 32, 28, 28]          --
    QuantReLU: 2-61                                                 [64, 32, 28, 28]          --
        ActQuantProxyFromInjector: 3-122                           [64, 32, 28, 28]          --
        ActQuantProxyFromInjector: 3-123                           [64, 32, 28, 28]          1
    QuantReLU: 2-67                                                 --                        (recursive)
        ActQuantProxyFromInjector: 3-135                           --                        (recursive)
    QuantReLU: 2-63                                                 --                        (recursive)
        ActQuantProxyFromInjector: 3-125                           --                        (recursive)
    QuantConv2d: 2-64                                               [64, 64, 28, 28]          --
        ActQuantProxyFromInjector: 3-126                           [64, 32, 28, 28]          --
        WeightQuantProxyFromInjector: 3-127                        [64, 32, 3, 3]            18,432
        ActQuantProxyFromInjector: 3-128                           [64, 64, 28, 28]          --
    BatchNorm2dToQuantScaleBias: 2-65                               [64, 64, 28, 28]          64
        ActQuantProxyFromInjector: 3-129                           [64, 64, 28, 28]          --
        WeightQuantProxyFromInjector: 3-130                        [64]                      64
        BiasQuantProxyFromInjector: 3-131                          [64]                      --
        ActQuantProxyFromInjector: 3-132                           [64, 64, 28, 28]          --
    QuantReLU: 2-66                                                 [64, 64, 28, 28]          --
        ActQuantProxyFromInjector: 3-133                           [64, 64, 28, 28]          --
        ActQuantProxyFromInjector: 3-134                           [64, 64, 28, 28]          1
    QuantReLU: 2-67                                                 --                        (recursive)
        ActQuantProxyFromInjector: 3-135                           --                        (recursive)
    QuantReLU: 2-68                                                 --                        (recursive)
        ActQuantProxyFromInjector: 3-136                           --                        (recursive)
    TruncAvgPool2d: 2-69                                            [64, 64, 1, 1]            --
        TruncQuantProxyFromInjector: 3-137                         [64, 64, 1, 1]            --
    Flatten: 2-70                                                   [64, 64]                  --
    Dropout: 2-71                                                   [64, 64]                  --
    QuantLinear: 2-72                                               [64, 16]                  16
        ActQuantProxyFromInjector: 3-138                           [64, 64]                  --
        WeightQuantProxyFromInjector: 3-139                        [16, 64]                  1,024
        BiasQuantProxyFromInjector: 3-140                          [16]                      --
        ActQuantProxyFromInjector: 3-141                           [64, 16]                  --
    QuantReLU: 2-73                                                 [64, 16]                  --
        ActQuantProxyFromInjector: 3-142                           [64, 16]                  --
        ActQuantProxyFromInjector: 3-143                           [64, 16]                  1
    QuantLinear: 2-74                                               [64, 2]                   2
        ActQuantProxyFromInjector: 3-144                           [64, 16]                  --
        WeightQuantProxyFromInjector: 3-145                        [2, 16]                   32
        BiasQuantProxyFromInjector: 3-146                          [2]                       --
        ActQuantProxyFromInjector: 3-147                           [64, 2]                   --
========================================================================================================================
Total params: 93,280
Trainable params: 93,280
Non-trainable params: 0
Total mult-adds (M): 0
========================================================================================================================
Input size (MB): 38.54
Forward/backward pass size (MB): 0.00
Params size (MB): 0.00
Estimated Total Size (MB): 38.54
========================================================================================================================
==========================================================================================
Layer (type:depth-idx)                   Output Shape              Param #
==========================================================================================
BED_CLASSIFIER                           [64, 2]                   --
Sequential: 1-1                        [64, 2]                   --
    Conv2d: 2-1                       [64, 32, 224, 224]        864
    BatchNorm2d: 2-2                  [64, 32, 224, 224]        64
    ReLU: 2-3                         [64, 32, 224, 224]        --
    Dropout2d: 2-4                    [64, 32, 224, 224]        --
    MaxPool2d: 2-5                    [64, 32, 112, 112]        --
    Conv2d: 2-6                       [64, 16, 112, 112]        4,608
    BatchNorm2d: 2-7                  [64, 16, 112, 112]        32
    ReLU: 2-8                         [64, 16, 112, 112]        --
    Dropout2d: 2-9                    [64, 16, 112, 112]        --
    MaxPool2d: 2-10                   [64, 16, 56, 56]          --
    Conv2d: 2-11                      [64, 16, 56, 56]          256
    BatchNorm2d: 2-12                 [64, 16, 56, 56]          32
    ReLU: 2-13                        [64, 16, 56, 56]          --
    Conv2d: 2-14                      [64, 32, 56, 56]          4,608
    BatchNorm2d: 2-15                 [64, 32, 56, 56]          64
    ReLU: 2-16                        [64, 32, 56, 56]          --
    Conv2d: 2-17                      [64, 32, 56, 56]          1,024
    BatchNorm2d: 2-18                 [64, 32, 56, 56]          64
    ReLU: 2-19                        [64, 32, 56, 56]          --
    Conv2d: 2-20                      [64, 64, 56, 56]          18,432
    BatchNorm2d: 2-21                 [64, 64, 56, 56]          128
    ReLU: 2-22                        [64, 64, 56, 56]          --
    MaxPool2d: 2-23                   [64, 64, 28, 28]          --
    Conv2d: 2-24                      [64, 32, 28, 28]          2,048
    BatchNorm2d: 2-25                 [64, 32, 28, 28]          64
    ReLU: 2-26                        [64, 32, 28, 28]          --
    Conv2d: 2-27                      [64, 64, 28, 28]          18,432
    BatchNorm2d: 2-28                 [64, 64, 28, 28]          128
    ReLU: 2-29                        [64, 64, 28, 28]          --
    Conv2d: 2-30                      [64, 32, 28, 28]          2,048
    BatchNorm2d: 2-31                 [64, 32, 28, 28]          64
    ReLU: 2-32                        [64, 32, 28, 28]          --
    Conv2d: 2-33                      [64, 64, 28, 28]          18,432
    BatchNorm2d: 2-34                 [64, 64, 28, 28]          128
    ReLU: 2-35                        [64, 64, 28, 28]          --
    Conv2d: 2-36                      [64, 32, 28, 28]          2,048
    BatchNorm2d: 2-37                 [64, 32, 28, 28]          64
    ReLU: 2-38                        [64, 32, 28, 28]          --
    Conv2d: 2-39                      [64, 64, 28, 28]          18,432
    BatchNorm2d: 2-40                 [64, 64, 28, 28]          128
    ReLU: 2-41                        [64, 64, 28, 28]          --
    AdaptiveAvgPool2d: 2-42           [64, 64, 1, 1]            --
    Flatten: 2-43                     [64, 64]                  --
    Dropout: 2-44                     [64, 64]                  --
    Linear: 2-45                      [64, 16]                  1,040
    ReLU: 2-46                        [64, 16]                  --
    Linear: 2-47                      [64, 2]                   34
==========================================================================================
Total params: 93,266
Trainable params: 93,266
Non-trainable params: 0
Total mult-adds (G): 14.44
==========================================================================================
Input size (MB): 38.54
Forward/backward pass size (MB): 2543.33
Params size (MB): 0.37
Estimated Total Size (MB): 2582.24
…
