…
	Width: 230
	Height: 230

Brevitas Config:
	Fixed Point: True
	Weights Bit Width: 4
	Big Layers Weights Bit Width: 2
	Bias Bit Width: 4
	Activations Bit Width: 4

********* Datasets Length *********
Train Dataset Length: 117567
Test Dataset Length: 24371

Trainable parameters = 60090
Total parameters = 60090

==========================================================================================
Layer (type:depth-idx)                   Output Shape              Param #
==========================================================================================
BED_CLASSIFIER_FPGA                      [1, 2]                    --
├─Sequential: 1-1                        [1, 2]                    --
│    └─Conv2d: 2-1                       [1, 12, 228, 228]         324
│    └─BatchNorm2d: 2-2                  [1, 12, 228, 228]         24
│    └─ReLU: 2-3                         [1, 12, 228, 228]         --
│    └─MaxPool2d: 2-4                    [1, 12, 114, 114]         --
│    └─Sequential: 2-5                   [1, 16, 112, 112]         --
│    │    └─Conv2d: 3-1                  [1, 24, 112, 114]         864
│    │    └─Conv2d: 3-2                  [1, 16, 112, 112]         1,152
│    └─BatchNorm2d: 2-6                  [1, 16, 112, 112]         32
│    └─ReLU: 2-7                         [1, 16, 112, 112]         --
│    └─MaxPool2d: 2-8                    [1, 16, 56, 56]           --
│    └─Conv2d: 2-9                       [1, 16, 56, 56]           256
│    └─BatchNorm2d: 2-10                 [1, 16, 56, 56]           32
│    └─ReLU: 2-11                        [1, 16, 56, 56]           --
│    └─Sequential: 2-12                  [1, 32, 54, 54]           --
│    │    └─Conv2d: 3-3                  [1, 16, 54, 56]           768
│    │    └─Conv2d: 3-4                  [1, 32, 54, 54]           1,536
│    └─BatchNorm2d: 2-13                 [1, 32, 54, 54]           64
│    └─ReLU: 2-14                        [1, 32, 54, 54]           --
│    └─Conv2d: 2-15                      [1, 32, 54, 54]           1,024
│    └─BatchNorm2d: 2-16                 [1, 32, 54, 54]           64
│    └─ReLU: 2-17                        [1, 32, 54, 54]           --
│    └─Sequential: 2-18                  [1, 64, 52, 52]           --
│    │    └─Conv2d: 3-5                  [1, 42, 52, 54]           4,032
│    │    └─Conv2d: 3-6                  [1, 64, 52, 52]           8,064
│    └─BatchNorm2d: 2-19                 [1, 64, 52, 52]           128
│    └─ReLU: 2-20                        [1, 64, 52, 52]           --
│    └─MaxPool2d: 2-21                   [1, 64, 26, 26]           --
│    └─Conv2d: 2-22                      [1, 30, 26, 26]           1,920
│    └─BatchNorm2d: 2-23                 [1, 30, 26, 26]           60
│    └─ReLU: 2-24                        [1, 30, 26, 26]           --
│    └─Conv2d: 2-25                      [1, 60, 24, 24]           16,200
│    └─BatchNorm2d: 2-26                 [1, 60, 24, 24]           120
│    └─ReLU: 2-27                        [1, 60, 24, 24]           --
│    └─Conv2d: 2-28                      [1, 32, 24, 24]           1,920
│    └─BatchNorm2d: 2-29                 [1, 32, 24, 24]           64
│    └─ReLU: 2-30                        [1, 32, 24, 24]           --
│    └─Sequential: 2-31                  [1, 58, 22, 22]           --
│    │    └─Conv2d: 3-7                  [1, 42, 22, 24]           4,032
│    │    └─Conv2d: 3-8                  [1, 58, 22, 22]           7,308
│    └─BatchNorm2d: 2-32                 [1, 58, 22, 22]           116
│    └─ReLU: 2-33                        [1, 58, 22, 22]           --
│    └─Conv2d: 2-34                      [1, 32, 22, 22]           1,856
│    └─BatchNorm2d: 2-35                 [1, 32, 22, 22]           64
│    └─ReLU: 2-36                        [1, 32, 22, 22]           --
│    └─Sequential: 2-37                  [1, 64, 20, 20]           --
│    │    └─Conv2d: 3-9                  [1, 20, 20, 22]           1,920
│    │    └─Conv2d: 3-10                 [1, 64, 20, 20]           3,840
│    └─BatchNorm2d: 2-38                 [1, 64, 20, 20]           128
│    └─ReLU: 2-39                        [1, 64, 20, 20]           --
│    └─AdaptiveAvgPool2d: 2-40           [1, 64, 1, 1]             --
│    └─Flatten: 2-41                     [1, 64]                   --
│    └─Linear: 2-42                      [1, 32]                   2,048
│    └─BatchNorm1d: 2-43                 [1, 32]                   64
│    └─ReLU: 2-44                        [1, 32]                   --
│    └─Linear: 2-45                      [1, 2]                    66
==========================================================================================
Total params: 60,090
Trainable params: 60,090
Non-trainable params: 0
Total mult-adds (M): 106.73
==========================================================================================
Input size (MB): 0.63
Forward/backward pass size (MB): 26.06
Params size (MB): 0.24
Estimated Total Size (MB): 26.93
==========================================================================================
…
