…
	Height: 224

Brevitas Config:
	Fixed Point: True
	Weights Bit Width: 4
	Big Layers Weights Bit Width: 4
	Bias Bit Width: 4
	Activations Bit Width: 4

********* Datasets Length *********
Train Dataset Length: 117567
Test Dataset Length: 24371

Trainable parameters = 38970
Total parameters = 38970


Torch Summary
==========================================================================================
Layer (type:depth-idx)                   Output Shape              Param #
==========================================================================================
MobileNetV2_MINI_RESNET_SPARSE           [1, 2]                    --
├─Sequential: 1-1                        [1, 48, 14, 14]           --
│    └─Sequential: 2-1                   [1, 24, 112, 112]         --
│    │    └─Conv2d: 3-1                  [1, 24, 112, 112]         648
│    │    └─BatchNorm2d: 3-2             [1, 24, 112, 112]         48
│    │    └─ReLU: 3-3                    [1, 24, 112, 112]         --
│    └─InvertedBlock: 2-2                [1, 8, 112, 112]          --
│    │    └─Sequential: 3-4              [1, 8, 112, 112]          472
│    └─InvertedBlock: 2-3                [1, 16, 56, 56]           --
│    │    └─Sequential: 3-5              [1, 16, 56, 56]           624
│    └─InvertedBlock: 2-4                [1, 16, 56, 56]           --
│    │    └─Sequential: 3-6              [1, 16, 56, 56]           1,472
│    └─InvertedBlock: 2-5                [1, 24, 28, 28]           --
│    │    └─Sequential: 3-7              [1, 24, 28, 28]           1,744
│    └─InvertedBlock: 2-6                [1, 24, 28, 28]           --
│    │    └─Sequential: 3-8              [1, 24, 28, 28]           2,976
│    └─InvertedBlock: 2-7                [1, 32, 14, 14]           --
│    │    └─Sequential: 3-9              [1, 32, 14, 14]           5,032
│    └─InvertedBlock: 2-8                [1, 32, 14, 14]           --
│    │    └─Sequential: 3-10             [1, 32, 14, 14]           7,456
│    └─InvertedBlock: 2-9                [1, 32, 14, 14]           --
│    │    └─Sequential: 3-11             [1, 32, 14, 14]           7,456
│    └─InvertedBlock: 2-10               [1, 48, 14, 14]           --
│    │    └─Sequential: 3-12             [1, 48, 14, 14]           6,048
├─Sequential: 1-2                        [1, 96, 14, 14]           --
│    └─Conv2d: 2-11                      [1, 96, 14, 14]           4,608
│    └─BatchNorm2d: 2-12                 [1, 96, 14, 14]           192
│    └─ReLU: 2-13                        [1, 96, 14, 14]           --
├─AdaptiveAvgPool2d: 1-3                 [1, 96, 1, 1]             --
├─Linear: 1-4                            [1, 2]                    194
==========================================================================================
Total params: 38,970
Trainable params: 38,970
Non-trainable params: 0
Total mult-adds (M): 31.50
==========================================================================================
Input size (MB): 0.60
Forward/backward pass size (MB): 27.37
Params size (MB): 0.16
Estimated Total Size (MB): 28.13
==========================================================================================
…
