…
            (bit_width): StatelessBuffer()
          )
          (zero_point): StatelessBuffer()
        )
      )
    )
  )
)
Loading Model. Trained during 87 epochs
Quant Model Summary
========================================================================================================================
Layer (type:depth-idx)                                                 Output Shape              Param #
========================================================================================================================
QUANT_PerTensorFloat_NoBN_BED_CLASSIFIER                               [1, 2]                    --
Sequential: 1-1                                                      [1, 2]                    --
    QuantIdentity: 2-1                                              [1, 3, 224, 224]          --
        ActQuantProxyFromInjector: 3-1                             [1, 3, 224, 224]          --
        ActQuantProxyFromInjector: 3-2                             [1, 3, 224, 224]          1
    QuantReLU: 2-53                                                 --                        (recursive)
        ActQuantProxyFromInjector: 3-99                            --                        (recursive)
    QuantIdentity: 2-3                                              --                        (recursive)
        ActQuantProxyFromInjector: 3-4                             --                        (recursive)
    QuantConv2d: 2-4                                                [1, 32, 224, 224]         32
        ActQuantProxyFromInjector: 3-5                             [1, 3, 224, 224]          --
        WeightQuantProxyFromInjector: 3-6                          [32, 3, 3, 3]             864
        BiasQuantProxyFromInjector: 3-7                            [32]                      --
        ActQuantProxyFromInjector: 3-8                             [1, 32, 224, 224]         --
    QuantReLU: 2-5                                                  [1, 32, 224, 224]         --
        ActQuantProxyFromInjector: 3-9                             [1, 32, 224, 224]         --
        ActQuantProxyFromInjector: 3-10                            [1, 32, 224, 224]         1
    QuantReLU: 2-53                                                 --                        (recursive)
        ActQuantProxyFromInjector: 3-99                            --                        (recursive)
    QuantReLU: 2-7                                                  --                        (recursive)
        ActQuantProxyFromInjector: 3-12                            --                        (recursive)
    QuantMaxPool2d: 2-8                                             [1, 32, 112, 112]         --
    QuantConv2d: 2-9                                                [1, 16, 112, 112]         16
        ActQuantProxyFromInjector: 3-13                            [1, 32, 112, 112]         --
        WeightQuantProxyFromInjector: 3-14                         [16, 32, 3, 3]            4,608
        BiasQuantProxyFromInjector: 3-15                           [16]                      --
        ActQuantProxyFromInjector: 3-16                            [1, 16, 112, 112]         --
    QuantReLU: 2-10                                                 [1, 16, 112, 112]         --
        ActQuantProxyFromInjector: 3-17                            [1, 16, 112, 112]         --
        ActQuantProxyFromInjector: 3-18                            [1, 16, 112, 112]         1
    QuantReLU: 2-53                                                 --                        (recursive)
        ActQuantProxyFromInjector: 3-99                            --                        (recursive)
    QuantReLU: 2-12                                                 --                        (recursive)
        ActQuantProxyFromInjector: 3-20                            --                        (recursive)
    QuantMaxPool2d: 2-13                                            [1, 16, 56, 56]           --
    QuantConv2d: 2-14                                               [1, 16, 56, 56]           16
        ActQuantProxyFromInjector: 3-21                            [1, 16, 56, 56]           --
        WeightQuantProxyFromInjector: 3-22                         [16, 16, 1, 1]            256
        BiasQuantProxyFromInjector: 3-23                           [16]                      --
        ActQuantProxyFromInjector: 3-24                            [1, 16, 56, 56]           --
    QuantReLU: 2-15                                                 [1, 16, 56, 56]           --
        ActQuantProxyFromInjector: 3-25                            [1, 16, 56, 56]           --
        ActQuantProxyFromInjector: 3-26                            [1, 16, 56, 56]           1
    QuantReLU: 2-53                                                 --                        (recursive)
        ActQuantProxyFromInjector: 3-99                            --                        (recursive)
    QuantReLU: 2-17                                                 --                        (recursive)
        ActQuantProxyFromInjector: 3-28                            --                        (recursive)
    QuantConv2d: 2-18                                               [1, 32, 56, 56]           32
        ActQuantProxyFromInjector: 3-29                            [1, 16, 56, 56]           --
        WeightQuantProxyFromInjector: 3-30                         [32, 16, 3, 3]            4,608
        BiasQuantProxyFromInjector: 3-31                           [32]                      --
        ActQuantProxyFromInjector: 3-32                            [1, 32, 56, 56]           --
    QuantReLU: 2-19                                                 [1, 32, 56, 56]           --
        ActQuantProxyFromInjector: 3-33                            [1, 32, 56, 56]           --
        ActQuantProxyFromInjector: 3-34                            [1, 32, 56, 56]           1
    QuantReLU: 2-53                                                 --                        (recursive)
        ActQuantProxyFromInjector: 3-99                            --                        (recursive)
    QuantReLU: 2-21                                                 --                        (recursive)
        ActQuantProxyFromInjector: 3-36                            --                        (recursive)
    QuantConv2d: 2-22                                               [1, 32, 56, 56]           32
        ActQuantProxyFromInjector: 3-37                            [1, 32, 56, 56]           --
        WeightQuantProxyFromInjector: 3-38                         [32, 32, 1, 1]            1,024
        BiasQuantProxyFromInjector: 3-39                           [32]                      --
        ActQuantProxyFromInjector: 3-40                            [1, 32, 56, 56]           --
    QuantReLU: 2-23                                                 [1, 32, 56, 56]           --
        ActQuantProxyFromInjector: 3-41                            [1, 32, 56, 56]           --
        ActQuantProxyFromInjector: 3-42                            [1, 32, 56, 56]           1
    QuantReLU: 2-53                                                 --                        (recursive)
        ActQuantProxyFromInjector: 3-99                            --                        (recursive)
    QuantReLU: 2-25                                                 --                        (recursive)
        ActQuantProxyFromInjector: 3-44                            --                        (recursive)
    QuantConv2d: 2-26                                               [1, 64, 56, 56]           64
        ActQuantProxyFromInjector: 3-45                            [1, 32, 56, 56]           --
        WeightQuantProxyFromInjector: 3-46                         [64, 32, 3, 3]            18,432
        BiasQuantProxyFromInjector: 3-47                           [64]                      --
        ActQuantProxyFromInjector: 3-48                            [1, 64, 56, 56]           --
    QuantReLU: 2-27                                                 [1, 64, 56, 56]           --
        ActQuantProxyFromInjector: 3-49                            [1, 64, 56, 56]           --
        ActQuantProxyFromInjector: 3-50                            [1, 64, 56, 56]           1
    QuantReLU: 2-53                                                 --                        (recursive)
        ActQuantProxyFromInjector: 3-99                            --                        (recursive)
    QuantReLU: 2-29                                                 --                        (recursive)
        ActQuantProxyFromInjector: 3-52                            --                        (recursive)
    QuantMaxPool2d: 2-30                                            [1, 64, 28, 28]           --
    QuantConv2d: 2-31                                               [1, 32, 28, 28]           32
        ActQuantProxyFromInjector: 3-53                            [1, 64, 28, 28]           --
        WeightQuantProxyFromInjector: 3-54                         [32, 64, 1, 1]            2,048
        BiasQuantProxyFromInjector: 3-55                           [32]                      --
        ActQuantProxyFromInjector: 3-56                            [1, 32, 28, 28]           --
    QuantReLU: 2-32                                                 [1, 32, 28, 28]           --
        ActQuantProxyFromInjector: 3-57                            [1, 32, 28, 28]           --
        ActQuantProxyFromInjector: 3-58                            [1, 32, 28, 28]           1
    QuantReLU: 2-53                                                 --                        (recursive)
        ActQuantProxyFromInjector: 3-99                            --                        (recursive)
    QuantReLU: 2-34                                                 --                        (recursive)
        ActQuantProxyFromInjector: 3-60                            --                        (recursive)
    QuantConv2d: 2-35                                               [1, 64, 28, 28]           64
        ActQuantProxyFromInjector: 3-61                            [1, 32, 28, 28]           --
        WeightQuantProxyFromInjector: 3-62                         [64, 32, 3, 3]            18,432
        BiasQuantProxyFromInjector: 3-63                           [64]                      --
        ActQuantProxyFromInjector: 3-64                            [1, 64, 28, 28]           --
    QuantReLU: 2-36                                                 [1, 64, 28, 28]           --
        ActQuantProxyFromInjector: 3-65                            [1, 64, 28, 28]           --
        ActQuantProxyFromInjector: 3-66                            [1, 64, 28, 28]           1
    QuantReLU: 2-53                                                 --                        (recursive)
        ActQuantProxyFromInjector: 3-99                            --                        (recursive)
    QuantReLU: 2-38                                                 --                        (recursive)
        ActQuantProxyFromInjector: 3-68                            --                        (recursive)
    QuantConv2d: 2-39                                               [1, 32, 28, 28]           32
        ActQuantProxyFromInjector: 3-69                            [1, 64, 28, 28]           --
        WeightQuantProxyFromInjector: 3-70                         [32, 64, 1, 1]            2,048
        BiasQuantProxyFromInjector: 3-71                           [32]                      --
        ActQuantProxyFromInjector: 3-72                            [1, 32, 28, 28]           --
    QuantReLU: 2-40                                                 [1, 32, 28, 28]           --
        ActQuantProxyFromInjector: 3-73                            [1, 32, 28, 28]           --
        ActQuantProxyFromInjector: 3-74                            [1, 32, 28, 28]           1
    QuantReLU: 2-53                                                 --                        (recursive)
        ActQuantProxyFromInjector: 3-99                            --                        (recursive)
    QuantReLU: 2-42                                                 --                        (recursive)
        ActQuantProxyFromInjector: 3-76                            --                        (recursive)
    QuantConv2d: 2-43                                               [1, 64, 28, 28]           64
        ActQuantProxyFromInjector: 3-77                            [1, 32, 28, 28]           --
        WeightQuantProxyFromInjector: 3-78                         [64, 32, 3, 3]            18,432
        BiasQuantProxyFromInjector: 3-79                           [64]                      --
        ActQuantProxyFromInjector: 3-80                            [1, 64, 28, 28]           --
    QuantReLU: 2-44                                                 [1, 64, 28, 28]           --
        ActQuantProxyFromInjector: 3-81                            [1, 64, 28, 28]           --
        ActQuantProxyFromInjector: 3-82                            [1, 64, 28, 28]           1
    QuantReLU: 2-53                                                 --                        (recursive)
        ActQuantProxyFromInjector: 3-99                            --                        (recursive)
    QuantReLU: 2-46                                                 --                        (recursive)
        ActQuantProxyFromInjector: 3-84                            --                        (recursive)
    QuantConv2d: 2-47                                               [1, 32, 28, 28]           32
        ActQuantProxyFromInjector: 3-85                            [1, 64, 28, 28]           --
        WeightQuantProxyFromInjector: 3-86                         [32, 64, 1, 1]            2,048
        BiasQuantProxyFromInjector: 3-87                           [32]                      --
        ActQuantProxyFromInjector: 3-88                            [1, 32, 28, 28]           --
    QuantReLU: 2-48                                                 [1, 32, 28, 28]           --
        ActQuantProxyFromInjector: 3-89                            [1, 32, 28, 28]           --
        ActQuantProxyFromInjector: 3-90                            [1, 32, 28, 28]           1
    QuantReLU: 2-53                                                 --                        (recursive)
        ActQuantProxyFromInjector: 3-99                            --                        (recursive)
    QuantReLU: 2-50                                                 --                        (recursive)
        ActQuantProxyFromInjector: 3-92                            --                        (recursive)
    QuantConv2d: 2-51                                               [1, 64, 28, 28]           64
        ActQuantProxyFromInjector: 3-93                            [1, 32, 28, 28]           --
        WeightQuantProxyFromInjector: 3-94                         [64, 32, 3, 3]            18,432
        BiasQuantProxyFromInjector: 3-95                           [64]                      --
        ActQuantProxyFromInjector: 3-96                            [1, 64, 28, 28]           --
    QuantReLU: 2-52                                                 [1, 64, 28, 28]           --
        ActQuantProxyFromInjector: 3-97                            [1, 64, 28, 28]           --
        ActQuantProxyFromInjector: 3-98                            [1, 64, 28, 28]           1
    QuantReLU: 2-53                                                 --                        (recursive)
        ActQuantProxyFromInjector: 3-99                            --                        (recursive)
    QuantReLU: 2-54                                                 --                        (recursive)
        ActQuantProxyFromInjector: 3-100                           --                        (recursive)
    TruncAvgPool2d: 2-55                                            [1, 64, 1, 1]             --
        TruncQuantProxyFromInjector: 3-101                         [1, 64, 1, 1]             --
    Flatten: 2-56                                                   [1, 64]                   --
    QuantLinear: 2-57                                               [1, 16]                   16
        ActQuantProxyFromInjector: 3-102                           [1, 64]                   --
        WeightQuantProxyFromInjector: 3-103                        [16, 64]                  1,024
        BiasQuantProxyFromInjector: 3-104                          [16]                      --
        ActQuantProxyFromInjector: 3-105                           [1, 16]                   --
    QuantReLU: 2-58                                                 [1, 16]                   --
        ActQuantProxyFromInjector: 3-106                           [1, 16]                   --
        ActQuantProxyFromInjector: 3-107                           [1, 16]                   1
    QuantLinear: 2-59                                               [1, 2]                    2
        ActQuantProxyFromInjector: 3-108                           [1, 16]                   --
        WeightQuantProxyFromInjector: 3-109                        [2, 16]                   32
        BiasQuantProxyFromInjector: 3-110                          [2]                       --
        ActQuantProxyFromInjector: 3-111                           [1, 2]                    --
========================================================================================================================
Total params: 92,800
Trainable params: 92,800
Non-trainable params: 0
Total mult-adds (M): 0
========================================================================================================================
Input size (MB): 0.60
Forward/backward pass size (MB): 0.00
Params size (MB): 0.00
Estimated Total Size (MB): 0.60
========================================================================================================================
Original FP32 Model Summary
==========================================================================================
Layer (type:depth-idx)                   Output Shape              Param #
==========================================================================================
FUSED_BED_CLASSIFIER                     [1, 2]                    --
Sequential: 1-1                        [1, 2]                    --
    Conv2d: 2-1                       [1, 32, 224, 224]         896
    ReLU: 2-2                         [1, 32, 224, 224]         --
    Dropout2d: 2-3                    [1, 32, 224, 224]         --
    MaxPool2d: 2-4                    [1, 32, 112, 112]         --
    Conv2d: 2-5                       [1, 16, 112, 112]         4,624
    ReLU: 2-6                         [1, 16, 112, 112]         --
    Dropout2d: 2-7                    [1, 16, 112, 112]         --
    MaxPool2d: 2-8                    [1, 16, 56, 56]           --
    Conv2d: 2-9                       [1, 16, 56, 56]           272
    ReLU: 2-10                        [1, 16, 56, 56]           --
    Conv2d: 2-11                      [1, 32, 56, 56]           4,640
    ReLU: 2-12                        [1, 32, 56, 56]           --
    Conv2d: 2-13                      [1, 32, 56, 56]           1,056
    ReLU: 2-14                        [1, 32, 56, 56]           --
    Conv2d: 2-15                      [1, 64, 56, 56]           18,496
    ReLU: 2-16                        [1, 64, 56, 56]           --
    MaxPool2d: 2-17                   [1, 64, 28, 28]           --
    Conv2d: 2-18                      [1, 32, 28, 28]           2,080
    ReLU: 2-19                        [1, 32, 28, 28]           --
    Conv2d: 2-20                      [1, 64, 28, 28]           18,496
    ReLU: 2-21                        [1, 64, 28, 28]           --
    Conv2d: 2-22                      [1, 32, 28, 28]           2,080
    ReLU: 2-23                        [1, 32, 28, 28]           --
    Conv2d: 2-24                      [1, 64, 28, 28]           18,496
    ReLU: 2-25                        [1, 64, 28, 28]           --
    Conv2d: 2-26                      [1, 32, 28, 28]           2,080
    ReLU: 2-27                        [1, 32, 28, 28]           --
    Conv2d: 2-28                      [1, 64, 28, 28]           18,496
    ReLU: 2-29                        [1, 64, 28, 28]           --
    AdaptiveAvgPool2d: 2-30           [1, 64, 1, 1]             --
    Flatten: 2-31                     [1, 64]                   --
    Dropout: 2-32                     [1, 64]                   --
    Linear: 2-33                      [1, 16]                   1,040
    ReLU: 2-34                        [1, 16]                   --
    Linear: 2-35                      [1, 2]                    34
==========================================================================================
Total params: 92,786
Trainable params: 92,786
Non-trainable params: 0
Total mult-adds (M): 228.08
==========================================================================================
Input size (MB): 0.60
Forward/backward pass size (MB): 19.87
Params size (MB): 0.37
Estimated Total Size (MB): 20.84
==========================================================================================
…
