ShuffleNet Classifier. Onnx export.

TEST DFire dataset
DFire Removed wrong images: 0
DFire empty images: 2005
DFire only smoke images: 1186
DFire only fire images: 220
DFire smoke and fire images: 895
Test dataset len: 4306
Using SHUFFLE Classifier
Model Pretrained has 1024 in features in last layer
Model shape is tensor([[-0.1862,  0.1325],
        [-0.1771,  0.1324],
        [-0.1880,  0.1309],
        [-0.1814,  0.1389]], device='cuda:0', grad_fn=<CatBackward0>)
BED Model Arquitecture
PRETRAINED_SHUFFLE(
  (base_model): Sequential(
    (0): Sequential(
      (0): Conv2d(3, 24, kernel_size=(3, 3), stride=(2, 2), padding=(1, 1), bias=False)
      (1): BatchNorm2d(24, eps=1e-05, momentum=0.1, affine=True, track_running_stats=True)
      (2): ReLU(inplace=True)
    )
    (1): MaxPool2d(kernel_size=3, stride=2, padding=1, dilation=1, ceil_mode=False)
    (2): Sequential(
      (0): InvertedResidual(
        (branch1): Sequential(
          (0): Conv2d(24, 24, kernel_size=(3, 3), stride=(2, 2), padding=(1, 1), groups=24, bias=False)
          (1): BatchNorm2d(24, eps=1e-05, momentum=0.1, affine=True, track_running_stats=True)
          (2): Conv2d(24, 24, kernel_size=(1, 1), stride=(1, 1), bias=False)
          (3): BatchNorm2d(24, eps=1e-05, momentum=0.1, affine=True, track_running_stats=True)
          (4): ReLU(inplace=True)
        )
        (branch2): Sequential(
          (0): Conv2d(24, 24, kernel_size=(1, 1), stride=(1, 1), bias=False)
          (1): BatchNorm2d(24, eps=1e-05, momentum=0.1, affine=True, track_running_stats=True)
          (2): ReLU(inplace=True)
          (3): Conv2d(24, 24, kernel_size=(3, 3), stride=(2, 2), padding=(1, 1), groups=24, bias=False)
          (4): BatchNorm2d(24, eps=1e-05, momentum=0.1, affine=True, track_running_stats=True)
          (5): Conv2d(24, 24, kernel_size=(1, 1), stride=(1, 1), bias=False)
          (6): BatchNorm2d(24, eps=1e-05, momentum=0.1, affine=True, track_running_stats=True)
          (7): ReLU(inplace=True)
        )
      )
      (1): InvertedResidual(
        (branch1): Sequential()
        (branch2): Sequential(
          (0): Conv2d(24, 24, kernel_size=(1, 1), stride=(1, 1), bias=False)
          (1): BatchNorm2d(24, eps=1e-05, momentum=0.1, affine=True, track_running_stats=True)
          (2): ReLU(inplace=True)
          (3): Conv2d(24, 24, kernel_size=(3, 3), stride=(1, 1), padding=(1, 1), groups=24, bias=False)
          (4): BatchNorm2d(24, eps=1e-05, momentum=0.1, affine=True, track_running_stats=True)
          (5): Conv2d(24, 24, kernel_size=(1, 1), stride=(1, 1), bias=False)
          (6): BatchNorm2d(24, eps=1e-05, momentum=0.1, affine=True, track_running_stats=True)
          (7): ReLU(inplace=True)
        )
      )
      (2): InvertedResidual(
        (branch1): Sequential()
        (branch2): Sequential(
          (0): Conv2d(24, 24, kernel_size=(1, 1), stride=(1, 1), bias=False)
          (1): BatchNorm2d(24, eps=1e-05, momentum=0.1, affine=True, track_running_stats=True)
          (2): ReLU(inplace=True)
          (3): Conv2d(24, 24, kernel_size=(3, 3), stride=(1, 1), padding=(1, 1), groups=24, bias=False)
          (4): BatchNorm2d(24, eps=1e-05, momentum=0.1, affine=True, track_running_stats=True)
          (5): Conv2d(24, 24, kernel_size=(1, 1), stride=(1, 1), bias=False)
          (6): BatchNorm2d(24, eps=1e-05, momentum=0.1, affine=True, track_running_stats=True)
          (7): ReLU(inplace=True)
        )
      )
      (3): InvertedResidual(
        (branch1): Sequential()
        (branch2): Sequential(
          (0): Conv2d(24, 24, kernel_size=(1, 1), stride=(1, 1), bias=False)
          (1): BatchNorm2d(24, eps=1e-05, momentum=0.1, affine=True, track_running_stats=True)
          (2): ReLU(inplace=True)
          (3): Conv2d(24, 24, kernel_size=(3, 3), stride=(1, 1), padding=(1, 1), groups=24, bias=False)
          (4): BatchNorm2d(24, eps=1e-05, momentum=0.1, affine=True, track_running_stats=True)
          (5): Conv2d(24, 24, kernel_size=(1, 1), stride=(1, 1), bias=False)
          (6): BatchNorm2d(24, eps=1e-05, momentum=0.1, affine=True, track_running_stats=True)
          (7): ReLU(inplace=True)
        )
      )
    )
    (3): Sequential(
      (0): InvertedResidual(
        (branch1): Sequential(
          (0): Conv2d(48, 48, kernel_size=(3, 3), stride=(2, 2), padding=(1, 1), groups=48, bias=False)
          (1): BatchNorm2d(48, eps=1e-05, momentum=0.1, affine=True, track_running_stats=True)
          (2): Conv2d(48, 48, kernel_size=(1, 1), stride=(1, 1), bias=False)
          (3): BatchNorm2d(48, eps=1e-05, momentum=0.1, affine=True, track_running_stats=True)
          (4): ReLU(inplace=True)
        )
        (branch2): Sequential(
          (0): Conv2d(48, 48, kernel_size=(1, 1), stride=(1, 1), bias=False)
          (1): BatchNorm2d(48, eps=1e-05, momentum=0.1, affine=True, track_running_stats=True)
          (2): ReLU(inplace=True)
          (3): Conv2d(48, 48, kernel_size=(3, 3), stride=(2, 2), padding=(1, 1), groups=48, bias=False)
          (4): BatchNorm2d(48, eps=1e-05, momentum=0.1, affine=True, track_running_stats=True)
          (5): Conv2d(48, 48, kernel_size=(1, 1), stride=(1, 1), bias=False)
          (6): BatchNorm2d(48, eps=1e-05, momentum=0.1, affine=True, track_running_stats=True)
          (7): ReLU(inplace=True)
        )
      )
      (1): InvertedResidual(
        (branch1): Sequential()
        (branch2): Sequential(
          (0): Conv2d(48, 48, kernel_size=(1, 1), stride=(1, 1), bias=False)
          (1): BatchNorm2d(48, eps=1e-05, momentum=0.1, affine=True, track_running_stats=True)
          (2): ReLU(inplace=True)
          (3): Conv2d(48, 48, kernel_size=(3, 3), stride=(1, 1), padding=(1, 1), groups=48, bias=False)
          (4): BatchNorm2d(48, eps=1e-05, momentum=0.1, affine=True, track_running_stats=True)
          (5): Conv2d(48, 48, kernel_size=(1, 1), stride=(1, 1), bias=False)
          (6): BatchNorm2d(48, eps=1e-05, momentum=0.1, affine=True, track_running_stats=True)
          (7): ReLU(inplace=True)
        )
      )
      (2): InvertedResidual(
        (branch1): Sequential()
        (branch2): Sequential(
          (0): Conv2d(48, 48, kernel_size=(1, 1), stride=(1, 1), bias=False)
          (1): BatchNorm2d(48, eps=1e-05, momentum=0.1, affine=True, track_running_stats=True)
          (2): ReLU(inplace=True)
          (3): Conv2d(48, 48, kernel_size=(3, 3), stride=(1, 1), padding=(1, 1), groups=48, bias=False)
          (4): BatchNorm2d(48, eps=1e-05, momentum=0.1, affine=True, track_running_stats=True)
          (5): Conv2d(48, 48, kernel_size=(1, 1), stride=(1, 1), bias=False)
          (6): BatchNorm2d(48, eps=1e-05, momentum=0.1, affine=True, track_running_stats=True)
          (7): ReLU(inplace=True)
        )
      )
      (3): InvertedResidual(
        (branch1): Sequential()
        (branch2): Sequential(
          (0): Conv2d(48, 48, kernel_size=(1, 1), stride=(1, 1), bias=False)
          (1): BatchNorm2d(48, eps=1e-05, momentum=0.1, affine=True, track_running_stats=True)
          (2): ReLU(inplace=True)
          (3): Conv2d(48, 48, kernel_size=(3, 3), stride=(1, 1), padding=(1, 1), groups=48, bias=False)
          (4): BatchNorm2d(48, eps=1e-05, momentum=0.1, affine=True, track_running_stats=True)
          (5): Conv2d(48, 48, kernel_size=(1, 1), stride=(1, 1), bias=False)
          (6): BatchNorm2d(48, eps=1e-05, momentum=0.1, affine=True, track_running_stats=True)
          (7): ReLU(inplace=True)
        )
      )
      (4): InvertedResidual(
        (branch1): Sequential()
        (branch2): Sequential(
          (0): Conv2d(48, 48, kernel_size=(1, 1), stride=(1, 1), bias=False)
          (1): BatchNorm2d(48, eps=1e-05, momentum=0.1, affine=True, track_running_stats=True)
          (2): ReLU(inplace=True)
          (3): Conv2d(48, 48, kernel_size=(3, 3), stride=(1, 1), padding=(1, 1), groups=48, bias=False)
          (4): BatchNorm2d(48, eps=1e-05, momentum=0.1, affine=True, track_running_stats=True)
          (5): Conv2d(48, 48, kernel_size=(1, 1), stride=(1, 1), bias=False)
          (6): BatchNorm2d(48, eps=1e-05, momentum=0.1, affine=True, track_running_stats=True)
          (7): ReLU(inplace=True)
        )
      )
      (5): InvertedResidual(
        (branch1): Sequential()
        (branch2): Sequential(
          (0): Conv2d(48, 48, kernel_size=(1, 1), stride=(1, 1), bias=False)
          (1): BatchNorm2d(48, eps=1e-05, momentum=0.1, affine=True, track_running_stats=True)
          (2): ReLU(inplace=True)
          (3): Conv2d(48, 48, kernel_size=(3, 3), stride=(1, 1), padding=(1, 1), groups=48, bias=False)
          (4): BatchNorm2d(48, eps=1e-05, momentum=0.1, affine=True, track_running_stats=True)
          (5): Conv2d(48, 48, kernel_size=(1, 1), stride=(1, 1), bias=False)
          (6): BatchNorm2d(48, eps=1e-05, momentum=0.1, affine=True, track_running_stats=True)
          (7): ReLU(inplace=True)
        )
      )
      (6): InvertedResidual(
        (branch1): Sequential()
        (branch2): Sequential(
          (0): Conv2d(48, 48, kernel_size=(1, 1), stride=(1, 1), bias=False)
          (1): BatchNorm2d(48, eps=1e-05, momentum=0.1, affine=True, track_running_stats=True)
          (2): ReLU(inplace=True)
          (3): Conv2d(48, 48, kernel_size=(3, 3), stride=(1, 1), padding=(1, 1), groups=48, bias=False)
          (4): BatchNorm2d(48, eps=1e-05, momentum=0.1, affine=True, track_running_stats=True)
          (5): Conv2d(48, 48, kernel_size=(1, 1), stride=(1, 1), bias=False)
          (6): BatchNorm2d(48, eps=1e-05, momentum=0.1, affine=True, track_running_stats=True)
          (7): ReLU(inplace=True)
        )
      )
      (7): InvertedResidual(
        (branch1): Sequential()
        (branch2): Sequential(
          (0): Conv2d(48, 48, kernel_size=(1, 1), stride=(1, 1), bias=False)
          (1): BatchNorm2d(48, eps=1e-05, momentum=0.1, affine=True, track_running_stats=True)
          (2): ReLU(inplace=True)
          (3): Conv2d(48, 48, kernel_size=(3, 3), stride=(1, 1), padding=(1, 1), groups=48, bias=False)
          (4): BatchNorm2d(48, eps=1e-05, momentum=0.1, affine=True, track_running_stats=True)
          (5): Conv2d(48, 48, kernel_size=(1, 1), stride=(1, 1), bias=False)
          (6): BatchNorm2d(48, eps=1e-05, momentum=0.1, affine=True, track_running_stats=True)
          (7): ReLU(inplace=True)
        )
      )
    )
    (4): Sequential(
      (0): InvertedResidual(
        (branch1): Sequential(
          (0): Conv2d(96, 96, kernel_size=(3, 3), stride=(2, 2), padding=(1, 1), groups=96, bias=False)
          (1): BatchNorm2d(96, eps=1e-05, momentum=0.1, affine=True, track_running_stats=True)
          (2): Conv2d(96, 96, kernel_size=(1, 1), stride=(1, 1), bias=False)
          (3): BatchNorm2d(96, eps=1e-05, momentum=0.1, affine=True, track_running_stats=True)
          (4): ReLU(inplace=True)
        )
        (branch2): Sequential(
          (0): Conv2d(96, 96, kernel_size=(1, 1), stride=(1, 1), bias=False)
          (1): BatchNorm2d(96, eps=1e-05, momentum=0.1, affine=True, track_running_stats=True)
          (2): ReLU(inplace=True)
          (3): Conv2d(96, 96, kernel_size=(3, 3), stride=(2, 2), padding=(1, 1), groups=96, bias=False)
          (4): BatchNorm2d(96, eps=1e-05, momentum=0.1, affine=True, track_running_stats=True)
          (5): Conv2d(96, 96, kernel_size=(1, 1), stride=(1, 1), bias=False)
          (6): BatchNorm2d(96, eps=1e-05, momentum=0.1, affine=True, track_running_stats=True)
          (7): ReLU(inplace=True)
        )
      )
      (1): InvertedResidual(
        (branch1): Sequential()
        (branch2): Sequential(
          (0): Conv2d(96, 96, kernel_size=(1, 1), stride=(1, 1), bias=False)
          (1): BatchNorm2d(96, eps=1e-05, momentum=0.1, affine=True, track_running_stats=True)
          (2): ReLU(inplace=True)
          (3): Conv2d(96, 96, kernel_size=(3, 3), stride=(1, 1), padding=(1, 1), groups=96, bias=False)
          (4): BatchNorm2d(96, eps=1e-05, momentum=0.1, affine=True, track_running_stats=True)
          (5): Conv2d(96, 96, kernel_size=(1, 1), stride=(1, 1), bias=False)
          (6): BatchNorm2d(96, eps=1e-05, momentum=0.1, affine=True, track_running_stats=True)
          (7): ReLU(inplace=True)
        )
      )
      (2): InvertedResidual(
        (branch1): Sequential()
        (branch2): Sequential(
          (0): Conv2d(96, 96, kernel_size=(1, 1), stride=(1, 1), bias=False)
          (1): BatchNorm2d(96, eps=1e-05, momentum=0.1, affine=True, track_running_stats=True)
          (2): ReLU(inplace=True)
          (3): Conv2d(96, 96, kernel_size=(3, 3), stride=(1, 1), padding=(1, 1), groups=96, bias=False)
          (4): BatchNorm2d(96, eps=1e-05, momentum=0.1, affine=True, track_running_stats=True)
          (5): Conv2d(96, 96, kernel_size=(1, 1), stride=(1, 1), bias=False)
          (6): BatchNorm2d(96, eps=1e-05, momentum=0.1, affine=True, track_running_stats=True)
          (7): ReLU(inplace=True)
        )
      )
      (3): InvertedResidual(
        (branch1): Sequential()
        (branch2): Sequential(
          (0): Conv2d(96, 96, kernel_size=(1, 1), stride=(1, 1), bias=False)
          (1): BatchNorm2d(96, eps=1e-05, momentum=0.1, affine=True, track_running_stats=True)
          (2): ReLU(inplace=True)
          (3): Conv2d(96, 96, kernel_size=(3, 3), stride=(1, 1), padding=(1, 1), groups=96, bias=False)
          (4): BatchNorm2d(96, eps=1e-05, momentum=0.1, affine=True, track_running_stats=True)
          (5): Conv2d(96, 96, kernel_size=(1, 1), stride=(1, 1), bias=False)
          (6): BatchNorm2d(96, eps=1e-05, momentum=0.1, affine=True, track_running_stats=True)
          (7): ReLU(inplace=True)
        )
      )
    )
    (5): Sequential(
      (0): Conv2d(192, 1024, kernel_size=(1, 1), stride=(1, 1), bias=False)
      (1): BatchNorm2d(1024, eps=1e-05, momentum=0.1, affine=True, track_running_stats=True)
      (2): ReLU(inplace=True)
    )
  )
  (pool): AdaptiveAvgPool2d(output_size=(1, 1))
  (smoke): Sequential(
    (0): Dropout(p=0.2, inplace=False)
    (1): Linear(in_features=1024, out_features=16, bias=True)
    (2): ReLU()
    (3): Linear(in_features=16, out_features=1, bias=True)
  )
  (fire): Sequential(
    (0): Dropout(p=0.2, inplace=False)
    (1): Linear(in_features=1024, out_features=16, bias=True)
    (2): ReLU()
    (3): Linear(in_features=16, out_features=1, bias=True)
  )
)

Trainable parameters = 374626
Total parameters = 374626

VAL Metrics of Pytorch Model
SMOKE -> Precision: 0.9455 - Recall: 0.9413 - Accuracy: 0.9457 - F1: 0.9434
FIRE -> Precision: 0.9594 - Recall: 0.9360 - Accuracy: 0.9732 - F1: 0.9476

ONNX Metrics
SMOKE -> Precision: 0.9450 - Recall: 0.9418 - Accuracy: 0.9457 - F1: 0.9434
FIRE -> Precision: 0.9585 - Recall: 0.9360 - Accuracy: 0.9729 - F1: 0.9471
…
