…
	Fixed Point: True
	Weights Bit Width: 4
	Big Layers Weights Bit Width: 4
	Bias Bit Width: 4
	Activations Bit Width: 4

********* Datasets Length *********
Train Dataset Length: 640
Test Dataset Length: 384

Trainable parameters = 76858
Total parameters = 76858


Torch Summary
====================================================================================================
Layer (type:depth-idx)                             Output Shape              Param #
====================================================================================================
MobileNetV3_Small                                  [1, 2]                    --
├─Conv2d: 1-1                                      [1, 16, 112, 112]         432
├─BatchNorm2d: 1-2                                 [1, 16, 112, 112]         32
├─Hardswish: 1-3                                   [1, 16, 112, 112]         --
├─Sequential: 1-4                                  [1, 48, 14, 14]           --
│    └─Block: 2-1                                  [1, 16, 56, 56]           --
│    │    └─Conv2d: 3-1                            [1, 16, 112, 112]         256
│    │    └─BatchNorm2d: 3-2                       [1, 16, 112, 112]         32
│    │    └─ReLU: 3-3                              [1, 16, 112, 112]         --
│    │    └─Conv2d: 3-4                            [1, 16, 56, 56]           144
│    │    └─BatchNorm2d: 3-5                       [1, 16, 56, 56]           32
│    │    └─ReLU: 3-6                              [1, 16, 56, 56]           --
│    │    └─SeModule: 3-7                          [1, 16, 56, 56]           272
│    │    └─Conv2d: 3-8                            [1, 16, 56, 56]           256
│    │    └─BatchNorm2d: 3-9                       [1, 16, 56, 56]           32
│    │    └─Sequential: 3-10                       [1, 16, 56, 56]           176
│    │    └─ReLU: 3-11                             [1, 16, 56, 56]           --
│    └─Block: 2-2                                  [1, 24, 28, 28]           --
│    │    └─Conv2d: 3-12                           [1, 32, 56, 56]           512
│    │    └─BatchNorm2d: 3-13                      [1, 32, 56, 56]           64
│    │    └─ReLU: 3-14                             [1, 32, 56, 56]           --
│    │    └─Conv2d: 3-15                           [1, 32, 28, 28]           288
│    │    └─BatchNorm2d: 3-16                      [1, 32, 28, 28]           64
│    │    └─ReLU: 3-17                             [1, 32, 28, 28]           --
│    │    └─Identity: 3-18                         [1, 32, 28, 28]           --
│    │    └─Conv2d: 3-19                           [1, 24, 28, 28]           768
│    │    └─BatchNorm2d: 3-20                      [1, 24, 28, 28]           48
│    │    └─Sequential: 3-21                       [1, 24, 28, 28]           632
│    │    └─ReLU: 3-22                             [1, 24, 28, 28]           --
│    └─Block: 2-3                                  [1, 24, 28, 28]           --
│    │    └─Conv2d: 3-23                           [1, 48, 28, 28]           1,152
│    │    └─BatchNorm2d: 3-24                      [1, 48, 28, 28]           96
│    │    └─ReLU: 3-25                             [1, 48, 28, 28]           --
│    │    └─Conv2d: 3-26                           [1, 48, 28, 28]           432
│    │    └─BatchNorm2d: 3-27                      [1, 48, 28, 28]           96
│    │    └─ReLU: 3-28                             [1, 48, 28, 28]           --
│    │    └─Identity: 3-29                         [1, 48, 28, 28]           --
│    │    └─Conv2d: 3-30                           [1, 24, 28, 28]           1,152
│    │    └─BatchNorm2d: 3-31                      [1, 24, 28, 28]           48
│    │    └─ReLU: 3-32                             [1, 24, 28, 28]           --
│    └─Block: 2-4                                  [1, 32, 14, 14]           --
│    │    └─Conv2d: 3-33                           [1, 64, 28, 28]           1,536
│    │    └─BatchNorm2d: 3-34                      [1, 64, 28, 28]           128
│    │    └─Hardswish: 3-35                        [1, 64, 28, 28]           --
│    │    └─Conv2d: 3-36                           [1, 64, 14, 14]           1,600
│    │    └─BatchNorm2d: 3-37                      [1, 64, 14, 14]           128
│    │    └─Hardswish: 3-38                        [1, 64, 14, 14]           --
│    │    └─SeModule: 3-39                         [1, 64, 14, 14]           1,040
│    │    └─Conv2d: 3-40                           [1, 32, 14, 14]           2,048
│    │    └─BatchNorm2d: 3-41                      [1, 32, 14, 14]           64
│    │    └─Sequential: 3-42                       [1, 32, 14, 14]           1,128
│    │    └─Hardswish: 3-43                        [1, 32, 14, 14]           --
│    └─Block: 2-5                                  [1, 32, 14, 14]           --
│    │    └─Conv2d: 3-44                           [1, 128, 14, 14]          4,096
│    │    └─BatchNorm2d: 3-45                      [1, 128, 14, 14]          256
│    │    └─Hardswish: 3-46                        [1, 128, 14, 14]          --
│    │    └─Conv2d: 3-47                           [1, 128, 14, 14]          3,200
│    │    └─BatchNorm2d: 3-48                      [1, 128, 14, 14]          256
│    │    └─Hardswish: 3-49                        [1, 128, 14, 14]          --
│    │    └─SeModule: 3-50                         [1, 128, 14, 14]          4,128
│    │    └─Conv2d: 3-51                           [1, 32, 14, 14]           4,096
│    │    └─BatchNorm2d: 3-52                      [1, 32, 14, 14]           64
│    │    └─Hardswish: 3-53                        [1, 32, 14, 14]           --
│    └─Block: 2-6                                  [1, 40, 14, 14]           --
│    │    └─Conv2d: 3-54                           [1, 128, 14, 14]          4,096
│    │    └─BatchNorm2d: 3-55                      [1, 128, 14, 14]          256
│    │    └─Hardswish: 3-56                        [1, 128, 14, 14]          --
│    │    └─Conv2d: 3-57                           [1, 128, 14, 14]          3,200
│    │    └─BatchNorm2d: 3-58                      [1, 128, 14, 14]          256
│    │    └─Hardswish: 3-59                        [1, 128, 14, 14]          --
│    │    └─SeModule: 3-60                         [1, 128, 14, 14]          4,128
│    │    └─Conv2d: 3-61                           [1, 40, 14, 14]           5,120
│    │    └─BatchNorm2d: 3-62                      [1, 40, 14, 14]           80
│    │    └─Sequential: 3-63                       [1, 40, 14, 14]           1,360
│    │    └─Hardswish: 3-64                        [1, 40, 14, 14]           --
│    └─Block: 2-7                                  [1, 48, 14, 14]           --
│    │    └─Conv2d: 3-65                           [1, 96, 14, 14]           3,840
│    │    └─BatchNorm2d: 3-66                      [1, 96, 14, 14]           192
│    │    └─Hardswish: 3-67                        [1, 96, 14, 14]           --
│    │    └─Conv2d: 3-68                           [1, 96, 14, 14]           2,400
│    │    └─BatchNorm2d: 3-69                      [1, 96, 14, 14]           192
│    │    └─Hardswish: 3-70                        [1, 96, 14, 14]           --
│    │    └─SeModule: 3-71                         [1, 96, 14, 14]           2,328
│    │    └─Conv2d: 3-72                           [1, 48, 14, 14]           4,608
│    │    └─BatchNorm2d: 3-73                      [1, 48, 14, 14]           96
│    │    └─Sequential: 3-74                       [1, 48, 14, 14]           2,016
│    │    └─Hardswish: 3-75                        [1, 48, 14, 14]           --
├─Conv2d: 1-5                                      [1, 64, 14, 14]           3,072
├─BatchNorm2d: 1-6                                 [1, 64, 14, 14]           128
├─Hardswish: 1-7                                   [1, 64, 14, 14]           --
├─AdaptiveAvgPool2d: 1-8                           [1, 64, 1, 1]             --
├─Linear: 1-9                                      [1, 128]                  8,192
├─BatchNorm1d: 1-10                                [1, 128]                  256
├─Hardswish: 1-11                                  [1, 128]                  --
├─Dropout: 1-12                                    [1, 128]                  --
├─Linear: 1-13                                     [1, 2]                    258
====================================================================================================
Total params: 76,858
Trainable params: 76,858
Non-trainable params: 0
Total mult-adds (M): 25.51
====================================================================================================
Input size (MB): 0.60
Forward/backward pass size (MB): 17.49
Params size (MB): 0.31
Estimated Total Size (MB): 18.40
…
