…
********* Datasets Length *********
Train Dataset Length: 640
Test Dataset Length: 384

Trainable parameters = 68914
Total parameters = 68914

==================================================================================================================================
Layer (type:depth-idx)                                                           Output Shape              Param #
==================================================================================================================================
MobileNetV2_MINI_RESNET                                                          [1, 2]                    --
├─Sequential: 1-1                                                                [1, 64, 14, 14]           60,206
│    └─QuantIdentity: 2-1                                                        [1, 3, 224, 224]          --
│    │    └─ActQuantProxyFromInjector: 3-1                                       [1, 3, 224, 224]          --
│    │    └─ActQuantProxyFromInjector: 3-2                                       [1, 3, 224, 224]          1
├─Sequential: 1-72                                                               --                        (recursive)
│    └─QuantReLU: 2-88                                                           --                        (recursive)
│    │    └─ActQuantProxyFromInjector: 3-96                                      --                        (recursive)
├─Sequential: 1-73                                                               --                        (recursive)
│    └─QuantIdentity: 2-3                                                        --                        (recursive)
│    │    └─ActQuantProxyFromInjector: 3-4                                       --                        (recursive)
│    └─Sequential: 2-4                                                           [1, 32, 112, 112]         --
│    │    └─QuantConv2d: 3-5                                                     [1, 32, 112, 112]         864
│    │    └─BatchNorm2d: 3-6                                                     [1, 32, 112, 112]         64
│    │    └─QuantReLU: 3-7                                                       [1, 32, 112, 112]         1
├─Sequential: 1-72                                                               --                        (recursive)
│    └─QuantReLU: 2-88                                                           --                        (recursive)
│    │    └─ActQuantProxyFromInjector: 3-96                                      --                        (recursive)
├─Sequential: 1-73                                                               --                        (recursive)
│    └─Sequential: 2-6                                                           --                        (recursive)
│    │    └─QuantReLU: 3-9                                                       --                        (recursive)
│    └─InvertedBlock: 2-7                                                        [1, 8, 112, 112]          --
│    │    └─Sequential: 3-10                                                     [1, 8, 112, 112]          626
├─Sequential: 1-72                                                               --                        (recursive)
│    └─QuantReLU: 2-88                                                           --                        (recursive)
│    │    └─ActQuantProxyFromInjector: 3-96                                      --                        (recursive)
├─Sequential: 1-73                                                               --                        (recursive)
…
│    └─QuantReLU: 2-88                                                           --                        (recursive)
│    │    └─ActQuantProxyFromInjector: 3-96                                      --                        (recursive)
├─Sequential: 1-73                                                               --                        (recursive)
│    └─InvertedBlock: 2-89                                                       --                        (recursive)
│    │    └─Sequential: 3-94                                                     --                        (recursive)
│    │    └─QuantIdentity: 3-95                                                  [1, 64, 14, 14]           1
├─Sequential: 1-72                                                               --                        (recursive)
│    └─QuantReLU: 2-88                                                           --                        (recursive)
│    │    └─ActQuantProxyFromInjector: 3-96                                      --                        (recursive)
├─Sequential: 1-73                                                               --                        (recursive)
│    └─InvertedBlock: 2-89                                                       --                        (recursive)
│    │    └─QuantIdentity: 3-97                                                  --                        (recursive)
├─Sequential: 1-74                                                               [1, 128, 14, 14]          --
│    └─QuantConv2d: 2-90                                                         [1, 128, 14, 14]          --
│    │    └─ActQuantProxyFromInjector: 3-98                                      [1, 64, 14, 14]           --
│    │    └─WeightQuantProxyFromInjector: 3-99                                   [128, 64, 1, 1]           8,192
│    │    └─ActQuantProxyFromInjector: 3-100                                     [1, 128, 14, 14]          --
│    └─BatchNorm2d: 2-91                                                         [1, 128, 14, 14]          256
│    └─QuantReLU: 2-92                                                           [1, 128, 14, 14]          --
│    │    └─ActQuantProxyFromInjector: 3-101                                     [1, 128, 14, 14]          --
│    │    └─ActQuantProxyFromInjector: 3-102                                     [1, 128, 14, 14]          1
├─TruncAvgPool2d: 1-75                                                           [1, 128, 1, 1]            --
│    └─TruncQuantProxyFromInjector: 2-93                                         [1, 128, 1, 1]            --
│    │    └─TruncIntQuant: 3-103                                                 [1, 128, 1, 1]            --
├─QuantLinear: 1-76                                                              [1, 2]                    2
│    └─ActQuantProxyFromInjector: 2-94                                           [1, 128]                  --
│    └─WeightQuantProxyFromInjector: 2-95                                        [2, 128]                  --
│    │    └─RescalingIntQuant: 3-104                                             [2, 128]                  256
│    └─BiasQuantProxyFromInjector: 2-96                                          [2]                       --
│    │    └─PrescaledRestrictIntQuant: 3-105                                     [2]                       --
│    └─ActQuantProxyFromInjector: 2-97                                           [1, 2]                    --
==================================================================================================================================
Total params: 163,666
Trainable params: 163,666
Non-trainable params: 0
Total mult-adds (M): 0.00
==================================================================================================================================
Input size (MB): 0.60
Forward/backward pass size (MB): 16.26
…
