…
    (0): Conv2d(64, 128, kernel_size=(1, 1), stride=(1, 1), bias=False)
    (1): BatchNorm2d(128, eps=1e-05, momentum=0.1, affine=True, track_running_stats=True)
    (2): ReLU()
  )
  (avgpool): AdaptiveAvgPool2d(output_size=(1, 1))
  (classifier): Linear(in_features=128, out_features=2, bias=True)
)
==========================================================================================
Layer (type:depth-idx)                   Output Shape              Param #
==========================================================================================
MobileNetV2_MINI                         [1, 2]                    --
Sequential: 1-1                        [1, 64, 14, 14]           --
    Sequential: 2-1                   [1, 32, 112, 112]         --
        Conv2d: 3-1                  [1, 32, 112, 112]         864
        BatchNorm2d: 3-2             [1, 32, 112, 112]         64
        ReLU: 3-3                    [1, 32, 112, 112]         --
    InvertedBlock: 2-2                [1, 8, 112, 112]          --
        Sequential: 3-4              [1, 8, 112, 112]          624
    InvertedBlock: 2-3                [1, 16, 56, 56]           --
        Sequential: 3-5              [1, 16, 56, 56]           624
    InvertedBlock: 2-4                [1, 16, 56, 56]           --
        Sequential: 3-6              [1, 16, 56, 56]           1,472
    InvertedBlock: 2-5                [1, 24, 28, 28]           --
        Sequential: 3-7              [1, 24, 28, 28]           1,744
    InvertedBlock: 2-6                [1, 24, 28, 28]           --
        Sequential: 3-8              [1, 24, 28, 28]           2,976
    InvertedBlock: 2-7                [1, 32, 14, 14]           --
        Sequential: 3-9              [1, 32, 14, 14]           6,688
    InvertedBlock: 2-8                [1, 32, 14, 14]           --
        Sequential: 3-10             [1, 32, 14, 14]           9,920
    InvertedBlock: 2-9                [1, 32, 14, 14]           --
        Sequential: 3-11             [1, 32, 14, 14]           9,920
    InvertedBlock: 2-10               [1, 64, 14, 14]           --
        Sequential: 3-12             [1, 64, 14, 14]           7,104
    InvertedBlock: 2-11               [1, 64, 14, 14]           --
        Sequential: 3-13             [1, 64, 14, 14]           18,176
Sequential: 1-2                        [1, 128, 14, 14]          --
    Conv2d: 2-12                      [1, 128, 14, 14]          8,192
    BatchNorm2d: 2-13                 [1, 128, 14, 14]          256
    ReLU: 2-14                        [1, 128, 14, 14]          --
AdaptiveAvgPool2d: 1-3                 [1, 128, 1, 1]            --
Linear: 1-4                            [1, 2]                    258
==========================================================================================
Total params: 68,882
Trainable params: 68,882
Non-trainable params: 0
Total mult-adds (M): 41.82
==========================================================================================
Input size (MB): 0.60
Forward/backward pass size (MB): 32.51
Params size (MB): 0.28
Estimated Total Size (MB): 33.39
==========================================================================================
…
