…
    (2): Sequential(
      (0): Conv2d(16, 16, kernel_size=(1, 1), stride=(1, 1), bias=False)
      (1): BatchNorm2d(16, eps=1e-05, momentum=0.1, affine=True, track_running_stats=True)
      (2): ReLU6(inplace=True)
    )
    (3): Conv2d(16, 12, kernel_size=(1, 1), stride=(1, 1))
  )
)

Model Summary
==========================================================================================
Layer (type:depth-idx)                   Output Shape              Param #
==========================================================================================
MobileNetV2_DET                          [1, 12, 7, 7]             --
├─Sequential: 1-1                        [1, 128, 7, 7]            --
│    └─Sequential: 2-1                   [1, 32, 112, 112]         --
│    │    └─Conv2d: 3-1                  [1, 32, 112, 112]         864
│    │    └─BatchNorm2d: 3-2             [1, 32, 112, 112]         64
│    │    └─ReLU6: 3-3                   [1, 32, 112, 112]         --
│    └─InvertedResidual: 2-2             [1, 16, 112, 112]         --
│    │    └─Sequential: 3-4              [1, 16, 112, 112]         896
│    └─InvertedResidual: 2-3             [1, 24, 56, 56]           --
│    │    └─Sequential: 3-5              [1, 24, 56, 56]           5,136
│    └─InvertedResidual: 2-4             [1, 24, 56, 56]           --
│    │    └─Sequential: 3-6              [1, 24, 56, 56]           8,832
│    └─InvertedResidual: 2-5             [1, 32, 28, 28]           --
│    │    └─Sequential: 3-7              [1, 32, 28, 28]           10,000
│    └─InvertedResidual: 2-6             [1, 32, 28, 28]           --
│    │    └─Sequential: 3-8              [1, 32, 28, 28]           14,848
│    └─InvertedResidual: 2-7             [1, 32, 28, 28]           --
│    │    └─Sequential: 3-9              [1, 32, 28, 28]           14,848
│    └─InvertedResidual: 2-8             [1, 64, 14, 14]           --
│    │    └─Sequential: 3-10             [1, 64, 14, 14]           21,056
│    └─InvertedResidual: 2-9             [1, 64, 14, 14]           --
│    │    └─Sequential: 3-11             [1, 64, 14, 14]           54,272
│    └─InvertedResidual: 2-10            [1, 64, 14, 14]           --
│    │    └─Sequential: 3-12             [1, 64, 14, 14]           54,272
│    └─InvertedResidual: 2-11            [1, 96, 14, 14]           --
│    │    └─Sequential: 3-13             [1, 96, 14, 14]           66,624
│    └─InvertedResidual: 2-12            [1, 96, 14, 14]           --
│    │    └─Sequential: 3-14             [1, 96, 14, 14]           118,272
│    └─InvertedResidual: 2-13            [1, 128, 7, 7]            --
│    │    └─Sequential: 3-15             [1, 128, 7, 7]            136,768
├─Sequential: 1-2                        [1, 12, 7, 7]             --
│    └─Sequential: 2-14                  [1, 64, 7, 7]             --
│    │    └─Conv2d: 3-16                 [1, 64, 7, 7]             8,192
│    │    └─BatchNorm2d: 3-17            [1, 64, 7, 7]             128
│    │    └─ReLU6: 3-18                  [1, 64, 7, 7]             --
│    └─Sequential: 2-15                  [1, 16, 7, 7]             --
│    │    └─Conv2d: 3-19                 [1, 16, 7, 7]             1,024
│    │    └─BatchNorm2d: 3-20            [1, 16, 7, 7]             32
│    │    └─ReLU6: 3-21                  [1, 16, 7, 7]             --
│    └─Sequential: 2-16                  [1, 16, 7, 7]             --
│    │    └─Conv2d: 3-22                 [1, 16, 7, 7]             256
│    │    └─BatchNorm2d: 3-23            [1, 16, 7, 7]             32
│    │    └─ReLU6: 3-24                  [1, 16, 7, 7]             --
│    └─Conv2d: 2-17                      [1, 12, 7, 7]             204
==========================================================================================
Total params: 516,620
Trainable params: 516,620
Non-trainable params: 0
Total mult-adds (M): 192.05
==========================================================================================
Input size (MB): 0.60
Forward/backward pass size (MB): 94.36
Params size (MB): 2.07
Estimated Total Size (MB): 97.03
==========================================================================================
…
