…
    (relu46): ReLU()
    (avgpool5): AdaptiveAvgPool2d(output_size=(1, 1))
    (flatten5): Flatten(start_dim=1, end_dim=-1)
    (linear51): Linear(in_features=64, out_features=16, bias=True)
    (relu5): ReLU()
    (linear52): Linear(in_features=16, out_features=2, bias=True)
  )
)
Original FP32 Model Summary
==========================================================================================
Layer (type:depth-idx)                   Output Shape              Param #
==========================================================================================
BED_CLASSIFIER_DOWNTO_28                 [64, 2]                   --
├─Sequential: 1-1                        [64, 2]                   --
│    └─Conv2d: 2-1                       [64, 32, 224, 224]        864
│    └─BatchNorm2d: 2-2                  [64, 32, 224, 224]        64
│    └─ReLU: 2-3                         [64, 32, 224, 224]        --
│    └─MaxPool2d: 2-4                    [64, 32, 112, 112]        --
│    └─Conv2d: 2-5                       [64, 16, 112, 112]        4,608
│    └─BatchNorm2d: 2-6                  [64, 16, 112, 112]        32
│    └─ReLU: 2-7                         [64, 16, 112, 112]        --
│    └─MaxPool2d: 2-8                    [64, 16, 56, 56]          --
│    └─Conv2d: 2-9                       [64, 16, 56, 56]          256
│    └─BatchNorm2d: 2-10                 [64, 16, 56, 56]          32
│    └─ReLU: 2-11                        [64, 16, 56, 56]          --
│    └─Conv2d: 2-12                      [64, 32, 56, 56]          4,608
│    └─BatchNorm2d: 2-13                 [64, 32, 56, 56]          64
│    └─ReLU: 2-14                        [64, 32, 56, 56]          --
│    └─Conv2d: 2-15                      [64, 32, 56, 56]          1,024
│    └─BatchNorm2d: 2-16                 [64, 32, 56, 56]          64
│    └─ReLU: 2-17                        [64, 32, 56, 56]          --
│    └─Conv2d: 2-18                      [64, 64, 56, 56]          18,432
│    └─BatchNorm2d: 2-19                 [64, 64, 56, 56]          128
│    └─ReLU: 2-20                        [64, 64, 56, 56]          --
│    └─MaxPool2d: 2-21                   [64, 64, 28, 28]          --
│    └─Conv2d: 2-22                      [64, 32, 28, 28]          2,048
│    └─BatchNorm2d: 2-23                 [64, 32, 28, 28]          64
│    └─ReLU: 2-24                        [64, 32, 28, 28]          --
│    └─Conv2d: 2-25                      [64, 64, 28, 28]          18,432
│    └─BatchNorm2d: 2-26                 [64, 64, 28, 28]          128
│    └─ReLU: 2-27                        [64, 64, 28, 28]          --
│    └─Conv2d: 2-28                      [64, 32, 28, 28]          2,048
│    └─BatchNorm2d: 2-29                 [64, 32, 28, 28]          64
│    └─ReLU: 2-30                        [64, 32, 28, 28]          --
│    └─Conv2d: 2-31                      [64, 64, 28, 28]          18,432
│    └─BatchNorm2d: 2-32                 [64, 64, 28, 28]          128
│    └─ReLU: 2-33                        [64, 64, 28, 28]          --
│    └─Conv2d: 2-34                      [64, 32, 28, 28]          2,048
│    └─BatchNorm2d: 2-35                 [64, 32, 28, 28]          64
│    └─ReLU: 2-36                        [64, 32, 28, 28]          --
│    └─Conv2d: 2-37                      [64, 64, 28, 28]          18,432
│    └─BatchNorm2d: 2-38                 [64, 64, 28, 28]          128
│    └─ReLU: 2-39                        [64, 64, 28, 28]          --
│    └─AdaptiveAvgPool2d: 2-40           [64, 64, 1, 1]            --
│    └─Flatten: 2-41                     [64, 64]                  --
│    └─Linear: 2-42                      [64, 16]                  1,040
│    └─ReLU: 2-43                        [64, 16]                  --
│    └─Linear: 2-44                      [64, 2]                   34
==========================================================================================
Total params: 93,266
Trainable params: 93,266
Non-trainable params: 0
Total mult-adds (G): 14.44
==========================================================================================
Input size (MB): 38.54
Forward/backward pass size (MB): 2543.33
Params size (MB): 0.37
Estimated Total Size (MB): 2582.24
…
    (relu46): ReLU()
    (avgpool5): AdaptiveAvgPool2d(output_size=(1, 1))
    (flatten5): Flatten(start_dim=1, end_dim=-1)
    (linear51): Linear(in_features=64, out_features=16, bias=True)
    (relu5): ReLU()
    (linear52): Linear(in_features=16, out_features=2, bias=True)
  )
)
Compressed Model Summary
==========================================================================================
Layer (type:depth-idx)                   Output Shape              Param #
==========================================================================================
BED_CLASSIFIER_DOWNTO_28                 [1, 2]                    --
├─Sequential: 1-1                        [1, 2]                    --
│    └─Sequential: 2-1                   [1, 32, 224, 224]         --
│    │    └─Conv2d: 3-1                  [1, 6, 224, 224]          54
│    │    └─Conv2d: 3-2                  [1, 32, 224, 224]         576
│    └─BatchNorm2d: 2-2                  [1, 32, 224, 224]         64
│    └─ReLU: 2-3                         [1, 32, 224, 224]         --
│    └─MaxPool2d: 2-4                    [1, 32, 112, 112]         --
│    └─Sequential: 2-5                   [1, 16, 112, 112]         --
│    │    └─Conv2d: 3-3                  [1, 22, 112, 112]         2,112
│    │    └─Conv2d: 3-4                  [1, 16, 112, 112]         1,056
│    └─BatchNorm2d: 2-6                  [1, 16, 112, 112]         32
│    └─ReLU: 2-7                         [1, 16, 112, 112]         --
│    └─MaxPool2d: 2-8                    [1, 16, 56, 56]           --
│    └─Conv2d: 2-9                       [1, 16, 56, 56]           256
│    └─BatchNorm2d: 2-10                 [1, 16, 56, 56]           32
│    └─ReLU: 2-11                        [1, 16, 56, 56]           --
│    └─Sequential: 2-12                  [1, 32, 56, 56]           --
│    │    └─Conv2d: 3-5                  [1, 28, 56, 56]           1,344
│    │    └─Conv2d: 3-6                  [1, 32, 56, 56]           2,688
│    └─BatchNorm2d: 2-13                 [1, 32, 56, 56]           64
│    └─ReLU: 2-14                        [1, 32, 56, 56]           --
│    └─Conv2d: 2-15                      [1, 32, 56, 56]           1,024
│    └─BatchNorm2d: 2-16                 [1, 32, 56, 56]           64
│    └─ReLU: 2-17                        [1, 32, 56, 56]           --
│    └─Sequential: 2-18                  [1, 64, 56, 56]           --
│    │    └─Conv2d: 3-7                  [1, 44, 56, 56]           4,224
│    │    └─Conv2d: 3-8                  [1, 64, 56, 56]           8,448
│    └─BatchNorm2d: 2-19                 [1, 64, 56, 56]           128
│    └─ReLU: 2-20                        [1, 64, 56, 56]           --
│    └─MaxPool2d: 2-21                   [1, 64, 28, 28]           --
│    └─Conv2d: 2-22                      [1, 32, 28, 28]           2,048
│    └─BatchNorm2d: 2-23                 [1, 32, 28, 28]           64
│    └─ReLU: 2-24                        [1, 32, 28, 28]           --
│    └─Sequential: 2-25                  [1, 64, 28, 28]           --
│    │    └─Conv2d: 3-9                  [1, 38, 28, 28]           3,648
│    │    └─Conv2d: 3-10                 [1, 64, 28, 28]           7,296
│    └─BatchNorm2d: 2-26                 [1, 64, 28, 28]           128
│    └─ReLU: 2-27                        [1, 64, 28, 28]           --
│    └─Sequential: 2-28                  [1, 32, 28, 28]           --
│    │    └─Conv2d: 3-11                 [1, 17, 28, 28]           1,088
│    │    └─Conv2d: 3-12                 [1, 32, 28, 28]           544
│    └─BatchNorm2d: 2-29                 [1, 32, 28, 28]           64
│    └─ReLU: 2-30                        [1, 32, 28, 28]           --
│    └─Sequential: 2-31                  [1, 64, 28, 28]           --
│    │    └─Conv2d: 3-13                 [1, 25, 28, 28]           2,400
│    │    └─Conv2d: 3-14                 [1, 64, 28, 28]           4,800
│    └─BatchNorm2d: 2-32                 [1, 64, 28, 28]           128
│    └─ReLU: 2-33                        [1, 64, 28, 28]           --
│    └─Sequential: 2-34                  [1, 32, 28, 28]           --
│    │    └─Conv2d: 3-15                 [1, 4, 28, 28]            256
│    │    └─Conv2d: 3-16                 [1, 32, 28, 28]           128
│    └─BatchNorm2d: 2-35                 [1, 32, 28, 28]           64
│    └─ReLU: 2-36                        [1, 32, 28, 28]           --
│    └─Sequential: 2-37                  [1, 64, 28, 28]           --
│    │    └─Conv2d: 3-17                 [1, 6, 28, 28]            576
│    │    └─Conv2d: 3-18                 [1, 64, 28, 28]           1,152
│    └─BatchNorm2d: 2-38                 [1, 64, 28, 28]           128
│    └─ReLU: 2-39                        [1, 64, 28, 28]           --
│    └─AdaptiveAvgPool2d: 2-40           [1, 64, 1, 1]             --
│    └─Flatten: 2-41                     [1, 64]                   --
│    └─Linear: 2-42                      [1, 16]                   1,040
│    └─ReLU: 2-43                        [1, 16]                   --
│    └─Linear: 2-44                      [1, 2]                    34
==========================================================================================
Total params: 47,752
Trainable params: 47,752
Non-trainable params: 0
Total mult-adds (M): 146.52
==========================================================================================
Input size (MB): 0.60
Forward/backward pass size (MB): 46.73
Params size (MB): 0.19
Estimated Total Size (MB): 47.52
==========================================================================================
…
    (relu46): ReLU()
    (avgpool5): AdaptiveAvgPool2d(output_size=(1, 1))
    (flatten5): Flatten(start_dim=1, end_dim=-1)
    (linear51): Linear(in_features=64, out_features=16, bias=True)
    (relu5): ReLU()
    (linear52): Linear(in_features=16, out_features=2, bias=True)
  )
)

Compressed Model Summary
==========================================================================================
Layer (type:depth-idx)                   Output Shape              Param #
==========================================================================================
BED_CLASSIFIER_DOWNTO_28                 [1, 2]                    --
├─Sequential: 1-1                        [1, 2]                    --
│    └─Sequential: 2-1                   [1, 25, 224, 224]         --
│    │    └─Conv2d: 3-1                  [1, 5, 224, 224]          45
│    │    └─Conv2d: 3-2                  [1, 25, 224, 224]         375
│    └─BatchNorm2d: 2-2                  [1, 25, 224, 224]         50
│    └─ReLU: 2-3                         [1, 25, 224, 224]         --
│    └─MaxPool2d: 2-4                    [1, 25, 112, 112]         --
│    └─Sequential: 2-5                   [1, 16, 112, 112]         --
│    │    └─Conv2d: 3-3                  [1, 19, 112, 112]         1,425
│    │    └─Conv2d: 3-4                  [1, 16, 112, 112]         912
│    └─BatchNorm2d: 2-6                  [1, 16, 112, 112]         32
│    └─ReLU: 2-7                         [1, 16, 112, 112]         --
│    └─MaxPool2d: 2-8                    [1, 16, 56, 56]           --
│    └─Conv2d: 2-9                       [1, 16, 56, 56]           256
│    └─BatchNorm2d: 2-10                 [1, 16, 56, 56]           32
│    └─ReLU: 2-11                        [1, 16, 56, 56]           --
│    └─Sequential: 2-12                  [1, 32, 56, 56]           --
│    │    └─Conv2d: 3-5                  [1, 28, 56, 56]           1,344
│    │    └─Conv2d: 3-6                  [1, 32, 56, 56]           2,688
│    └─BatchNorm2d: 2-13                 [1, 32, 56, 56]           64
│    └─ReLU: 2-14                        [1, 32, 56, 56]           --
│    └─Conv2d: 2-15                      [1, 32, 56, 56]           1,024
│    └─BatchNorm2d: 2-16                 [1, 32, 56, 56]           64
│    └─ReLU: 2-17                        [1, 32, 56, 56]           --
│    └─Sequential: 2-18                  [1, 57, 56, 56]           --
│    │    └─Conv2d: 3-7                  [1, 44, 56, 56]           4,224
│    │    └─Conv2d: 3-8                  [1, 57, 56, 56]           7,524
│    └─BatchNorm2d: 2-19                 [1, 57, 56, 56]           114
│    └─ReLU: 2-20                        [1, 57, 56, 56]           --
│    └─MaxPool2d: 2-21                   [1, 57, 28, 28]           --
│    └─Conv2d: 2-22                      [1, 28, 28, 28]           1,596
│    └─BatchNorm2d: 2-23                 [1, 28, 28, 28]           56
│    └─ReLU: 2-24                        [1, 28, 28, 28]           --
│    └─Sequential: 2-25                  [1, 57, 28, 28]           --
│    │    └─Conv2d: 3-9                  [1, 34, 28, 28]           2,856
│    │    └─Conv2d: 3-10                 [1, 57, 28, 28]           5,814
│    └─BatchNorm2d: 2-26                 [1, 57, 28, 28]           114
│    └─ReLU: 2-27                        [1, 57, 28, 28]           --
│    └─Sequential: 2-28                  [1, 28, 28, 28]           --
│    │    └─Conv2d: 3-11                 [1, 17, 28, 28]           969
│    │    └─Conv2d: 3-12                 [1, 28, 28, 28]           476
│    └─BatchNorm2d: 2-29                 [1, 28, 28, 28]           56
│    └─ReLU: 2-30                        [1, 28, 28, 28]           --
│    └─Sequential: 2-31                  [1, 25, 28, 28]           --
│    │    └─Conv2d: 3-13                 [1, 25, 28, 28]           2,100
│    │    └─Conv2d: 3-14                 [1, 25, 28, 28]           1,875
│    └─BatchNorm2d: 2-32                 [1, 25, 28, 28]           50
│    └─ReLU: 2-33                        [1, 25, 28, 28]           --
│    └─Sequential: 2-34                  [1, 16, 28, 28]           --
│    │    └─Conv2d: 3-15                 [1, 4, 28, 28]            100
│    │    └─Conv2d: 3-16                 [1, 16, 28, 28]           64
│    └─BatchNorm2d: 2-35                 [1, 16, 28, 28]           32
│    └─ReLU: 2-36                        [1, 16, 28, 28]           --
│    └─Sequential: 2-37                  [1, 64, 28, 28]           --
│    │    └─Conv2d: 3-17                 [1, 5, 28, 28]            240
│    │    └─Conv2d: 3-18                 [1, 64, 28, 28]           960
│    └─BatchNorm2d: 2-38                 [1, 64, 28, 28]           128
│    └─ReLU: 2-39                        [1, 64, 28, 28]           --
│    └─AdaptiveAvgPool2d: 2-40           [1, 64, 1, 1]             --
│    └─Flatten: 2-41                     [1, 64]                   --
│    └─Linear: 2-42                      [1, 16]                   1,040
│    └─ReLU: 2-43                        [1, 16]                   --
│    └─Linear: 2-44                      [1, 2]                    34
==========================================================================================
Total params: 38,733
Trainable params: 38,733
Non-trainable params: 0
Total mult-adds (M): 117.26
==========================================================================================
Input size (MB): 0.60
Forward/backward pass size (MB): 39.14
Params size (MB): 0.15
Estimated Total Size (MB): 39.90
==========================================================================================
…
