…
│    │    └─InvertedResidual: 3-8                       [1, 48, 14, 14]           (21,968)
│    │    └─InvertedResidual: 3-9                       [1, 48, 14, 14]           (29,800)
│    │    └─InvertedResidual: 3-10                      [1, 96, 7, 7]             (91,848)
│    │    └─InvertedResidual: 3-11                      [1, 96, 7, 7]             (294,096)
│    │    └─InvertedResidual: 3-12                      [1, 96, 7, 7]             (294,096)
│    │    └─Conv2dNormActivation: 3-13                  [1, 576, 7, 7]            (56,448)
│    └─AdaptiveAvgPool2d: 2-2                           [1, 576, 1, 1]            --
├─AdaptiveAvgPool2d: 1-2                                [1, 576, 1, 1]            --
├─Sequential: 1-3                                       [1, 2]                    --
│    └─Dropout: 2-3                                     [1, 576]                  --
│    └─Linear: 2-4                                      [1, 32]                   18,464
│    └─ReLU: 2-5                                        [1, 32]                   --
│    └─Dropout: 2-6                                     [1, 32]                   --
│    └─Linear: 2-7                                      [1, 2]                    66
=========================================================================================================
Total params: 945,538
Trainable params: 18,530
Non-trainable params: 927,008
Total mult-adds (M): 54.93
=========================================================================================================
Input size (MB): 0.60
Forward/backward pass size (MB): 22.63
Params size (MB): 3.78
…
