…
          (msb_clamp_bit_width_impl): BitWidthConst(
            (bit_width): StatelessBuffer()
          )
          (zero_point): StatelessBuffer()
        )
      )
    )
  )
)

Model Summary
=============================================================================================================================
Layer (type:depth-idx)                                                      Output Shape              Param #
=============================================================================================================================
QUANT_PRUNED_AFTER_SVD_BED_DETECTOR                                         [1, 12, 7, 7]             --
Sequential: 1-1                                                           [1, 12, 7, 7]             --
    QuantIdentity: 2-1                                                   [1, 3, 224, 224]          --
        ActQuantProxyFromInjector: 3-1                                  [1, 3, 224, 224]          --
        ActQuantProxyFromInjector: 3-2                                  [1, 3, 224, 224]          1
    QuantReLU: 2-97                                                      --                        (recursive)
        ActQuantProxyFromInjector: 3-151                                --                        (recursive)
    QuantIdentity: 2-3                                                   --                        (recursive)
        ActQuantProxyFromInjector: 3-4                                  --                        (recursive)
    Sequential: 2-4                                                      [1, 32, 224, 224]         --
        QuantConv2d: 3-5                                                [1, 5, 224, 224]          45
        QuantConv2d: 3-6                                                [1, 32, 224, 224]         512
    QuantReLU: 2-5                                                       [1, 32, 224, 224]         --
        ActQuantProxyFromInjector: 3-7                                  [1, 32, 224, 224]         --
        ActQuantProxyFromInjector: 3-8                                  [1, 32, 224, 224]         1
    QuantReLU: 2-97                                                      --                        (recursive)
        ActQuantProxyFromInjector: 3-151                                --                        (recursive)
    QuantReLU: 2-7                                                       --                        (recursive)
        ActQuantProxyFromInjector: 3-10                                 --                        (recursive)
    Dropout2d: 2-8                                                       [1, 32, 224, 224]         --
    QuantMaxPool2d: 2-9                                                  [1, 32, 112, 112]         --
    Sequential: 2-10                                                     [1, 11, 112, 112]         --
        QuantConv2d: 3-11                                               [1, 4, 112, 112]          384
        QuantConv2d: 3-12                                               [1, 11, 112, 112]         143
    QuantReLU: 2-11                                                      [1, 11, 112, 112]         --
        ActQuantProxyFromInjector: 3-13                                 [1, 11, 112, 112]         --
        ActQuantProxyFromInjector: 3-14                                 [1, 11, 112, 112]         1
    QuantReLU: 2-97                                                      --                        (recursive)
        ActQuantProxyFromInjector: 3-151                                --                        (recursive)
    QuantReLU: 2-13                                                      --                        (recursive)
        ActQuantProxyFromInjector: 3-16                                 --                        (recursive)
    Dropout2d: 2-14                                                      [1, 11, 112, 112]         --
    QuantMaxPool2d: 2-15                                                 [1, 11, 56, 56]           --
    Sequential: 2-16                                                     [1, 14, 56, 56]           --
        QuantConv2d: 3-17                                               [1, 3, 56, 56]            33
        QuantConv2d: 3-18                                               [1, 14, 56, 56]           56
    QuantReLU: 2-17                                                      [1, 14, 56, 56]           --
        ActQuantProxyFromInjector: 3-19                                 [1, 14, 56, 56]           --
        ActQuantProxyFromInjector: 3-20                                 [1, 14, 56, 56]           1
    QuantReLU: 2-97                                                      --                        (recursive)
        ActQuantProxyFromInjector: 3-151                                --                        (recursive)
    QuantReLU: 2-19                                                      --                        (recursive)
        ActQuantProxyFromInjector: 3-22                                 --                        (recursive)
    Sequential: 2-20                                                     [1, 25, 56, 56]           --
        QuantConv2d: 3-23                                               [1, 14, 56, 56]           588
        QuantConv2d: 3-24                                               [1, 25, 56, 56]           1,075
    QuantReLU: 2-21                                                      [1, 25, 56, 56]           --
        ActQuantProxyFromInjector: 3-25                                 [1, 25, 56, 56]           --
        ActQuantProxyFromInjector: 3-26                                 [1, 25, 56, 56]           1
    QuantReLU: 2-97                                                      --                        (recursive)
        ActQuantProxyFromInjector: 3-151                                --                        (recursive)
    QuantReLU: 2-23                                                      --                        (recursive)
        ActQuantProxyFromInjector: 3-28                                 --                        (recursive)
    QuantConv2d: 2-24                                                    [1, 22, 56, 56]           22
        ActQuantProxyFromInjector: 3-29                                 [1, 25, 56, 56]           --
        WeightQuantProxyFromInjector: 3-30                              [22, 25, 1, 1]            550
        BiasQuantProxyFromInjector: 3-31                                [22]                      --
        ActQuantProxyFromInjector: 3-32                                 [1, 22, 56, 56]           --
    QuantReLU: 2-25                                                      [1, 22, 56, 56]           --
        ActQuantProxyFromInjector: 3-33                                 [1, 22, 56, 56]           --
        ActQuantProxyFromInjector: 3-34                                 [1, 22, 56, 56]           1
    QuantReLU: 2-97                                                      --                        (recursive)
        ActQuantProxyFromInjector: 3-151                                --                        (recursive)
    QuantReLU: 2-27                                                      --                        (recursive)
        ActQuantProxyFromInjector: 3-36                                 --                        (recursive)
    Sequential: 2-28                                                     [1, 64, 56, 56]           --
        QuantConv2d: 3-37                                               [1, 30, 56, 56]           1,980
        QuantConv2d: 3-38                                               [1, 64, 56, 56]           5,824
    QuantReLU: 2-29                                                      [1, 64, 56, 56]           --
        ActQuantProxyFromInjector: 3-39                                 [1, 64, 56, 56]           --
        ActQuantProxyFromInjector: 3-40                                 [1, 64, 56, 56]           1
    QuantReLU: 2-97                                                      --                        (recursive)
        ActQuantProxyFromInjector: 3-151                                --                        (recursive)
    QuantReLU: 2-31                                                      --                        (recursive)
        ActQuantProxyFromInjector: 3-42                                 --                        (recursive)
    QuantMaxPool2d: 2-32                                                 [1, 64, 28, 28]           --
    QuantConv2d: 2-33                                                    [1, 28, 28, 28]           28
        ActQuantProxyFromInjector: 3-43                                 [1, 64, 28, 28]           --
        WeightQuantProxyFromInjector: 3-44                              [28, 64, 1, 1]            1,792
        BiasQuantProxyFromInjector: 3-45                                [28]                      --
        ActQuantProxyFromInjector: 3-46                                 [1, 28, 28, 28]           --
    QuantReLU: 2-34                                                      [1, 28, 28, 28]           --
        ActQuantProxyFromInjector: 3-47                                 [1, 28, 28, 28]           --
        ActQuantProxyFromInjector: 3-48                                 [1, 28, 28, 28]           1
    QuantReLU: 2-97                                                      --                        (recursive)
        ActQuantProxyFromInjector: 3-151                                --                        (recursive)
    QuantReLU: 2-36                                                      --                        (recursive)
        ActQuantProxyFromInjector: 3-50                                 --                        (recursive)
    Sequential: 2-37                                                     [1, 64, 28, 28]           --
        QuantConv2d: 3-51                                               [1, 38, 28, 28]           3,192
        QuantConv2d: 3-52                                               [1, 64, 28, 28]           7,360
    QuantReLU: 2-38                                                      [1, 64, 28, 28]           --
        ActQuantProxyFromInjector: 3-53                                 [1, 64, 28, 28]           --
        ActQuantProxyFromInjector: 3-54                                 [1, 64, 28, 28]           1
    QuantReLU: 2-97                                                      --                        (recursive)
        ActQuantProxyFromInjector: 3-151                                --                        (recursive)
    QuantReLU: 2-40                                                      --                        (recursive)
        ActQuantProxyFromInjector: 3-56                                 --                        (recursive)
    QuantConv2d: 2-41                                                    [1, 28, 28, 28]           28
        ActQuantProxyFromInjector: 3-57                                 [1, 64, 28, 28]           --
        WeightQuantProxyFromInjector: 3-58                              [28, 64, 1, 1]            1,792
        BiasQuantProxyFromInjector: 3-59                                [28]                      --
        ActQuantProxyFromInjector: 3-60                                 [1, 28, 28, 28]           --
    QuantReLU: 2-42                                                      [1, 28, 28, 28]           --
        ActQuantProxyFromInjector: 3-61                                 [1, 28, 28, 28]           --
        ActQuantProxyFromInjector: 3-62                                 [1, 28, 28, 28]           1
    QuantReLU: 2-97                                                      --                        (recursive)
        ActQuantProxyFromInjector: 3-151                                --                        (recursive)
    QuantReLU: 2-44                                                      --                        (recursive)
        ActQuantProxyFromInjector: 3-64                                 --                        (recursive)
    Sequential: 2-45                                                     [1, 57, 28, 28]           --
        QuantConv2d: 3-65                                               [1, 25, 28, 28]           2,100
        QuantConv2d: 3-66                                               [1, 57, 28, 28]           4,332
    QuantReLU: 2-46                                                      [1, 57, 28, 28]           --
        ActQuantProxyFromInjector: 3-67                                 [1, 57, 28, 28]           --
        ActQuantProxyFromInjector: 3-68                                 [1, 57, 28, 28]           1
    QuantReLU: 2-97                                                      --                        (recursive)
        ActQuantProxyFromInjector: 3-151                                --                        (recursive)
    QuantReLU: 2-48                                                      --                        (recursive)
        ActQuantProxyFromInjector: 3-70                                 --                        (recursive)
    Sequential: 2-49                                                     [1, 28, 28, 28]           --
        QuantConv2d: 3-71                                               [1, 15, 28, 28]           855
        QuantConv2d: 3-72                                               [1, 28, 28, 28]           448
    QuantReLU: 2-50                                                      [1, 28, 28, 28]           --
        ActQuantProxyFromInjector: 3-73                                 [1, 28, 28, 28]           --
        ActQuantProxyFromInjector: 3-74                                 [1, 28, 28, 28]           1
    QuantReLU: 2-97                                                      --                        (recursive)
        ActQuantProxyFromInjector: 3-151                                --                        (recursive)
    QuantReLU: 2-52                                                      --                        (recursive)
        ActQuantProxyFromInjector: 3-76                                 --                        (recursive)
    Sequential: 2-53                                                     [1, 57, 28, 28]           --
        QuantConv2d: 3-77                                               [1, 28, 28, 28]           2,352
        QuantConv2d: 3-78                                               [1, 57, 28, 28]           4,845
    QuantReLU: 2-54                                                      [1, 57, 28, 28]           --
        ActQuantProxyFromInjector: 3-79                                 [1, 57, 28, 28]           --
        ActQuantProxyFromInjector: 3-80                                 [1, 57, 28, 28]           1
    QuantReLU: 2-97                                                      --                        (recursive)
        ActQuantProxyFromInjector: 3-151                                --                        (recursive)
    QuantReLU: 2-56                                                      --                        (recursive)
        ActQuantProxyFromInjector: 3-82                                 --                        (recursive)
    QuantMaxPool2d: 2-57                                                 [1, 57, 14, 14]           --
    Sequential: 2-58                                                     [1, 32, 14, 14]           --
        QuantConv2d: 3-83                                               [1, 14, 14, 14]           798
        QuantConv2d: 3-84                                               [1, 32, 14, 14]           480
    QuantReLU: 2-59                                                      [1, 32, 14, 14]           --
        ActQuantProxyFromInjector: 3-85                                 [1, 32, 14, 14]           --
        ActQuantProxyFromInjector: 3-86                                 [1, 32, 14, 14]           1
    QuantReLU: 2-97                                                      --                        (recursive)
        ActQuantProxyFromInjector: 3-151                                --                        (recursive)
    QuantReLU: 2-61                                                      --                        (recursive)
        ActQuantProxyFromInjector: 3-88                                 --                        (recursive)
    Sequential: 2-62                                                     [1, 64, 14, 14]           --
        QuantConv2d: 3-89                                               [1, 40, 14, 14]           3,840
        QuantConv2d: 3-90                                               [1, 64, 14, 14]           7,744
    QuantReLU: 2-63                                                      [1, 64, 14, 14]           --
        ActQuantProxyFromInjector: 3-91                                 [1, 64, 14, 14]           --
        ActQuantProxyFromInjector: 3-92                                 [1, 64, 14, 14]           1
    QuantReLU: 2-97                                                      --                        (recursive)
        ActQuantProxyFromInjector: 3-151                                --                        (recursive)
    QuantReLU: 2-65                                                      --                        (recursive)
        ActQuantProxyFromInjector: 3-94                                 --                        (recursive)
    QuantConv2d: 2-66                                                    [1, 32, 14, 14]           32
        ActQuantProxyFromInjector: 3-95                                 [1, 64, 14, 14]           --
        WeightQuantProxyFromInjector: 3-96                              [32, 64, 1, 1]            2,048
        BiasQuantProxyFromInjector: 3-97                                [32]                      --
        ActQuantProxyFromInjector: 3-98                                 [1, 32, 14, 14]           --
    QuantReLU: 2-67                                                      [1, 32, 14, 14]           --
        ActQuantProxyFromInjector: 3-99                                 [1, 32, 14, 14]           --
        ActQuantProxyFromInjector: 3-100                                [1, 32, 14, 14]           1
    QuantReLU: 2-97                                                      --                        (recursive)
        ActQuantProxyFromInjector: 3-151                                --                        (recursive)
    QuantReLU: 2-69                                                      --                        (recursive)
        ActQuantProxyFromInjector: 3-102                                --                        (recursive)
    Sequential: 2-70                                                     [1, 64, 14, 14]           --
        QuantConv2d: 3-103                                              [1, 45, 14, 14]           4,320
        QuantConv2d: 3-104                                              [1, 64, 14, 14]           8,704
    QuantReLU: 2-71                                                      [1, 64, 14, 14]           --
        ActQuantProxyFromInjector: 3-105                                [1, 64, 14, 14]           --
        ActQuantProxyFromInjector: 3-106                                [1, 64, 14, 14]           1
    QuantReLU: 2-97                                                      --                        (recursive)
        ActQuantProxyFromInjector: 3-151                                --                        (recursive)
    QuantReLU: 2-73                                                      --                        (recursive)
        ActQuantProxyFromInjector: 3-108                                --                        (recursive)
    Sequential: 2-74                                                     [1, 64, 14, 14]           --
        QuantConv2d: 3-109                                              [1, 67, 14, 14]           12,864
        QuantConv2d: 3-110                                              [1, 64, 14, 14]           12,928
    QuantReLU: 2-75                                                      [1, 64, 14, 14]           --
        ActQuantProxyFromInjector: 3-111                                [1, 64, 14, 14]           --
        ActQuantProxyFromInjector: 3-112                                [1, 64, 14, 14]           1
    QuantReLU: 2-97                                                      --                        (recursive)
        ActQuantProxyFromInjector: 3-151                                --                        (recursive)
    QuantReLU: 2-77                                                      --                        (recursive)
        ActQuantProxyFromInjector: 3-114                                --                        (recursive)
    Sequential: 2-78                                                     [1, 64, 14, 14]           --
        QuantConv2d: 3-115                                              [1, 77, 14, 14]           14,784
        QuantConv2d: 3-116                                              [1, 64, 14, 14]           14,848
    QuantReLU: 2-79                                                      [1, 64, 14, 14]           --
        ActQuantProxyFromInjector: 3-117                                [1, 64, 14, 14]           --
        ActQuantProxyFromInjector: 3-118                                [1, 64, 14, 14]           1
    QuantReLU: 2-97                                                      --                        (recursive)
        ActQuantProxyFromInjector: 3-151                                --                        (recursive)
    QuantReLU: 2-81                                                      --                        (recursive)
        ActQuantProxyFromInjector: 3-120                                --                        (recursive)
    QuantMaxPool2d: 2-82                                                 [1, 64, 7, 7]             --
    QuantConv2d: 2-83                                                    [1, 64, 7, 7]             64
        ActQuantProxyFromInjector: 3-121                                [1, 64, 7, 7]             --
        WeightQuantProxyFromInjector: 3-122                             [64, 64, 3, 3]            36,864
        BiasQuantProxyFromInjector: 3-123                               [64]                      --
        ActQuantProxyFromInjector: 3-124                                [1, 64, 7, 7]             --
    QuantReLU: 2-84                                                      [1, 64, 7, 7]             --
        ActQuantProxyFromInjector: 3-125                                [1, 64, 7, 7]             --
        ActQuantProxyFromInjector: 3-126                                [1, 64, 7, 7]             1
    QuantReLU: 2-97                                                      --                        (recursive)
        ActQuantProxyFromInjector: 3-151                                --                        (recursive)
    QuantReLU: 2-86                                                      --                        (recursive)
        ActQuantProxyFromInjector: 3-128                                --                        (recursive)
    QuantConv2d: 2-87                                                    [1, 64, 7, 7]             64
        ActQuantProxyFromInjector: 3-129                                [1, 64, 7, 7]             --
        WeightQuantProxyFromInjector: 3-130                             [64, 64, 3, 3]            36,864
        BiasQuantProxyFromInjector: 3-131                               [64]                      --
        ActQuantProxyFromInjector: 3-132                                [1, 64, 7, 7]             --
    QuantReLU: 2-88                                                      [1, 64, 7, 7]             --
        ActQuantProxyFromInjector: 3-133                                [1, 64, 7, 7]             --
        ActQuantProxyFromInjector: 3-134                                [1, 64, 7, 7]             1
    QuantReLU: 2-97                                                      --                        (recursive)
        ActQuantProxyFromInjector: 3-151                                --                        (recursive)
    QuantReLU: 2-90                                                      --                        (recursive)
        ActQuantProxyFromInjector: 3-136                                --                        (recursive)
    QuantConv2d: 2-91                                                    [1, 64, 7, 7]             64
        ActQuantProxyFromInjector: 3-137                                [1, 64, 7, 7]             --
        WeightQuantProxyFromInjector: 3-138                             [64, 64, 1, 1]            4,096
        BiasQuantProxyFromInjector: 3-139                               [64]                      --
        ActQuantProxyFromInjector: 3-140                                [1, 64, 7, 7]             --
    QuantReLU: 2-92                                                      [1, 64, 7, 7]             --
        ActQuantProxyFromInjector: 3-141                                [1, 64, 7, 7]             --
        ActQuantProxyFromInjector: 3-142                                [1, 64, 7, 7]             1
    QuantReLU: 2-97                                                      --                        (recursive)
        ActQuantProxyFromInjector: 3-151                                --                        (recursive)
    QuantReLU: 2-94                                                      --                        (recursive)
        ActQuantProxyFromInjector: 3-144                                --                        (recursive)
    QuantConv2d: 2-95                                                    [1, 16, 7, 7]             16
        ActQuantProxyFromInjector: 3-145                                [1, 64, 7, 7]             --
        WeightQuantProxyFromInjector: 3-146                             [16, 64, 1, 1]            1,024
        BiasQuantProxyFromInjector: 3-147                               [16]                      --
        ActQuantProxyFromInjector: 3-148                                [1, 16, 7, 7]             --
    QuantReLU: 2-96                                                      [1, 16, 7, 7]             --
        ActQuantProxyFromInjector: 3-149                                [1, 16, 7, 7]             --
        ActQuantProxyFromInjector: 3-150                                [1, 16, 7, 7]             1
    QuantReLU: 2-97                                                      --                        (recursive)
        ActQuantProxyFromInjector: 3-151                                --                        (recursive)
    QuantReLU: 2-98                                                      --                        (recursive)
        ActQuantProxyFromInjector: 3-152                                --                        (recursive)
    QuantConv2d: 2-99                                                    [1, 16, 7, 7]             16
        ActQuantProxyFromInjector: 3-153                                [1, 16, 7, 7]             --
        WeightQuantProxyFromInjector: 3-154                             [16, 16, 1, 1]            256
        BiasQuantProxyFromInjector: 3-155                               [16]                      --
        ActQuantProxyFromInjector: 3-156                                [1, 16, 7, 7]             --
    QuantReLU: 2-100                                                     [1, 16, 7, 7]             --
        ActQuantProxyFromInjector: 3-157                                [1, 16, 7, 7]             --
        ActQuantProxyFromInjector: 3-158                                [1, 16, 7, 7]             1
    QuantConv2d: 2-101                                                   [1, 12, 7, 7]             12
        ActQuantProxyFromInjector: 3-159                                [1, 16, 7, 7]             --
        WeightQuantProxyFromInjector: 3-160                             [12, 16, 1, 1]            192
        BiasQuantProxyFromInjector: 3-161                               [12]                      --
        ActQuantProxyFromInjector: 3-162                                [1, 12, 7, 7]             --
=============================================================================================================================
Total params: 203,282
Trainable params: 203,282
Non-trainable params: 0
Total mult-adds (M): 0
=============================================================================================================================
Input size (MB): 0.60
Forward/backward pass size (MB): 0.00
…
