…
********* Datasets Length *********
Train Dataset Length: 640
Test Dataset Length: 384

Trainable parameters = 2226487
Total parameters = 2226487

==================================================================================================================================
Layer (type:depth-idx)                                                           Output Shape              Param #
==================================================================================================================================
MobileNetV2_ORI_RESNET                                                           [1, 2]                    --
├─Sequential: 1-1                                                                [1, 320, 7, 7]            1,811,763
│    └─QuantIdentity: 2-1                                                        [1, 3, 224, 224]          --
│    │    └─ActQuantProxyFromInjector: 3-1                                       [1, 3, 224, 224]          --
│    │    └─ActQuantProxyFromInjector: 3-2                                       [1, 3, 224, 224]          1
├─Sequential: 1-124                                                              --                        (recursive)
│    └─QuantReLU: 2-152                                                          --                        (recursive)
│    │    └─ActQuantProxyFromInjector: 3-165                                     --                        (recursive)
├─Sequential: 1-125                                                              --                        (recursive)
│    └─QuantIdentity: 2-3                                                        --                        (recursive)
│    │    └─ActQuantProxyFromInjector: 3-4                                       --                        (recursive)
│    └─Sequential: 2-4                                                           [1, 32, 112, 112]         --
│    │    └─QuantConv2d: 3-5                                                     [1, 32, 112, 112]         864
│    │    └─BatchNorm2d: 3-6                                                     [1, 32, 112, 112]         64
│    │    └─QuantReLU: 3-7                                                       [1, 32, 112, 112]         1
├─Sequential: 1-124                                                              --                        (recursive)
│    └─QuantReLU: 2-152                                                          --                        (recursive)
│    │    └─ActQuantProxyFromInjector: 3-165                                     --                        (recursive)
├─Sequential: 1-125                                                              --                        (recursive)
│    └─Sequential: 2-6                                                           --                        (recursive)
│    │    └─QuantReLU: 3-9                                                       --                        (recursive)
│    └─InvertedBlock: 2-7                                                        [1, 16, 112, 112]         --
│    │    └─Sequential: 3-10                                                     [1, 16, 112, 112]         898
├─Sequential: 1-124                                                              --                        (recursive)
│    └─QuantReLU: 2-152                                                          --                        (recursive)
│    │    └─ActQuantProxyFromInjector: 3-165                                     --                        (recursive)
├─Sequential: 1-125                                                              --                        (recursive)
…
│    └─QuantReLU: 2-152                                                          --                        (recursive)
│    │    └─ActQuantProxyFromInjector: 3-165                                     --                        (recursive)
├─Sequential: 1-125                                                              --                        (recursive)
│    └─InvertedBlock: 2-153                                                      --                        (recursive)
│    │    └─Sequential: 3-166                                                    --                        (recursive)
├─Sequential: 1-126                                                              [1, 1280, 7, 7]           --
│    └─QuantConv2d: 2-154                                                        [1, 1280, 7, 7]           --
│    │    └─ActQuantProxyFromInjector: 3-167                                     [1, 320, 7, 7]            --
│    │    └─WeightQuantProxyFromInjector: 3-168                                  [1280, 320, 1, 1]         409,600
│    │    └─ActQuantProxyFromInjector: 3-169                                     [1, 1280, 7, 7]           --
│    └─BatchNorm2d: 2-155                                                        [1, 1280, 7, 7]           2,560
│    └─QuantReLU: 2-156                                                          [1, 1280, 7, 7]           --
│    │    └─ActQuantProxyFromInjector: 3-170                                     [1, 1280, 7, 7]           --
│    │    └─ActQuantProxyFromInjector: 3-171                                     [1, 1280, 7, 7]           1
├─TruncAvgPool2d: 1-127                                                          [1, 1280, 1, 1]           --
│    └─TruncQuantProxyFromInjector: 2-157                                        [1, 1280, 1, 1]           --
│    │    └─TruncIntQuant: 3-172                                                 [1, 1280, 1, 1]           --
├─QuantLinear: 1-128                                                             [1, 2]                    2
│    └─ActQuantProxyFromInjector: 2-158                                          [1, 1280]                 --
│    └─WeightQuantProxyFromInjector: 2-159                                       [2, 1280]                 --
│    │    └─RescalingIntQuant: 3-173                                             [2, 1280]                 2,560
│    └─BiasQuantProxyFromInjector: 2-160                                         [2]                       --
│    │    └─PrescaledRestrictIntQuant: 3-174                                     [2]                       --
│    └─ActQuantProxyFromInjector: 2-161                                          [1, 2]                    --
==================================================================================================================================
Total params: 5,082,665
Trainable params: 5,082,665
Non-trainable params: 0
Total mult-adds (M): 0.03
==================================================================================================================================
Input size (MB): 0.60
Forward/backward pass size (MB): 53.42
…
