…
	Scheduler patience: 2
	Scheduler threshold: 0.001
	Scheduler min learning rate: 1e-06

Batch Size: 64
Num Workers: 6
Pin Memory: True
Epochs Freeze: 2
Epochs Fine Tuning: 3

IMG DIMS:
	Width: 224
	Height: 224

Trainable parameters = 32866
Total parameters = 374658


Torch Summary
===============================================================================================
Layer (type:depth-idx)                        Output Shape              Param #
===============================================================================================
PRETRAINED_MODEL                              [1, 2]                    --
├─Sequential: 1-1                             [1, 1024, 7, 7]           --
│    └─Sequential: 2-1                        [1, 24, 112, 112]         --
│    │    └─Conv2d: 3-1                       [1, 24, 112, 112]         (648)
│    │    └─BatchNorm2d: 3-2                  [1, 24, 112, 112]         (48)
│    │    └─ReLU: 3-3                         [1, 24, 112, 112]         --
│    └─MaxPool2d: 2-2                         [1, 24, 56, 56]           --
│    └─Sequential: 2-3                        [1, 48, 28, 28]           --
│    │    └─InvertedResidual: 3-4             [1, 48, 28, 28]           (2,400)
│    │    └─InvertedResidual: 3-5             [1, 48, 28, 28]           (1,512)
│    │    └─InvertedResidual: 3-6             [1, 48, 28, 28]           (1,512)
│    │    └─InvertedResidual: 3-7             [1, 48, 28, 28]           (1,512)
│    └─Sequential: 2-4                        [1, 96, 14, 14]           --
│    │    └─InvertedResidual: 3-8             [1, 96, 14, 14]           (8,256)
│    │    └─InvertedResidual: 3-9             [1, 96, 14, 14]           (5,328)
│    │    └─InvertedResidual: 3-10            [1, 96, 14, 14]           (5,328)
│    │    └─InvertedResidual: 3-11            [1, 96, 14, 14]           (5,328)
│    │    └─InvertedResidual: 3-12            [1, 96, 14, 14]           (5,328)
│    │    └─InvertedResidual: 3-13            [1, 96, 14, 14]           (5,328)
│    │    └─InvertedResidual: 3-14            [1, 96, 14, 14]           (5,328)
│    │    └─InvertedResidual: 3-15            [1, 96, 14, 14]           (5,328)
│    └─Sequential: 2-5                        [1, 192, 7, 7]            --
│    │    └─InvertedResidual: 3-16            [1, 192, 7, 7]            (30,336)
│    │    └─InvertedResidual: 3-17            [1, 192, 7, 7]            (19,872)
│    │    └─InvertedResidual: 3-18            [1, 192, 7, 7]            (19,872)
│    │    └─InvertedResidual: 3-19            [1, 192, 7, 7]            (19,872)
│    └─Sequential: 2-6                        [1, 1024, 7, 7]           --
│    │    └─Conv2d: 3-20                      [1, 1024, 7, 7]           (196,608)
│    │    └─BatchNorm2d: 3-21                 [1, 1024, 7, 7]           (2,048)
│    │    └─ReLU: 3-22                        [1, 1024, 7, 7]           --
├─AdaptiveAvgPool2d: 1-2                      [1, 1024, 1, 1]           --
├─Sequential: 1-3                             [1, 2]                    --
│    └─Dropout: 2-7                           [1, 1024]                 --
│    └─Linear: 2-8                            [1, 32]                   32,800
│    └─ReLU: 2-9                              [1, 32]                   --
│    └─Dropout: 2-10                          [1, 32]                   --
│    └─Linear: 2-11                           [1, 2]                    66
===============================================================================================
Total params: 374,658
Trainable params: 32,866
Non-trainable params: 341,792
Total mult-adds (M): 39.49
===============================================================================================
Input size (MB): 0.60
Forward/backward pass size (MB): 16.38
Params size (MB): 1.50
Estimated Total Size (MB): 18.48
…
