…
    (29): AdaptiveAvgPool2d(output_size=(1, 1))
    (30): Flatten(start_dim=1, end_dim=-1)
    (31): Dropout(p=0.2, inplace=False)
    (32): Linear(in_features=64, out_features=16, bias=True)
    (33): ReLU()
    (34): Linear(in_features=16, out_features=2, bias=True)
  )
)

Trainable parameters = 92786
Total parameters = 92786

==========================================================================================
Layer (type:depth-idx)                   Output Shape              Param #
==========================================================================================
BED_CLASSIFIER                           [64, 2]                   --
├─Sequential: 1-1                        [64, 2]                   --
│    └─Conv2d: 2-1                       [64, 32, 224, 224]        896
│    └─ReLU: 2-2                         [64, 32, 224, 224]        --
│    └─Dropout2d: 2-3                    [64, 32, 224, 224]        --
│    └─MaxPool2d: 2-4                    [64, 32, 112, 112]        --
│    └─Conv2d: 2-5                       [64, 16, 112, 112]        4,624
│    └─ReLU: 2-6                         [64, 16, 112, 112]        --
│    └─Dropout2d: 2-7                    [64, 16, 112, 112]        --
│    └─MaxPool2d: 2-8                    [64, 16, 56, 56]          --
│    └─Conv2d: 2-9                       [64, 16, 56, 56]          272
│    └─ReLU: 2-10                        [64, 16, 56, 56]          --
│    └─Conv2d: 2-11                      [64, 32, 56, 56]          4,640
│    └─ReLU: 2-12                        [64, 32, 56, 56]          --
│    └─Conv2d: 2-13                      [64, 32, 56, 56]          1,056
│    └─ReLU: 2-14                        [64, 32, 56, 56]          --
│    └─Conv2d: 2-15                      [64, 64, 56, 56]          18,496
│    └─ReLU: 2-16                        [64, 64, 56, 56]          --
│    └─MaxPool2d: 2-17                   [64, 64, 28, 28]          --
│    └─Conv2d: 2-18                      [64, 32, 28, 28]          2,080
│    └─ReLU: 2-19                        [64, 32, 28, 28]          --
│    └─Conv2d: 2-20                      [64, 64, 28, 28]          18,496
│    └─ReLU: 2-21                        [64, 64, 28, 28]          --
│    └─Conv2d: 2-22                      [64, 32, 28, 28]          2,080
│    └─ReLU: 2-23                        [64, 32, 28, 28]          --
│    └─Conv2d: 2-24                      [64, 64, 28, 28]          18,496
│    └─ReLU: 2-25                        [64, 64, 28, 28]          --
│    └─Conv2d: 2-26                      [64, 32, 28, 28]          2,080
│    └─ReLU: 2-27                        [64, 32, 28, 28]          --
│    └─Conv2d: 2-28                      [64, 64, 28, 28]          18,496
│    └─ReLU: 2-29                        [64, 64, 28, 28]          --
│    └─AdaptiveAvgPool2d: 2-30           [64, 64, 1, 1]            --
│    └─Flatten: 2-31                     [64, 64]                  --
│    └─Dropout: 2-32                     [64, 64]                  --
│    └─Linear: 2-33                      [64, 16]                  1,040
│    └─ReLU: 2-34                        [64, 16]                  --
│    └─Linear: 2-35                      [64, 2]                   34
==========================================================================================
Total params: 92,786
Trainable params: 92,786
Non-trainable params: 0
Total mult-adds (G): 14.60
==========================================================================================
Input size (MB): 38.54
Forward/backward pass size (MB): 1271.67
Params size (MB): 0.37
Estimated Total Size (MB): 1310.58
…
