…
    (bn72): BatchNorm2d(16, eps=1e-05, momentum=0.1, affine=True, track_running_stats=True)
    (relu72): ReLU()
    (conv73): Conv2d(16, 16, kernel_size=(1, 1), stride=(1, 1), bias=False)
    (bn73): BatchNorm2d(16, eps=1e-05, momentum=0.1, affine=True, track_running_stats=True)
    (relu73): ReLU()
    (conv74): Conv2d(16, 12, kernel_size=(1, 1), stride=(1, 1))
  )
)

Model Summary
==========================================================================================
Layer (type:depth-idx)                   Output Shape              Param #
==========================================================================================
BED_DETECTOR                             [1, 7, 7, 12]             --
├─Sequential: 1-1                        [1, 12, 7, 7]             --
│    └─Conv2d: 2-1                       [1, 32, 224, 224]         864
│    └─BatchNorm2d: 2-2                  [1, 32, 224, 224]         64
│    └─ReLU: 2-3                         [1, 32, 224, 224]         --
│    └─Dropout2d: 2-4                    [1, 32, 224, 224]         --
│    └─MaxPool2d: 2-5                    [1, 32, 112, 112]         --
│    └─Conv2d: 2-6                       [1, 16, 112, 112]         4,608
│    └─BatchNorm2d: 2-7                  [1, 16, 112, 112]         32
│    └─ReLU: 2-8                         [1, 16, 112, 112]         --
│    └─Dropout2d: 2-9                    [1, 16, 112, 112]         --
│    └─MaxPool2d: 2-10                   [1, 16, 56, 56]           --
│    └─Conv2d: 2-11                      [1, 16, 56, 56]           256
│    └─BatchNorm2d: 2-12                 [1, 16, 56, 56]           32
│    └─ReLU: 2-13                        [1, 16, 56, 56]           --
│    └─Conv2d: 2-14                      [1, 32, 56, 56]           4,608
│    └─BatchNorm2d: 2-15                 [1, 32, 56, 56]           64
│    └─ReLU: 2-16                        [1, 32, 56, 56]           --
│    └─Conv2d: 2-17                      [1, 32, 56, 56]           1,024
│    └─BatchNorm2d: 2-18                 [1, 32, 56, 56]           64
│    └─ReLU: 2-19                        [1, 32, 56, 56]           --
│    └─Conv2d: 2-20                      [1, 64, 56, 56]           18,432
│    └─BatchNorm2d: 2-21                 [1, 64, 56, 56]           128
│    └─ReLU: 2-22                        [1, 64, 56, 56]           --
│    └─MaxPool2d: 2-23                   [1, 64, 28, 28]           --
│    └─Conv2d: 2-24                      [1, 32, 28, 28]           2,048
│    └─BatchNorm2d: 2-25                 [1, 32, 28, 28]           64
│    └─ReLU: 2-26                        [1, 32, 28, 28]           --
│    └─Conv2d: 2-27                      [1, 64, 28, 28]           18,432
│    └─BatchNorm2d: 2-28                 [1, 64, 28, 28]           128
│    └─ReLU: 2-29                        [1, 64, 28, 28]           --
│    └─Conv2d: 2-30                      [1, 32, 28, 28]           2,048
│    └─BatchNorm2d: 2-31                 [1, 32, 28, 28]           64
│    └─ReLU: 2-32                        [1, 32, 28, 28]           --
│    └─Conv2d: 2-33                      [1, 64, 28, 28]           18,432
│    └─BatchNorm2d: 2-34                 [1, 64, 28, 28]           128
│    └─ReLU: 2-35                        [1, 64, 28, 28]           --
│    └─Conv2d: 2-36                      [1, 32, 28, 28]           2,048
│    └─BatchNorm2d: 2-37                 [1, 32, 28, 28]           64
│    └─ReLU: 2-38                        [1, 32, 28, 28]           --
│    └─Conv2d: 2-39                      [1, 64, 28, 28]           18,432
│    └─BatchNorm2d: 2-40                 [1, 64, 28, 28]           128
│    └─ReLU: 2-41                        [1, 64, 28, 28]           --
│    └─MaxPool2d: 2-42                   [1, 64, 14, 14]           --
│    └─Conv2d: 2-43                      [1, 32, 14, 14]           2,048
│    └─BatchNorm2d: 2-44                 [1, 32, 14, 14]           64
│    └─ReLU: 2-45                        [1, 32, 14, 14]           --
│    └─Conv2d: 2-46                      [1, 64, 14, 14]           18,432
│    └─BatchNorm2d: 2-47                 [1, 64, 14, 14]           128
│    └─ReLU: 2-48                        [1, 64, 14, 14]           --
│    └─Conv2d: 2-49                      [1, 32, 14, 14]           2,048
│    └─BatchNorm2d: 2-50                 [1, 32, 14, 14]           64
│    └─ReLU: 2-51                        [1, 32, 14, 14]           --
│    └─Conv2d: 2-52                      [1, 64, 14, 14]           18,432
│    └─BatchNorm2d: 2-53                 [1, 64, 14, 14]           128
│    └─ReLU: 2-54                        [1, 64, 14, 14]           --
│    └─Conv2d: 2-55                      [1, 64, 14, 14]           36,864
│    └─BatchNorm2d: 2-56                 [1, 64, 14, 14]           128
│    └─ReLU: 2-57                        [1, 64, 14, 14]           --
│    └─Conv2d: 2-58                      [1, 64, 14, 14]           36,864
│    └─BatchNorm2d: 2-59                 [1, 64, 14, 14]           128
│    └─ReLU: 2-60                        [1, 64, 14, 14]           --
│    └─MaxPool2d: 2-61                   [1, 64, 7, 7]             --
│    └─Conv2d: 2-62                      [1, 64, 7, 7]             36,864
│    └─BatchNorm2d: 2-63                 [1, 64, 7, 7]             128
│    └─ReLU: 2-64                        [1, 64, 7, 7]             --
│    └─Conv2d: 2-65                      [1, 64, 7, 7]             36,864
│    └─BatchNorm2d: 2-66                 [1, 64, 7, 7]             128
│    └─ReLU: 2-67                        [1, 64, 7, 7]             --
│    └─Conv2d: 2-68                      [1, 64, 7, 7]             4,096
│    └─BatchNorm2d: 2-69                 [1, 64, 7, 7]             128
│    └─ReLU: 2-70                        [1, 64, 7, 7]             --
│    └─Conv2d: 2-71                      [1, 16, 7, 7]             1,024
│    └─BatchNorm2d: 2-72                 [1, 16, 7, 7]             32
│    └─ReLU: 2-73                        [1, 16, 7, 7]             --
│    └─Conv2d: 2-74                      [1, 16, 7, 7]             256
│    └─BatchNorm2d: 2-75                 [1, 16, 7, 7]             32
│    └─ReLU: 2-76                        [1, 16, 7, 7]             --
│    └─Conv2d: 2-77                      [1, 12, 7, 7]             204
==========================================================================================
Total params: 287,276
Trainable params: 287,276
Non-trainable params: 0
Total mult-adds (M): 251.96
==========================================================================================
Input size (MB): 0.60
Forward/backward pass size (MB): 40.92
Params size (MB): 1.15
Estimated Total Size (MB): 42.67
==========================================================================================
…
