…
    (34): MaxPool2d(kernel_size=2, stride=2, padding=0, dilation=1, ceil_mode=False)
    (35): Flatten(start_dim=1, end_dim=-1)
    (36): Linear(in_features=512, out_features=192, bias=True)
    (37): ReLU()
    (38): Dropout(p=0.5, inplace=False)
    (39): Linear(in_features=192, out_features=192, bias=True)
    (40): Reshape()
  )
)

Model Summary
==========================================================================================
Layer (type:depth-idx)                   Output Shape              Param #
==========================================================================================
Tinyissimo                               [1, 12, 4, 4]             --
├─Sequential: 1-1                        [1, 12, 4, 4]             --
│    └─Conv2d: 2-1                       [1, 16, 88, 88]           432
│    └─BatchNorm2d: 2-2                  [1, 16, 88, 88]           32
│    └─ReLU: 2-3                         [1, 16, 88, 88]           --
│    └─Conv2d: 2-4                       [1, 16, 88, 88]           2,304
│    └─BatchNorm2d: 2-5                  [1, 16, 88, 88]           32
│    └─ReLU: 2-6                         [1, 16, 88, 88]           --
│    └─MaxPool2d: 2-7                    [1, 16, 44, 44]           --
│    └─Conv2d: 2-8                       [1, 16, 44, 44]           2,304
│    └─BatchNorm2d: 2-9                  [1, 16, 44, 44]           32
│    └─ReLU: 2-10                        [1, 16, 44, 44]           --
│    └─Conv2d: 2-11                      [1, 32, 44, 44]           4,608
│    └─BatchNorm2d: 2-12                 [1, 32, 44, 44]           64
│    └─ReLU: 2-13                        [1, 32, 44, 44]           --
│    └─MaxPool2d: 2-14                   [1, 32, 22, 22]           --
│    └─Conv2d: 2-15                      [1, 32, 22, 22]           9,216
│    └─BatchNorm2d: 2-16                 [1, 32, 22, 22]           64
│    └─ReLU: 2-17                        [1, 32, 22, 22]           --
│    └─Conv2d: 2-18                      [1, 64, 22, 22]           18,432
│    └─BatchNorm2d: 2-19                 [1, 64, 22, 22]           128
│    └─ReLU: 2-20                        [1, 64, 22, 22]           --
│    └─MaxPool2d: 2-21                   [1, 64, 11, 11]           --
│    └─Conv2d: 2-22                      [1, 64, 11, 11]           36,864
│    └─BatchNorm2d: 2-23                 [1, 64, 11, 11]           128
│    └─ReLU: 2-24                        [1, 64, 11, 11]           --
│    └─Conv2d: 2-25                      [1, 64, 11, 11]           36,864
│    └─BatchNorm2d: 2-26                 [1, 64, 11, 11]           128
│    └─ReLU: 2-27                        [1, 64, 11, 11]           --
│    └─MaxPool2d: 2-28                   [1, 64, 5, 5]             --
│    └─Conv2d: 2-29                      [1, 128, 5, 5]            73,728
│    └─BatchNorm2d: 2-30                 [1, 128, 5, 5]            256
│    └─ReLU: 2-31                        [1, 128, 5, 5]            --
│    └─Conv2d: 2-32                      [1, 128, 5, 5]            147,456
│    └─BatchNorm2d: 2-33                 [1, 128, 5, 5]            256
│    └─ReLU: 2-34                        [1, 128, 5, 5]            --
│    └─MaxPool2d: 2-35                   [1, 128, 2, 2]            --
│    └─Flatten: 2-36                     [1, 512]                  --
│    └─Linear: 2-37                      [1, 192]                  98,496
│    └─ReLU: 2-38                        [1, 192]                  --
│    └─Dropout: 2-39                     [1, 192]                  --
│    └─Linear: 2-40                      [1, 192]                  37,056
│    └─Reshape: 2-41                     [1, 12, 4, 4]             --
==========================================================================================
Total params: 468,880
Trainable params: 468,880
Non-trainable params: 0
Total mult-adds (M): 62.54
==========================================================================================
Input size (MB): 0.09
Forward/backward pass size (MB): 6.55
Params size (MB): 1.88
Estimated Total Size (MB): 8.52
==========================================================================================
…
