…
Trainable parameters = 180904
Total parameters = 180904

Input shape is torch.Size([4, 3, 224, 224])
Model shape is torch.Size([4, 12, 7, 7])


ORIGINAL Model Summary
==================================================================================================================================
Layer (type:depth-idx)                                                           Output Shape              Param #
==================================================================================================================================
MobileNetV2_DET_BREVITAS                                                         [1, 12, 7, 7]             --
├─Sequential: 1-1                                                                [1, 128, 7, 7]            171,044
│    └─QuantIdentity: 2-1                                                        [1, 3, 224, 224]          --
│    │    └─ActQuantProxyFromInjector: 3-1                                       [1, 3, 224, 224]          --
│    │    └─ActQuantProxyFromInjector: 3-2                                       [1, 3, 224, 224]          1
├─Sequential: 1-86                                                               --                        (recursive)
│    └─Sequential: 2-111                                                         --                        (recursive)
│    │    └─QuantRelu6: 3-124                                                    --                        (recursive)
├─Sequential: 1-87                                                               --                        (recursive)
│    └─QuantIdentity: 2-3                                                        --                        (recursive)
│    │    └─ActQuantProxyFromInjector: 3-4                                       --                        (recursive)
│    └─Sequential: 2-4                                                           [1, 32, 112, 112]         --
│    │    └─QuantConv2d: 3-5                                                     [1, 32, 112, 112]         864
│    │    └─BatchNorm2d: 3-6                                                     [1, 32, 112, 112]         64
│    │    └─QuantRelu6: 3-7                                                      [1, 32, 112, 112]         1
├─Sequential: 1-86                                                               --                        (recursive)
│    └─Sequential: 2-111                                                         --                        (recursive)
│    │    └─QuantRelu6: 3-124                                                    --                        (recursive)
├─Sequential: 1-87                                                               --                        (recursive)
│    └─Sequential: 2-6                                                           --                        (recursive)
│    │    └─QuantRelu6: 3-9                                                      --                        (recursive)
│    └─InvertedBlock: 2-7                                                        [1, 16, 112, 112]         --
│    │    └─Sequential: 3-10                                                     [1, 16, 112, 112]         898
├─Sequential: 1-86                                                               --                        (recursive)
│    └─Sequential: 2-111                                                         --                        (recursive)
│    │    └─QuantRelu6: 3-124                                                    --                        (recursive)
├─Sequential: 1-87                                                               --                        (recursive)
…
│    └─Sequential: 2-111                                                         --                        (recursive)
│    │    └─QuantRelu6: 3-124                                                    --                        (recursive)
├─Sequential: 1-87                                                               --                        (recursive)
│    └─InvertedBlock: 2-106                                                      --                        (recursive)
│    │    └─Sequential: 3-115                                                    --                        (recursive)
├─Sequential: 1-88                                                               [1, 12, 7, 7]             --
│    └─Sequential: 2-107                                                         [1, 64, 7, 7]             --
│    │    └─QuantConv2d: 3-116                                                   [1, 64, 7, 7]             8,192
│    │    └─BatchNorm2d: 3-117                                                   [1, 64, 7, 7]             128
│    │    └─QuantRelu6: 3-118                                                    [1, 64, 7, 7]             1
│    └─Sequential: 2-111                                                         --                        (recursive)
│    │    └─QuantRelu6: 3-124                                                    --                        (recursive)
│    └─Sequential: 2-109                                                         --                        (recursive)
│    │    └─QuantRelu6: 3-120                                                    --                        (recursive)
│    └─Sequential: 2-110                                                         [1, 16, 7, 7]             --
│    │    └─QuantConv2d: 3-121                                                   [1, 16, 7, 7]             1,024
│    │    └─BatchNorm2d: 3-122                                                   [1, 16, 7, 7]             32
│    │    └─QuantRelu6: 3-123                                                    [1, 16, 7, 7]             1
│    └─Sequential: 2-111                                                         --                        (recursive)
│    │    └─QuantRelu6: 3-124                                                    --                        (recursive)
│    └─Sequential: 2-112                                                         --                        (recursive)
│    │    └─QuantRelu6: 3-125                                                    --                        (recursive)
│    └─Sequential: 2-113                                                         [1, 16, 7, 7]             --
│    │    └─QuantConv2d: 3-126                                                   [1, 16, 7, 7]             256
│    │    └─BatchNorm2d: 3-127                                                   [1, 16, 7, 7]             32
│    │    └─QuantRelu6: 3-128                                                    [1, 16, 7, 7]             1
│    └─QuantConv2d: 2-114                                                        [1, 12, 7, 7]             --
│    │    └─ActQuantProxyFromInjector: 3-129                                     [1, 16, 7, 7]             --
│    │    └─WeightQuantProxyFromInjector: 3-130                                  [12, 16, 1, 1]            192
│    │    └─ActQuantProxyFromInjector: 3-131                                     [1, 12, 7, 7]             --
==================================================================================================================================
Total params: 449,141
Trainable params: 449,141
Non-trainable params: 0
Total mult-adds (M): 0.01
==================================================================================================================================
Input size (MB): 0.60
Forward/backward pass size (MB): 22.74
…
