…
Batch Size: 32
Num Workers: 4
Pin Memory: True
Epochs: 100

IMG DIMS:
	Width: 224
	Height: 224

Brevitas Config:
	Fixed Point: True
	Weights Bit Width: 4
	Big Layers Weights Bit Width: 4
	Bias Bit Width: 4
	Activations Bit Width: 4

Trainable parameters = 71480
Total parameters = 77784


Torch Summary
==========================================================================================
Layer (type:depth-idx)                   Output Shape              Param #
==========================================================================================
T2T_ViT                                  [1, 2]                    --
├─Tokens2Token: 1-1                      [1, 196, 32]              --
│    └─Unfold: 2-1                       [1, 147, 3136]            --
│    └─TokenTransformer: 2-2             [1, 3136, 16]             --
│    │    └─LayerNorm: 3-1               [1, 3136, 147]            294
│    │    └─Attention: 3-2               [1, 3136, 16]             7,328
│    │    └─LayerNorm: 3-3               [1, 3136, 16]             32
│    │    └─NeuralNet: 3-4               [1, 3136, 16]             544
│    └─Unfold: 2-3                       [1, 144, 784]             --
│    └─TokenTransformer: 2-4             [1, 784, 16]              --
│    │    └─LayerNorm: 3-5               [1, 784, 144]             288
│    │    └─Attention: 3-6               [1, 784, 16]              7,184
│    │    └─LayerNorm: 3-7               [1, 784, 16]              32
│    │    └─NeuralNet: 3-8               [1, 784, 16]              544
│    └─Unfold: 2-5                       [1, 144, 196]             --
│    └─Linear: 2-6                       [1, 196, 32]              4,640
├─ViT_Backbone: 1-2                      [1, 2]                    6,336
│    └─ModuleList: 2-7                   --                        --
│    │    └─Encoding: 3-9                [1, 197, 32]              12,608
│    │    └─Encoding: 3-10               [1, 197, 32]              12,608
│    │    └─Encoding: 3-11               [1, 197, 32]              12,608
│    │    └─Encoding: 3-12               [1, 197, 32]              12,608
│    └─LayerNorm: 2-8                    [1, 197, 32]              64
│    └─Linear: 2-9                       [1, 2]                    66
==========================================================================================
Total params: 77,784
Trainable params: 71,480
Non-trainable params: 6,304
Total mult-adds (M): 0.07
==========================================================================================
Input size (MB): 0.60
Forward/backward pass size (MB): 10.42
Params size (MB): 0.29
Estimated Total Size (MB): 11.31
==========================================================================================
…
