…
├─ModuleList: 1-75                                                     --                        (recursive)
│    └─QuantReLU: 2-154                                                --                        (recursive)
│    │    └─ActQuantProxyFromInjector: 3-194                           --                        (recursive)
├─ModuleList: 1-11                                                     --                        (recursive)
│    └─QuantIdentity: 2-5                                              --                        --
│    │    └─ActQuantProxyFromInjector: 3-6                             --                        --
│    └─QuantConv2d: 2-6                                                [1, 64, 224, 224]         1,728
│    │    └─ActQuantProxyFromInjector: 3-7                             [1, 3, 224, 224]          --
│    │    └─WeightQuantProxyFromInjector: 3-8                          [64, 3, 3, 3]             --
│    │    └─ActQuantProxyFromInjector: 3-9                             [1, 64, 224, 224]         --
│    └─BatchNorm2d: 2-7                                                [1, 64, 224, 224]         128
│    └─QuantIdentity: 2-8                                              [1, 64, 224, 224]         --
│    │    └─ActQuantProxyFromInjector: 3-10                            [1, 64, 224, 224]         --
│    │    └─ActQuantProxyFromInjector: 3-11                            [1, 64, 224, 224]         --
├─QuantIdentity: 1-59                                                  --                        --
│    └─ActQuantProxyFromInjector: 2-117                                --                        --
│    │    └─FusedActivationQuantProxy: 3-150                           --                        --
├─ModuleList: 1-11                                                     --                        (recursive)
│    └─QuantIdentity: 2-10                                             --                        --
│    │    └─ActQuantProxyFromInjector: 3-13                            --                        --
│    └─MaxPool2d: 2-11                                                 [1, 64, 112, 112]         --
│    └─QuantConv2d: 2-12                                               [1, 32, 112, 112]         18,432
│    │    └─ActQuantProxyFromInjector: 3-14                            [1, 64, 112, 112]         --
│    │    └─WeightQuantProxyFromInjector: 3-15                         [32, 64, 3, 3]            --
│    │    └─ActQuantProxyFromInjector: 3-16                            [1, 32, 112, 112]         --
│    └─BatchNorm2d: 2-13                                               [1, 32, 112, 112]         64
│    └─QuantIdentity: 2-14                                             [1, 32, 112, 112]         --
│    │    └─ActQuantProxyFromInjector: 3-17                            [1, 32, 112, 112]         --
│    │    └─ActQuantProxyFromInjector: 3-18                            [1, 32, 112, 112]         --
├─QuantIdentity: 1-59                                                  --                        --
│    └─ActQuantProxyFromInjector: 2-117                                --                        --
│    │    └─FusedActivationQuantProxy: 3-150                           --                        --
├─ModuleList: 1-11                                                     --                        (recursive)
│    └─QuantIdentity: 2-16                                             --                        --
│    │    └─ActQuantProxyFromInjector: 3-20                            --                        --
│    └─MaxPool2d: 2-17                                                 [1, 32, 56, 56]           --
│    └─QuantIdentity: 2-18                                             [1, 32, 56, 56]           --
│    │    └─ActQuantProxyFromInjector: 3-21                            [1, 32, 56, 56]           --
│    │    └─ActQuantProxyFromInjector: 3-22                            [1, 32, 56, 56]           --
├─QuantIdentity: 1-59                                                  --                        --
│    └─ActQuantProxyFromInjector: 2-117                                --                        --
│    │    └─FusedActivationQuantProxy: 3-150                           --                        --
├─ModuleList: 1-11                                                     --                        (recursive)
│    └─QuantIdentity: 2-20                                             --                        --
│    │    └─ActQuantProxyFromInjector: 3-24                            --                        --
├─ModuleList: 1-18                                                     --                        (recursive)
│    └─QuantConv2d: 2-21                                               [1, 16, 56, 56]           512
│    │    └─ActQuantProxyFromInjector: 3-25                            [1, 32, 56, 56]           --
│    │    └─WeightQuantProxyFromInjector: 3-26                         [16, 32, 1, 1]            --
│    │    └─ActQuantProxyFromInjector: 3-27                            [1, 16, 56, 56]           --
│    └─BatchNorm2d: 2-22                                               [1, 16, 56, 56]           32
│    └─QuantIdentity: 2-23                                             [1, 16, 56, 56]           --
│    │    └─ActQuantProxyFromInjector: 3-28                            [1, 16, 56, 56]           --
│    │    └─ActQuantProxyFromInjector: 3-29                            [1, 16, 56, 56]           --
├─QuantIdentity: 1-59                                                  --                        --
│    └─ActQuantProxyFromInjector: 2-117                                --                        --
│    │    └─FusedActivationQuantProxy: 3-150                           --                        --
├─ModuleList: 1-18                                                     --                        (recursive)
│    └─QuantIdentity: 2-25                                             --                        --
│    │    └─ActQuantProxyFromInjector: 3-31                            --                        --
│    └─QuantConv2d: 2-26                                               [1, 32, 56, 56]           4,608
│    │    └─ActQuantProxyFromInjector: 3-32                            [1, 16, 56, 56]           --
│    │    └─WeightQuantProxyFromInjector: 3-33                         [32, 16, 3, 3]            --
│    │    └─ActQuantProxyFromInjector: 3-34                            [1, 32, 56, 56]           --
│    └─BatchNorm2d: 2-27                                               [1, 32, 56, 56]           64
│    └─QuantIdentity: 2-28                                             [1, 32, 56, 56]           --
│    │    └─ActQuantProxyFromInjector: 3-35                            [1, 32, 56, 56]           --
│    │    └─ActQuantProxyFromInjector: 3-36                            [1, 32, 56, 56]           --
├─QuantIdentity: 1-59                                                  --                        --
│    └─ActQuantProxyFromInjector: 2-117                                --                        --
│    │    └─FusedActivationQuantProxy: 3-150                           --                        --
├─ModuleList: 1-18                                                     --                        (recursive)
│    └─QuantIdentity: 2-30                                             --                        --
│    │    └─ActQuantProxyFromInjector: 3-38                            --                        --
│    └─QuantConv2d: 2-31                                               [1, 32, 56, 56]           1,024
│    │    └─ActQuantProxyFromInjector: 3-39                            [1, 32, 56, 56]           --
│    │    └─WeightQuantProxyFromInjector: 3-40                         [32, 32, 1, 1]            --
│    │    └─ActQuantProxyFromInjector: 3-41                            [1, 32, 56, 56]           --
│    └─BatchNorm2d: 2-32                                               [1, 32, 56, 56]           64
│    └─QuantIdentity: 2-33                                             [1, 32, 56, 56]           --
│    │    └─ActQuantProxyFromInjector: 3-42                            [1, 32, 56, 56]           --
│    │    └─ActQuantProxyFromInjector: 3-43                            [1, 32, 56, 56]           --
├─QuantIdentity: 1-59                                                  --                        --
│    └─ActQuantProxyFromInjector: 2-117                                --                        --
│    │    └─FusedActivationQuantProxy: 3-150                           --                        --
├─ModuleList: 1-18                                                     --                        (recursive)
│    └─QuantIdentity: 2-35                                             --                        --
│    │    └─ActQuantProxyFromInjector: 3-45                            --                        --
├─QuantIdentity: 1-19                                                  [1, 32, 56, 56]           --
│    └─ActQuantProxyFromInjector: 2-36                                 [1, 32, 56, 56]           --
│    └─ActQuantProxyFromInjector: 2-37                                 [1, 32, 56, 56]           --
│    │    └─FusedActivationQuantProxy: 3-46                            [1, 32, 56, 56]           --
├─QuantIdentity: 1-59                                                  --                        --
│    └─ActQuantProxyFromInjector: 2-117                                --                        --
│    │    └─FusedActivationQuantProxy: 3-150                           --                        --
├─QuantIdentity: 1-21                                                  --                        --
│    └─ActQuantProxyFromInjector: 2-39                                 --                        --
│    │    └─FusedActivationQuantProxy: 3-48                            --                        --
├─ModuleList: 1-26                                                     --                        (recursive)
│    └─QuantConv2d: 2-40                                               [1, 64, 56, 56]           18,432
│    │    └─ActQuantProxyFromInjector: 3-49                            [1, 32, 56, 56]           --
│    │    └─WeightQuantProxyFromInjector: 3-50                         [64, 32, 3, 3]            --
│    │    └─ActQuantProxyFromInjector: 3-51                            [1, 64, 56, 56]           --
│    └─BatchNorm2d: 2-41                                               [1, 64, 56, 56]           128
│    └─QuantIdentity: 2-42                                             [1, 64, 56, 56]           --
│    │    └─ActQuantProxyFromInjector: 3-52                            [1, 64, 56, 56]           --
│    │    └─ActQuantProxyFromInjector: 3-53                            [1, 64, 56, 56]           --
├─QuantIdentity: 1-59                                                  --                        --
│    └─ActQuantProxyFromInjector: 2-117                                --                        --
│    │    └─FusedActivationQuantProxy: 3-150                           --                        --
├─ModuleList: 1-26                                                     --                        (recursive)
│    └─QuantIdentity: 2-44                                             --                        --
│    │    └─ActQuantProxyFromInjector: 3-55                            --                        --
│    └─MaxPool2d: 2-45                                                 [1, 64, 28, 28]           --
│    └─QuantIdentity: 2-46                                             [1, 64, 28, 28]           --
│    │    └─ActQuantProxyFromInjector: 3-56                            [1, 64, 28, 28]           --
│    │    └─ActQuantProxyFromInjector: 3-57                            [1, 64, 28, 28]           --
├─QuantIdentity: 1-59                                                  --                        --
│    └─ActQuantProxyFromInjector: 2-117                                --                        --
│    │    └─FusedActivationQuantProxy: 3-150                           --                        --
├─ModuleList: 1-26                                                     --                        (recursive)
│    └─QuantIdentity: 2-48                                             --                        --
│    │    └─ActQuantProxyFromInjector: 3-59                            --                        --
├─ModuleList: 1-37                                                     --                        (recursive)
│    └─QuantConv2d: 2-49                                               [1, 32, 28, 28]           2,048
│    │    └─ActQuantProxyFromInjector: 3-60                            [1, 64, 28, 28]           --
│    │    └─WeightQuantProxyFromInjector: 3-61                         [32, 64, 1, 1]            --
│    │    └─ActQuantProxyFromInjector: 3-62                            [1, 32, 28, 28]           --
│    └─BatchNorm2d: 2-50                                               [1, 32, 28, 28]           64
│    └─QuantIdentity: 2-51                                             [1, 32, 28, 28]           --
│    │    └─ActQuantProxyFromInjector: 3-63                            [1, 32, 28, 28]           --
│    │    └─ActQuantProxyFromInjector: 3-64                            [1, 32, 28, 28]           --
├─QuantIdentity: 1-59                                                  --                        --
│    └─ActQuantProxyFromInjector: 2-117                                --                        --
│    │    └─FusedActivationQuantProxy: 3-150                           --                        --
├─ModuleList: 1-37                                                     --                        (recursive)
│    └─QuantIdentity: 2-53                                             --                        --
│    │    └─ActQuantProxyFromInjector: 3-66                            --                        --
│    └─QuantConv2d: 2-54                                               [1, 64, 28, 28]           18,432
│    │    └─ActQuantProxyFromInjector: 3-67                            [1, 32, 28, 28]           --
│    │    └─WeightQuantProxyFromInjector: 3-68                         [64, 32, 3, 3]            --
│    │    └─ActQuantProxyFromInjector: 3-69                            [1, 64, 28, 28]           --
│    └─BatchNorm2d: 2-55                                               [1, 64, 28, 28]           128
│    └─QuantIdentity: 2-56                                             [1, 64, 28, 28]           --
│    │    └─ActQuantProxyFromInjector: 3-70                            [1, 64, 28, 28]           --
│    │    └─ActQuantProxyFromInjector: 3-71                            [1, 64, 28, 28]           --
├─QuantIdentity: 1-59                                                  --                        --
│    └─ActQuantProxyFromInjector: 2-117                                --                        --
│    │    └─FusedActivationQuantProxy: 3-150                           --                        --
├─ModuleList: 1-37                                                     --                        (recursive)
│    └─QuantIdentity: 2-58                                             --                        --
│    │    └─ActQuantProxyFromInjector: 3-73                            --                        --
│    └─QuantConv2d: 2-59                                               [1, 32, 28, 28]           2,048
│    │    └─ActQuantProxyFromInjector: 3-74                            [1, 64, 28, 28]           --
│    │    └─WeightQuantProxyFromInjector: 3-75                         [32, 64, 1, 1]            --
│    │    └─ActQuantProxyFromInjector: 3-76                            [1, 32, 28, 28]           --
│    └─BatchNorm2d: 2-60                                               [1, 32, 28, 28]           64
│    └─QuantIdentity: 2-61                                             [1, 32, 28, 28]           --
│    │    └─ActQuantProxyFromInjector: 3-77                            [1, 32, 28, 28]           --
│    │    └─ActQuantProxyFromInjector: 3-78                            [1, 32, 28, 28]           --
├─QuantIdentity: 1-59                                                  --                        --
│    └─ActQuantProxyFromInjector: 2-117                                --                        --
│    │    └─FusedActivationQuantProxy: 3-150                           --                        --
├─ModuleList: 1-37                                                     --                        (recursive)
│    └─QuantIdentity: 2-63                                             --                        --
│    │    └─ActQuantProxyFromInjector: 3-80                            --                        --
│    └─QuantConv2d: 2-64                                               [1, 64, 28, 28]           18,432
│    │    └─ActQuantProxyFromInjector: 3-81                            [1, 32, 28, 28]           --
│    │    └─WeightQuantProxyFromInjector: 3-82                         [64, 32, 3, 3]            --
│    │    └─ActQuantProxyFromInjector: 3-83                            [1, 64, 28, 28]           --
│    └─BatchNorm2d: 2-65                                               [1, 64, 28, 28]           128
│    └─QuantIdentity: 2-66                                             [1, 64, 28, 28]           --
│    │    └─ActQuantProxyFromInjector: 3-84                            [1, 64, 28, 28]           --
│    │    └─ActQuantProxyFromInjector: 3-85                            [1, 64, 28, 28]           --
├─QuantIdentity: 1-59                                                  --                        --
│    └─ActQuantProxyFromInjector: 2-117                                --                        --
│    │    └─FusedActivationQuantProxy: 3-150                           --                        --
├─ModuleList: 1-37                                                     --                        (recursive)
│    └─QuantIdentity: 2-68                                             --                        --
│    │    └─ActQuantProxyFromInjector: 3-87                            --                        --
│    └─QuantConv2d: 2-69                                               [1, 64, 28, 28]           4,096
│    │    └─ActQuantProxyFromInjector: 3-88                            [1, 64, 28, 28]           --
│    │    └─WeightQuantProxyFromInjector: 3-89                         [64, 64, 1, 1]            --
│    │    └─ActQuantProxyFromInjector: 3-90                            [1, 64, 28, 28]           --
│    └─BatchNorm2d: 2-70                                               [1, 64, 28, 28]           128
│    └─QuantIdentity: 2-71                                             [1, 64, 28, 28]           --
│    │    └─ActQuantProxyFromInjector: 3-91                            [1, 64, 28, 28]           --
│    │    └─ActQuantProxyFromInjector: 3-92                            [1, 64, 28, 28]           --
├─QuantIdentity: 1-59                                                  --                        --
│    └─ActQuantProxyFromInjector: 2-117                                --                        --
│    │    └─FusedActivationQuantProxy: 3-150                           --                        --
├─ModuleList: 1-37                                                     --                        (recursive)
│    └─QuantIdentity: 2-73                                             --                        --
│    │    └─ActQuantProxyFromInjector: 3-94                            --                        --
├─QuantIdentity: 1-38                                                  [1, 64, 28, 28]           --
│    └─ActQuantProxyFromInjector: 2-74                                 [1, 64, 28, 28]           --
│    └─ActQuantProxyFromInjector: 2-75                                 [1, 64, 28, 28]           --
│    │    └─FusedActivationQuantProxy: 3-95                            [1, 64, 28, 28]           --
├─QuantIdentity: 1-59                                                  --                        --
│    └─ActQuantProxyFromInjector: 2-117                                --                        --
│    │    └─FusedActivationQuantProxy: 3-150                           --                        --
├─QuantIdentity: 1-40                                                  --                        --
│    └─ActQuantProxyFromInjector: 2-77                                 --                        --
│    │    └─FusedActivationQuantProxy: 3-97                            --                        --
├─ModuleList: 1-45                                                     --                        (recursive)
│    └─QuantConv2d: 2-78                                               [1, 96, 28, 28]           55,296
│    │    └─ActQuantProxyFromInjector: 3-98                            [1, 64, 28, 28]           --
│    │    └─WeightQuantProxyFromInjector: 3-99                         [96, 64, 3, 3]            --
│    │    └─ActQuantProxyFromInjector: 3-100                           [1, 96, 28, 28]           --
│    └─BatchNorm2d: 2-79                                               [1, 96, 28, 28]           192
│    └─QuantIdentity: 2-80                                             [1, 96, 28, 28]           --
│    │    └─ActQuantProxyFromInjector: 3-101                           [1, 96, 28, 28]           --
│    │    └─ActQuantProxyFromInjector: 3-102                           [1, 96, 28, 28]           --
├─QuantIdentity: 1-59                                                  --                        --
│    └─ActQuantProxyFromInjector: 2-117                                --                        --
│    │    └─FusedActivationQuantProxy: 3-150                           --                        --
├─ModuleList: 1-45                                                     --                        (recursive)
│    └─QuantIdentity: 2-82                                             --                        --
│    │    └─ActQuantProxyFromInjector: 3-104                           --                        --
│    └─MaxPool2d: 2-83                                                 [1, 96, 14, 14]           --
│    └─QuantIdentity: 2-84                                             [1, 96, 14, 14]           --
│    │    └─ActQuantProxyFromInjector: 3-105                           [1, 96, 14, 14]           --
│    │    └─ActQuantProxyFromInjector: 3-106                           [1, 96, 14, 14]           --
├─QuantIdentity: 1-59                                                  --                        --
│    └─ActQuantProxyFromInjector: 2-117                                --                        --
│    │    └─FusedActivationQuantProxy: 3-150                           --                        --
├─ModuleList: 1-45                                                     --                        (recursive)
│    └─QuantIdentity: 2-86                                             --                        --
│    │    └─ActQuantProxyFromInjector: 3-108                           --                        --
├─ModuleList: 1-56                                                     --                        (recursive)
│    └─QuantConv2d: 2-87                                               [1, 48, 14, 14]           4,608
│    │    └─ActQuantProxyFromInjector: 3-109                           [1, 96, 14, 14]           --
│    │    └─WeightQuantProxyFromInjector: 3-110                        [48, 96, 1, 1]            --
│    │    └─ActQuantProxyFromInjector: 3-111                           [1, 48, 14, 14]           --
│    └─BatchNorm2d: 2-88                                               [1, 48, 14, 14]           96
│    └─QuantIdentity: 2-89                                             [1, 48, 14, 14]           --
│    │    └─ActQuantProxyFromInjector: 3-112                           [1, 48, 14, 14]           --
│    │    └─ActQuantProxyFromInjector: 3-113                           [1, 48, 14, 14]           --
├─QuantIdentity: 1-59                                                  --                        --
│    └─ActQuantProxyFromInjector: 2-117                                --                        --
│    │    └─FusedActivationQuantProxy: 3-150                           --                        --
├─ModuleList: 1-56                                                     --                        (recursive)
│    └─QuantIdentity: 2-91                                             --                        --
│    │    └─ActQuantProxyFromInjector: 3-115                           --                        --
│    └─QuantConv2d: 2-92                                               [1, 96, 14, 14]           41,472
│    │    └─ActQuantProxyFromInjector: 3-116                           [1, 48, 14, 14]           --
│    │    └─WeightQuantProxyFromInjector: 3-117                        [96, 48, 3, 3]            --
│    │    └─ActQuantProxyFromInjector: 3-118                           [1, 96, 14, 14]           --
│    └─BatchNorm2d: 2-93                                               [1, 96, 14, 14]           192
│    └─QuantIdentity: 2-94                                             [1, 96, 14, 14]           --
│    │    └─ActQuantProxyFromInjector: 3-119                           [1, 96, 14, 14]           --
│    │    └─ActQuantProxyFromInjector: 3-120                           [1, 96, 14, 14]           --
├─QuantIdentity: 1-59                                                  --                        --
│    └─ActQuantProxyFromInjector: 2-117                                --                        --
│    │    └─FusedActivationQuantProxy: 3-150                           --                        --
├─ModuleList: 1-56                                                     --                        (recursive)
│    └─QuantIdentity: 2-96                                             --                        --
│    │    └─ActQuantProxyFromInjector: 3-122                           --                        --
│    └─QuantConv2d: 2-97                                               [1, 48, 14, 14]           4,608
│    │    └─ActQuantProxyFromInjector: 3-123                           [1, 96, 14, 14]           --
│    │    └─WeightQuantProxyFromInjector: 3-124                        [48, 96, 1, 1]            --
│    │    └─ActQuantProxyFromInjector: 3-125                           [1, 48, 14, 14]           --
│    └─BatchNorm2d: 2-98                                               [1, 48, 14, 14]           96
│    └─QuantIdentity: 2-99                                             [1, 48, 14, 14]           --
│    │    └─ActQuantProxyFromInjector: 3-126                           [1, 48, 14, 14]           --
│    │    └─ActQuantProxyFromInjector: 3-127                           [1, 48, 14, 14]           --
├─QuantIdentity: 1-59                                                  --                        --
│    └─ActQuantProxyFromInjector: 2-117                                --                        --
│    │    └─FusedActivationQuantProxy: 3-150                           --                        --
├─ModuleList: 1-56                                                     --                        (recursive)
│    └─QuantIdentity: 2-101                                            --                        --
│    │    └─ActQuantProxyFromInjector: 3-129                           --                        --
│    └─QuantConv2d: 2-102                                              [1, 96, 14, 14]           41,472
│    │    └─ActQuantProxyFromInjector: 3-130                           [1, 48, 14, 14]           --
│    │    └─WeightQuantProxyFromInjector: 3-131                        [96, 48, 3, 3]            --
│    │    └─ActQuantProxyFromInjector: 3-132                           [1, 96, 14, 14]           --
│    └─BatchNorm2d: 2-103                                              [1, 96, 14, 14]           192
│    └─QuantIdentity: 2-104                                            [1, 96, 14, 14]           --
│    │    └─ActQuantProxyFromInjector: 3-133                           [1, 96, 14, 14]           --
│    │    └─ActQuantProxyFromInjector: 3-134                           [1, 96, 14, 14]           --
├─QuantIdentity: 1-59                                                  --                        --
│    └─ActQuantProxyFromInjector: 2-117                                --                        --
│    │    └─FusedActivationQuantProxy: 3-150                           --                        --
├─ModuleList: 1-56                                                     --                        (recursive)
│    └─QuantIdentity: 2-106                                            --                        --
│    │    └─ActQuantProxyFromInjector: 3-136                           --                        --
│    └─QuantConv2d: 2-107                                              [1, 96, 14, 14]           82,944
│    │    └─ActQuantProxyFromInjector: 3-137                           [1, 96, 14, 14]           --
│    │    └─WeightQuantProxyFromInjector: 3-138                        [96, 96, 3, 3]            --
│    │    └─ActQuantProxyFromInjector: 3-139                           [1, 96, 14, 14]           --
│    └─BatchNorm2d: 2-108                                              [1, 96, 14, 14]           192
│    └─QuantIdentity: 2-109                                            [1, 96, 14, 14]           --
│    │    └─ActQuantProxyFromInjector: 3-140                           [1, 96, 14, 14]           --
│    │    └─ActQuantProxyFromInjector: 3-141                           [1, 96, 14, 14]           --
├─QuantIdentity: 1-59                                                  --                        --
│    └─ActQuantProxyFromInjector: 2-117                                --                        --
│    │    └─FusedActivationQuantProxy: 3-150                           --                        --
├─ModuleList: 1-56                                                     --                        (recursive)
│    └─QuantIdentity: 2-111                                            --                        --
│    │    └─ActQuantProxyFromInjector: 3-143                           --                        --
├─QuantIdentity: 1-57                                                  [1, 96, 14, 14]           --
│    └─ActQuantProxyFromInjector: 2-112                                [1, 96, 14, 14]           --
│    └─ActQuantProxyFromInjector: 2-113                                [1, 96, 14, 14]           --
│    │    └─FusedActivationQuantProxy: 3-144                           [1, 96, 14, 14]           --
├─ModuleList: 1-60                                                     --                        (recursive)
│    └─QuantConv2d: 2-114                                              [1, 128, 14, 14]          110,592
│    │    └─ActQuantProxyFromInjector: 3-145                           [1, 96, 14, 14]           --
│    │    └─WeightQuantProxyFromInjector: 3-146                        [128, 96, 3, 3]           --
│    │    └─ActQuantProxyFromInjector: 3-147                           [1, 128, 14, 14]          --
│    └─BatchNorm2d: 2-115                                              [1, 128, 14, 14]          256
│    └─QuantIdentity: 2-116                                            [1, 128, 14, 14]          --
│    │    └─ActQuantProxyFromInjector: 3-148                           [1, 128, 14, 14]          --
│    │    └─ActQuantProxyFromInjector: 3-149                           [1, 128, 14, 14]          --
├─QuantIdentity: 1-59                                                  --                        --
│    └─ActQuantProxyFromInjector: 2-117                                --                        --
│    │    └─FusedActivationQuantProxy: 3-150                           --                        --
├─ModuleList: 1-60                                                     --                        (recursive)
│    └─QuantIdentity: 2-118                                            --                        --
│    │    └─ActQuantProxyFromInjector: 3-151                           --                        --
│    └─MaxPool2d: 2-119                                                [1, 128, 7, 7]            --
├─ModuleList: 1-73                                                     --                        (recursive)
│    └─QuantConv2d: 2-120                                              [1, 128, 7, 7]            --
│    │    └─ActQuantProxyFromInjector: 3-152                           [1, 128, 7, 7]            --
│    │    └─WeightQuantProxyFromInjector: 3-153                        [128, 128, 3, 3]          147,456
├─ModuleList: 1-75                                                     --                        (recursive)
│    └─QuantLinear: 2-153                                              --                        (recursive)
│    │    └─WeightQuantProxyFromInjector: 3-193                        --                        (recursive)
├─ModuleList: 1-73                                                     --                        (recursive)
│    └─QuantConv2d: 2-122                                              --                        (recursive)
│    │    └─WeightQuantProxyFromInjector: 3-155                        --                        (recursive)
│    │    └─ActQuantProxyFromInjector: 3-156                           [1, 128, 7, 7]            --
│    └─BatchNorm2d: 2-123                                              [1, 128, 7, 7]            256
│    └─QuantReLU: 2-124                                                [1, 128, 7, 7]            --
│    │    └─ActQuantProxyFromInjector: 3-157                           [1, 128, 7, 7]            --
│    │    └─ActQuantProxyFromInjector: 3-158                           [1, 128, 7, 7]            1
├─ModuleList: 1-75                                                     --                        (recursive)
│    └─QuantLinear: 2-153                                              --                        (recursive)
│    │    └─WeightQuantProxyFromInjector: 3-193                        --                        (recursive)
├─ModuleList: 1-73                                                     --                        (recursive)
…
│    └─QuantReLU: 2-154                                                --                        (recursive)
│    │    └─ActQuantProxyFromInjector: 3-194                           --                        (recursive)
├─ModuleList: 1-73                                                     --                        (recursive)
│    └─QuantReLU: 2-128                                                --                        (recursive)
│    │    └─ActQuantProxyFromInjector: 3-162                           --                        (recursive)
│    └─QuantConv2d: 2-129                                              [1, 128, 7, 7]            --
│    │    └─ActQuantProxyFromInjector: 3-163                           [1, 128, 7, 7]            --
│    │    └─WeightQuantProxyFromInjector: 3-164                        [128, 128, 3, 3]          147,456
├─ModuleList: 1-75                                                     --                        (recursive)
│    └─QuantLinear: 2-153                                              --                        (recursive)
│    │    └─WeightQuantProxyFromInjector: 3-193                        --                        (recursive)
├─ModuleList: 1-73                                                     --                        (recursive)
│    └─QuantConv2d: 2-131                                              --                        (recursive)
│    │    └─WeightQuantProxyFromInjector: 3-166                        --                        (recursive)
│    │    └─ActQuantProxyFromInjector: 3-167                           [1, 128, 7, 7]            --
│    └─BatchNorm2d: 2-132                                              [1, 128, 7, 7]            256
│    └─QuantReLU: 2-133                                                [1, 128, 7, 7]            --
│    │    └─ActQuantProxyFromInjector: 3-168                           [1, 128, 7, 7]            --
│    │    └─ActQuantProxyFromInjector: 3-169                           [1, 128, 7, 7]            1
├─ModuleList: 1-75                                                     --                        (recursive)
│    └─QuantLinear: 2-153                                              --                        (recursive)
│    │    └─WeightQuantProxyFromInjector: 3-193                        --                        (recursive)
├─ModuleList: 1-73                                                     --                        (recursive)
…
│    └─QuantReLU: 2-154                                                --                        (recursive)
│    │    └─ActQuantProxyFromInjector: 3-194                           --                        (recursive)
├─ModuleList: 1-73                                                     --                        (recursive)
│    └─QuantReLU: 2-137                                                --                        (recursive)
│    │    └─ActQuantProxyFromInjector: 3-173                           --                        (recursive)
├─TruncAvgPool2d: 1-74                                                 [1, 128, 1, 1]            --
│    └─TruncQuantProxyFromInjector: 2-138                              [1, 128, 1, 1]            --
│    │    └─TruncIntQuant: 3-174                                       [1, 128, 1, 1]            --
├─ModuleList: 1-75                                                     --                        (recursive)
│    └─QuantLinear: 2-139                                              [1, 64]                   --
│    │    └─ActQuantProxyFromInjector: 3-175                           [1, 128]                  --
│    │    └─WeightQuantProxyFromInjector: 3-176                        [64, 128]                 8,192
│    └─QuantLinear: 2-153                                              --                        (recursive)
│    │    └─WeightQuantProxyFromInjector: 3-193                        --                        (recursive)
│    └─QuantLinear: 2-141                                              --                        (recursive)
│    │    └─WeightQuantProxyFromInjector: 3-178                        --                        (recursive)
│    │    └─ActQuantProxyFromInjector: 3-179                           [1, 64]                   --
│    └─BatchNorm1d: 2-142                                              [1, 64]                   128
│    └─QuantReLU: 2-143                                                [1, 64]                   --
│    │    └─ActQuantProxyFromInjector: 3-180                           [1, 64]                   --
│    │    └─ActQuantProxyFromInjector: 3-181                           [1, 64]                   1
│    └─QuantLinear: 2-153                                              --                        (recursive)
│    │    └─WeightQuantProxyFromInjector: 3-193                        --                        (recursive)
│    └─QuantReLU: 2-147                                                --                        (recursive)
│    │    └─ActQuantProxyFromInjector: 3-185                           --                        (recursive)
│    └─QuantReLU: 2-154                                                --                        (recursive)
│    │    └─ActQuantProxyFromInjector: 3-194                           --                        (recursive)
│    └─QuantReLU: 2-147                                                --                        (recursive)
│    │    └─ActQuantProxyFromInjector: 3-185                           --                        (recursive)
│    └─QuantLinear: 2-148                                              [1, 32]                   --
│    │    └─ActQuantProxyFromInjector: 3-186                           [1, 64]                   --
│    │    └─WeightQuantProxyFromInjector: 3-187                        [32, 64]                  2,048
│    └─QuantLinear: 2-153                                              --                        (recursive)
│    │    └─WeightQuantProxyFromInjector: 3-193                        --                        (recursive)
│    └─QuantLinear: 2-150                                              --                        (recursive)
│    │    └─WeightQuantProxyFromInjector: 3-189                        --                        (recursive)
│    │    └─ActQuantProxyFromInjector: 3-190                           [1, 32]                   --
│    └─BatchNorm1d: 2-151                                              [1, 32]                   64
│    └─QuantReLU: 2-152                                                [1, 32]                   --
│    │    └─ActQuantProxyFromInjector: 3-191                           [1, 32]                   --
│    │    └─ActQuantProxyFromInjector: 3-192                           [1, 32]                   1
│    └─QuantLinear: 2-153                                              --                        (recursive)
│    │    └─WeightQuantProxyFromInjector: 3-193                        --                        (recursive)
│    └─QuantReLU: 2-154                                                --                        (recursive)
│    │    └─ActQuantProxyFromInjector: 3-194                           --                        (recursive)
│    └─QuantLinear: 2-155                                              [1, 2]                    --
│    │    └─ActQuantProxyFromInjector: 3-195                           [1, 32]                   --
│    │    └─WeightQuantProxyFromInjector: 3-196                        [2, 32]                   64
│    │    └─ActQuantProxyFromInjector: 3-197                           [1, 2]                    --
│    └─TensorNorm: 2-156                                               [1, 2]                    2
========================================================================================================================
Total params: 738,918
Trainable params: 738,918
Non-trainable params: 0
Total mult-adds (M): 0.00
========================================================================================================================
Input size (MB): 0.60
Forward/backward pass size (MB): 35.63
…
