…
DFire Removed wrong images: 0
DFire empty images: 2005
DFire only smoke images: 1186
DFire only fire images: 220
DFire smoke and fire images: 895
Test dataset len: 4306
Using MOBILENETV3 Classifier
Model Pretrained has 576 in features in last layer
Model Pretrained has 1024 in features in last layer
Model shape is tensor([[-0.4919, -0.1670],
        [-0.3171, -0.1347],
        [-0.4721, -0.0550],
        [-0.3352, -0.0562]], device='cuda:0', grad_fn=<CatBackward0>)
BED Model Arquitecture
PRETRAINED_MOBILENET(
  (base_model): Sequential(
    (0): Sequential(
      (0): Conv2dNormActivation(
        (0): Conv2d(3, 16, kernel_size=(3, 3), stride=(2, 2), padding=(1, 1), bias=False)
        (1): BatchNorm2d(16, eps=0.001, momentum=0.01, affine=True, track_running_stats=True)
        (2): Hardswish()
      )
      (1): InvertedResidual(
        (block): Sequential(
          (0): Conv2dNormActivation(
            (0): Conv2d(16, 16, kernel_size=(3, 3), stride=(2, 2), padding=(1, 1), groups=16, bias=False)
            (1): BatchNorm2d(16, eps=0.001, momentum=0.01, affine=True, track_running_stats=True)
            (2): ReLU(inplace=True)
          )
          (1): SqueezeExcitation(
            (avgpool): AdaptiveAvgPool2d(output_size=1)
            (fc1): Conv2d(16, 8, kernel_size=(1, 1), stride=(1, 1))
            (fc2): Conv2d(8, 16, kernel_size=(1, 1), stride=(1, 1))
            (activation): ReLU()
            (scale_activation): Hardsigmoid()
          )
          (2): Conv2dNormActivation(
            (0): Conv2d(16, 16, kernel_size=(1, 1), stride=(1, 1), bias=False)
            (1): BatchNorm2d(16, eps=0.001, momentum=0.01, affine=True, track_running_stats=True)
          )
        )
      )
      (2): InvertedResidual(
        (block): Sequential(
          (0): Conv2dNormActivation(
            (0): Conv2d(16, 72, kernel_size=(1, 1), stride=(1, 1), bias=False)
            (1): BatchNorm2d(72, eps=0.001, momentum=0.01, affine=True, track_running_stats=True)
            (2): ReLU(inplace=True)
          )
          (1): Conv2dNormActivation(
            (0): Conv2d(72, 72, kernel_size=(3, 3), stride=(2, 2), padding=(1, 1), groups=72, bias=False)
            (1): BatchNorm2d(72, eps=0.001, momentum=0.01, affine=True, track_running_stats=True)
            (2): ReLU(inplace=True)
          )
          (2): Conv2dNormActivation(
            (0): Conv2d(72, 24, kernel_size=(1, 1), stride=(1, 1), bias=False)
            (1): BatchNorm2d(24, eps=0.001, momentum=0.01, affine=True, track_running_stats=True)
          )
        )
      )
      (3): InvertedResidual(
        (block): Sequential(
          (0): Conv2dNormActivation(
            (0): Conv2d(24, 88, kernel_size=(1, 1), stride=(1, 1), bias=False)
            (1): BatchNorm2d(88, eps=0.001, momentum=0.01, affine=True, track_running_stats=True)
            (2): ReLU(inplace=True)
          )
          (1): Conv2dNormActivation(
            (0): Conv2d(88, 88, kernel_size=(3, 3), stride=(1, 1), padding=(1, 1), groups=88, bias=False)
            (1): BatchNorm2d(88, eps=0.001, momentum=0.01, affine=True, track_running_stats=True)
            (2): ReLU(inplace=True)
          )
          (2): Conv2dNormActivation(
            (0): Conv2d(88, 24, kernel_size=(1, 1), stride=(1, 1), bias=False)
            (1): BatchNorm2d(24, eps=0.001, momentum=0.01, affine=True, track_running_stats=True)
          )
        )
      )
      (4): InvertedResidual(
        (block): Sequential(
          (0): Conv2dNormActivation(
            (0): Conv2d(24, 96, kernel_size=(1, 1), stride=(1, 1), bias=False)
            (1): BatchNorm2d(96, eps=0.001, momentum=0.01, affine=True, track_running_stats=True)
            (2): Hardswish()
          )
          (1): Conv2dNormActivation(
            (0): Conv2d(96, 96, kernel_size=(5, 5), stride=(2, 2), padding=(2, 2), groups=96, bias=False)
            (1): BatchNorm2d(96, eps=0.001, momentum=0.01, affine=True, track_running_stats=True)
            (2): Hardswish()
          )
          (2): SqueezeExcitation(
            (avgpool): AdaptiveAvgPool2d(output_size=1)
            (fc1): Conv2d(96, 24, kernel_size=(1, 1), stride=(1, 1))
            (fc2): Conv2d(24, 96, kernel_size=(1, 1), stride=(1, 1))
            (activation): ReLU()
            (scale_activation): Hardsigmoid()
          )
          (3): Conv2dNormActivation(
            (0): Conv2d(96, 40, kernel_size=(1, 1), stride=(1, 1), bias=False)
            (1): BatchNorm2d(40, eps=0.001, momentum=0.01, affine=True, track_running_stats=True)
          )
        )
      )
      (5): InvertedResidual(
        (block): Sequential(
          (0): Conv2dNormActivation(
            (0): Conv2d(40, 240, kernel_size=(1, 1), stride=(1, 1), bias=False)
            (1): BatchNorm2d(240, eps=0.001, momentum=0.01, affine=True, track_running_stats=True)
            (2): Hardswish()
          )
          (1): Conv2dNormActivation(
            (0): Conv2d(240, 240, kernel_size=(5, 5), stride=(1, 1), padding=(2, 2), groups=240, bias=False)
            (1): BatchNorm2d(240, eps=0.001, momentum=0.01, affine=True, track_running_stats=True)
            (2): Hardswish()
          )
          (2): SqueezeExcitation(
            (avgpool): AdaptiveAvgPool2d(output_size=1)
            (fc1): Conv2d(240, 64, kernel_size=(1, 1), stride=(1, 1))
            (fc2): Conv2d(64, 240, kernel_size=(1, 1), stride=(1, 1))
            (activation): ReLU()
            (scale_activation): Hardsigmoid()
          )
          (3): Conv2dNormActivation(
            (0): Conv2d(240, 40, kernel_size=(1, 1), stride=(1, 1), bias=False)
            (1): BatchNorm2d(40, eps=0.001, momentum=0.01, affine=True, track_running_stats=True)
          )
        )
      )
      (6): InvertedResidual(
        (block): Sequential(
          (0): Conv2dNormActivation(
            (0): Conv2d(40, 240, kernel_size=(1, 1), stride=(1, 1), bias=False)
            (1): BatchNorm2d(240, eps=0.001, momentum=0.01, affine=True, track_running_stats=True)
            (2): Hardswish()
          )
          (1): Conv2dNormActivation(
            (0): Conv2d(240, 240, kernel_size=(5, 5), stride=(1, 1), padding=(2, 2), groups=240, bias=False)
            (1): BatchNorm2d(240, eps=0.001, momentum=0.01, affine=True, track_running_stats=True)
            (2): Hardswish()
          )
          (2): SqueezeExcitation(
            (avgpool): AdaptiveAvgPool2d(output_size=1)
            (fc1): Conv2d(240, 64, kernel_size=(1, 1), stride=(1, 1))
            (fc2): Conv2d(64, 240, kernel_size=(1, 1), stride=(1, 1))
            (activation): ReLU()
            (scale_activation): Hardsigmoid()
          )
          (3): Conv2dNormActivation(
            (0): Conv2d(240, 40, kernel_size=(1, 1), stride=(1, 1), bias=False)
            (1): BatchNorm2d(40, eps=0.001, momentum=0.01, affine=True, track_running_stats=True)
          )
        )
      )
      (7): InvertedResidual(
        (block): Sequential(
          (0): Conv2dNormActivation(
            (0): Conv2d(40, 120, kernel_size=(1, 1), stride=(1, 1), bias=False)
            (1): BatchNorm2d(120, eps=0.001, momentum=0.01, affine=True, track_running_stats=True)
            (2): Hardswish()
          )
          (1): Conv2dNormActivation(
            (0): Conv2d(120, 120, kernel_size=(5, 5), stride=(1, 1), padding=(2, 2), groups=120, bias=False)
            (1): BatchNorm2d(120, eps=0.001, momentum=0.01, affine=True, track_running_stats=True)
            (2): Hardswish()
          )
          (2): SqueezeExcitation(
            (avgpool): AdaptiveAvgPool2d(output_size=1)
            (fc1): Conv2d(120, 32, kernel_size=(1, 1), stride=(1, 1))
            (fc2): Conv2d(32, 120, kernel_size=(1, 1), stride=(1, 1))
            (activation): ReLU()
            (scale_activation): Hardsigmoid()
          )
          (3): Conv2dNormActivation(
            (0): Conv2d(120, 48, kernel_size=(1, 1), stride=(1, 1), bias=False)
            (1): BatchNorm2d(48, eps=0.001, momentum=0.01, affine=True, track_running_stats=True)
          )
        )
      )
      (8): InvertedResidual(
        (block): Sequential(
          (0): Conv2dNormActivation(
            (0): Conv2d(48, 144, kernel_size=(1, 1), stride=(1, 1), bias=False)
            (1): BatchNorm2d(144, eps=0.001, momentum=0.01, affine=True, track_running_stats=True)
            (2): Hardswish()
          )
          (1): Conv2dNormActivation(
            (0): Conv2d(144, 144, kernel_size=(5, 5), stride=(1, 1), padding=(2, 2), groups=144, bias=False)
            (1): BatchNorm2d(144, eps=0.001, momentum=0.01, affine=True, track_running_stats=True)
            (2): Hardswish()
          )
          (2): SqueezeExcitation(
            (avgpool): AdaptiveAvgPool2d(output_size=1)
            (fc1): Conv2d(144, 40, kernel_size=(1, 1), stride=(1, 1))
            (fc2): Conv2d(40, 144, kernel_size=(1, 1), stride=(1, 1))
            (activation): ReLU()
            (scale_activation): Hardsigmoid()
          )
          (3): Conv2dNormActivation(
            (0): Conv2d(144, 48, kernel_size=(1, 1), stride=(1, 1), bias=False)
            (1): BatchNorm2d(48, eps=0.001, momentum=0.01, affine=True, track_running_stats=True)
          )
        )
      )
      (9): InvertedResidual(
        (block): Sequential(
          (0): Conv2dNormActivation(
            (0): Conv2d(48, 288, kernel_size=(1, 1), stride=(1, 1), bias=False)
            (1): BatchNorm2d(288, eps=0.001, momentum=0.01, affine=True, track_running_stats=True)
            (2): Hardswish()
          )
          (1): Conv2dNormActivation(
            (0): Conv2d(288, 288, kernel_size=(5, 5), stride=(2, 2), padding=(2, 2), groups=288, bias=False)
            (1): BatchNorm2d(288, eps=0.001, momentum=0.01, affine=True, track_running_stats=True)
            (2): Hardswish()
          )
          (2): SqueezeExcitation(
            (avgpool): AdaptiveAvgPool2d(output_size=1)
            (fc1): Conv2d(288, 72, kernel_size=(1, 1), stride=(1, 1))
            (fc2): Conv2d(72, 288, kernel_size=(1, 1), stride=(1, 1))
            (activation): ReLU()
            (scale_activation): Hardsigmoid()
          )
          (3): Conv2dNormActivation(
            (0): Conv2d(288, 96, kernel_size=(1, 1), stride=(1, 1), bias=False)
            (1): BatchNorm2d(96, eps=0.001, momentum=0.01, affine=True, track_running_stats=True)
          )
        )
      )
      (10): InvertedResidual(
        (block): Sequential(
          (0): Conv2dNormActivation(
            (0): Conv2d(96, 576, kernel_size=(1, 1), stride=(1, 1), bias=False)
            (1): BatchNorm2d(576, eps=0.001, momentum=0.01, affine=True, track_running_stats=True)
            (2): Hardswish()
          )
          (1): Conv2dNormActivation(
            (0): Conv2d(576, 576, kernel_size=(5, 5), stride=(1, 1), padding=(2, 2), groups=576, bias=False)
            (1): BatchNorm2d(576, eps=0.001, momentum=0.01, affine=True, track_running_stats=True)
            (2): Hardswish()
          )
          (2): SqueezeExcitation(
            (avgpool): AdaptiveAvgPool2d(output_size=1)
            (fc1): Conv2d(576, 144, kernel_size=(1, 1), stride=(1, 1))
            (fc2): Conv2d(144, 576, kernel_size=(1, 1), stride=(1, 1))
            (activation): ReLU()
            (scale_activation): Hardsigmoid()
          )
          (3): Conv2dNormActivation(
            (0): Conv2d(576, 96, kernel_size=(1, 1), stride=(1, 1), bias=False)
            (1): BatchNorm2d(96, eps=0.001, momentum=0.01, affine=True, track_running_stats=True)
          )
        )
      )
      (11): InvertedResidual(
        (block): Sequential(
          (0): Conv2dNormActivation(
            (0): Conv2d(96, 576, kernel_size=(1, 1), stride=(1, 1), bias=False)
            (1): BatchNorm2d(576, eps=0.001, momentum=0.01, affine=True, track_running_stats=True)
            (2): Hardswish()
          )
          (1): Conv2dNormActivation(
            (0): Conv2d(576, 576, kernel_size=(5, 5), stride=(1, 1), padding=(2, 2), groups=576, bias=False)
            (1): BatchNorm2d(576, eps=0.001, momentum=0.01, affine=True, track_running_stats=True)
            (2): Hardswish()
          )
          (2): SqueezeExcitation(
            (avgpool): AdaptiveAvgPool2d(output_size=1)
            (fc1): Conv2d(576, 144, kernel_size=(1, 1), stride=(1, 1))
            (fc2): Conv2d(144, 576, kernel_size=(1, 1), stride=(1, 1))
            (activation): ReLU()
            (scale_activation): Hardsigmoid()
          )
          (3): Conv2dNormActivation(
            (0): Conv2d(576, 96, kernel_size=(1, 1), stride=(1, 1), bias=False)
            (1): BatchNorm2d(96, eps=0.001, momentum=0.01, affine=True, track_running_stats=True)
          )
        )
      )
      (12): Conv2dNormActivation(
        (0): Conv2d(96, 576, kernel_size=(1, 1), stride=(1, 1), bias=False)
        (1): BatchNorm2d(576, eps=0.001, momentum=0.01, affine=True, track_running_stats=True)
        (2): Hardswish()
      )
    )
    (1): AdaptiveAvgPool2d(output_size=1)
  )
  (pool): AdaptiveAvgPool2d(output_size=(1, 1))
  (smoke): Sequential(
    (0): Dropout(p=0.2, inplace=False)
    (1): Linear(in_features=576, out_features=16, bias=True)
    (2): ReLU()
    (3): Linear(in_features=16, out_features=1, bias=True)
  )
  (fire): Sequential(
    (0): Dropout(p=0.2, inplace=False)
    (1): Linear(in_features=576, out_features=16, bias=True)
    (2): ReLU()
    (3): Linear(in_features=16, out_features=1, bias=True)
  )
)

Trainable parameters = 945506
Total parameters = 945506

VAL Metrics of Pytorch Model
SMOKE -> Precision: 0.9514 - Recall: 0.9588 - Accuracy: 0.9566 - F1: 0.9551
FIRE -> Precision: 0.9484 - Recall: 0.9432 - Accuracy: 0.9720 - F1: 0.9458

ONNX Metrics
SMOKE -> Precision: 0.9514 - Recall: 0.9588 - Accuracy: 0.9566 - F1: 0.9551
FIRE -> Precision: 0.9484 - Recall: 0.9432 - Accuracy: 0.9720 - F1: 0.9458
…
