…
            (bit_width): StatelessBuffer()
          )
        )
      )
    )
  )
)
Loading Model. Trained during 23 epochs
Quant Model Summary
==================================================================================================================================
Layer (type:depth-idx)                                                           Output Shape              Param #
==================================================================================================================================
QUANT_PRUNING_AFTER_SVD_CLASSIFIER                                               [64, 2]                   --
Sequential: 1-1                                                                [64, 2]                   --
    QuantIdentity: 2-1                                                        [64, 3, 224, 224]         --
        ActQuantProxyFromInjector: 3-1                                       [64, 3, 224, 224]         --
        ActQuantProxyFromInjector: 3-2                                       [64, 3, 224, 224]         --
    QuantReLU: 2-55                                                           --                        (recursive)
        ActQuantProxyFromInjector: 3-89                                      --                        (recursive)
    QuantIdentity: 2-3                                                        --                        --
        ActQuantProxyFromInjector: 3-4                                       --                        --
    QuantConv2d: 2-4                                                          [64, 22, 224, 224]        --
        ActQuantProxyFromInjector: 3-5                                       [64, 3, 224, 224]         --
        WeightQuantProxyFromInjector: 3-6                                    [22, 3, 3, 3]             616
        BiasQuantProxyFromInjector: 3-7                                      [22]                      22
        ActQuantProxyFromInjector: 3-8                                       [64, 22, 224, 224]        --
    QuantReLU: 2-5                                                            [64, 22, 224, 224]        --
        ActQuantProxyFromInjector: 3-9                                       [64, 22, 224, 224]        --
        ActQuantProxyFromInjector: 3-10                                      [64, 22, 224, 224]        1
    QuantReLU: 2-55                                                           --                        (recursive)
        ActQuantProxyFromInjector: 3-89                                      --                        (recursive)
    QuantReLU: 2-7                                                            --                        (recursive)
        ActQuantProxyFromInjector: 3-12                                      --                        (recursive)
    Dropout2d: 2-8                                                            [64, 22, 224, 224]        --
    MaxPool2d: 2-9                                                            [64, 22, 112, 112]        --
    Sequential: 2-10                                                          [64, 16, 112, 112]        --
        QuantConv2d: 3-13                                                    [64, 6, 112, 112]         402
        QuantConv2d: 3-14                                                    [64, 16, 112, 112]        320
    QuantReLU: 2-11                                                           [64, 16, 112, 112]        --
        ActQuantProxyFromInjector: 3-15                                      [64, 16, 112, 112]        --
        ActQuantProxyFromInjector: 3-16                                      [64, 16, 112, 112]        1
    QuantReLU: 2-55                                                           --                        (recursive)
        ActQuantProxyFromInjector: 3-89                                      --                        (recursive)
    QuantReLU: 2-13                                                           --                        (recursive)
        ActQuantProxyFromInjector: 3-18                                      --                        (recursive)
    Dropout2d: 2-14                                                           [64, 16, 112, 112]        --
    MaxPool2d: 2-15                                                           [64, 16, 56, 56]          --
    QuantConv2d: 2-16                                                         [64, 14, 56, 56]          --
        ActQuantProxyFromInjector: 3-19                                      [64, 16, 56, 56]          --
        WeightQuantProxyFromInjector: 3-20                                   [14, 16, 1, 1]            238
        BiasQuantProxyFromInjector: 3-21                                     [14]                      14
        ActQuantProxyFromInjector: 3-22                                      [64, 14, 56, 56]          --
    QuantReLU: 2-17                                                           [64, 14, 56, 56]          --
        ActQuantProxyFromInjector: 3-23                                      [64, 14, 56, 56]          --
        ActQuantProxyFromInjector: 3-24                                      [64, 14, 56, 56]          1
    QuantReLU: 2-55                                                           --                        (recursive)
        ActQuantProxyFromInjector: 3-89                                      --                        (recursive)
    QuantReLU: 2-19                                                           --                        (recursive)
        ActQuantProxyFromInjector: 3-26                                      --                        (recursive)
    Sequential: 2-20                                                          [64, 32, 56, 56]          --
        QuantConv2d: 3-27                                                    [64, 16, 56, 56]          688
        QuantConv2d: 3-28                                                    [64, 32, 56, 56]          1,600
    QuantReLU: 2-21                                                           [64, 32, 56, 56]          --
        ActQuantProxyFromInjector: 3-29                                      [64, 32, 56, 56]          --
        ActQuantProxyFromInjector: 3-30                                      [64, 32, 56, 56]          1
    QuantReLU: 2-55                                                           --                        (recursive)
        ActQuantProxyFromInjector: 3-89                                      --                        (recursive)
    QuantReLU: 2-23                                                           --                        (recursive)
        ActQuantProxyFromInjector: 3-32                                      --                        (recursive)
    QuantConv2d: 2-24                                                         [64, 32, 56, 56]          --
        ActQuantProxyFromInjector: 3-33                                      [64, 32, 56, 56]          --
        WeightQuantProxyFromInjector: 3-34                                   [32, 32, 1, 1]            1,056
        BiasQuantProxyFromInjector: 3-35                                     [32]                      32
        ActQuantProxyFromInjector: 3-36                                      [64, 32, 56, 56]          --
    QuantReLU: 2-25                                                           [64, 32, 56, 56]          --
        ActQuantProxyFromInjector: 3-37                                      [64, 32, 56, 56]          --
        ActQuantProxyFromInjector: 3-38                                      [64, 32, 56, 56]          1
    QuantReLU: 2-55                                                           --                        (recursive)
        ActQuantProxyFromInjector: 3-89                                      --                        (recursive)
    QuantReLU: 2-27                                                           --                        (recursive)
        ActQuantProxyFromInjector: 3-40                                      --                        (recursive)
    Sequential: 2-28                                                          [64, 64, 56, 56]          --
        QuantConv2d: 3-41                                                    [64, 30, 56, 56]          2,910
        QuantConv2d: 3-42                                                    [64, 64, 56, 56]          5,888
    QuantReLU: 2-29                                                           [64, 64, 56, 56]          --
        ActQuantProxyFromInjector: 3-43                                      [64, 64, 56, 56]          --
        ActQuantProxyFromInjector: 3-44                                      [64, 64, 56, 56]          1
    QuantReLU: 2-55                                                           --                        (recursive)
        ActQuantProxyFromInjector: 3-89                                      --                        (recursive)
    QuantReLU: 2-31                                                           --                        (recursive)
        ActQuantProxyFromInjector: 3-46                                      --                        (recursive)
    MaxPool2d: 2-32                                                           [64, 64, 28, 28]          --
    QuantConv2d: 2-33                                                         [64, 32, 28, 28]          --
        ActQuantProxyFromInjector: 3-47                                      [64, 64, 28, 28]          --
        WeightQuantProxyFromInjector: 3-48                                   [32, 64, 1, 1]            2,080
        BiasQuantProxyFromInjector: 3-49                                     [32]                      32
        ActQuantProxyFromInjector: 3-50                                      [64, 32, 28, 28]          --
    QuantReLU: 2-34                                                           [64, 32, 28, 28]          --
        ActQuantProxyFromInjector: 3-51                                      [64, 32, 28, 28]          --
        ActQuantProxyFromInjector: 3-52                                      [64, 32, 28, 28]          1
    QuantReLU: 2-55                                                           --                        (recursive)
        ActQuantProxyFromInjector: 3-89                                      --                        (recursive)
    QuantReLU: 2-36                                                           --                        (recursive)
        ActQuantProxyFromInjector: 3-54                                      --                        (recursive)
    QuantConv2d: 2-37                                                         [64, 64, 28, 28]          --
        ActQuantProxyFromInjector: 3-55                                      [64, 32, 28, 28]          --
        WeightQuantProxyFromInjector: 3-56                                   [64, 32, 3, 3]            18,496
        BiasQuantProxyFromInjector: 3-57                                     [64]                      64
        ActQuantProxyFromInjector: 3-58                                      [64, 64, 28, 28]          --
    QuantReLU: 2-38                                                           [64, 64, 28, 28]          --
        ActQuantProxyFromInjector: 3-59                                      [64, 64, 28, 28]          --
        ActQuantProxyFromInjector: 3-60                                      [64, 64, 28, 28]          1
    QuantReLU: 2-55                                                           --                        (recursive)
        ActQuantProxyFromInjector: 3-89                                      --                        (recursive)
    QuantReLU: 2-40                                                           --                        (recursive)
        ActQuantProxyFromInjector: 3-62                                      --                        (recursive)
    QuantConv2d: 2-41                                                         [64, 32, 28, 28]          --
        ActQuantProxyFromInjector: 3-63                                      [64, 64, 28, 28]          --
        WeightQuantProxyFromInjector: 3-64                                   [32, 64, 1, 1]            2,080
        BiasQuantProxyFromInjector: 3-65                                     [32]                      32
        ActQuantProxyFromInjector: 3-66                                      [64, 32, 28, 28]          --
    QuantReLU: 2-42                                                           [64, 32, 28, 28]          --
        ActQuantProxyFromInjector: 3-67                                      [64, 32, 28, 28]          --
        ActQuantProxyFromInjector: 3-68                                      [64, 32, 28, 28]          1
    QuantReLU: 2-55                                                           --                        (recursive)
        ActQuantProxyFromInjector: 3-89                                      --                        (recursive)
    QuantReLU: 2-44                                                           --                        (recursive)
        ActQuantProxyFromInjector: 3-70                                      --                        (recursive)
    Sequential: 2-45                                                          [64, 64, 28, 28]          --
        QuantConv2d: 3-71                                                    [64, 39, 28, 28]          3,783
        QuantConv2d: 3-72                                                    [64, 64, 28, 28]          7,616
    QuantReLU: 2-46                                                           [64, 64, 28, 28]          --
        ActQuantProxyFromInjector: 3-73                                      [64, 64, 28, 28]          --
        ActQuantProxyFromInjector: 3-74                                      [64, 64, 28, 28]          1
    QuantReLU: 2-55                                                           --                        (recursive)
        ActQuantProxyFromInjector: 3-89                                      --                        (recursive)
    QuantReLU: 2-48                                                           --                        (recursive)
        ActQuantProxyFromInjector: 3-76                                      --                        (recursive)
    QuantConv2d: 2-49                                                         [64, 32, 28, 28]          --
        ActQuantProxyFromInjector: 3-77                                      [64, 64, 28, 28]          --
        WeightQuantProxyFromInjector: 3-78                                   [32, 64, 1, 1]            2,080
        BiasQuantProxyFromInjector: 3-79                                     [32]                      32
        ActQuantProxyFromInjector: 3-80                                      [64, 32, 28, 28]          --
    QuantReLU: 2-50                                                           [64, 32, 28, 28]          --
        ActQuantProxyFromInjector: 3-81                                      [64, 32, 28, 28]          --
        ActQuantProxyFromInjector: 3-82                                      [64, 32, 28, 28]          1
    QuantReLU: 2-55                                                           --                        (recursive)
        ActQuantProxyFromInjector: 3-89                                      --                        (recursive)
    QuantReLU: 2-52                                                           --                        (recursive)
        ActQuantProxyFromInjector: 3-84                                      --                        (recursive)
    Sequential: 2-53                                                          [64, 64, 28, 28]          --
        QuantConv2d: 3-85                                                    [64, 12, 28, 28]          1,164
        QuantConv2d: 3-86                                                    [64, 64, 28, 28]          2,432
    QuantReLU: 2-54                                                           [64, 64, 28, 28]          --
        ActQuantProxyFromInjector: 3-87                                      [64, 64, 28, 28]          --
        ActQuantProxyFromInjector: 3-88                                      [64, 64, 28, 28]          1
    QuantReLU: 2-55                                                           --                        (recursive)
        ActQuantProxyFromInjector: 3-89                                      --                        (recursive)
    QuantReLU: 2-56                                                           --                        (recursive)
        ActQuantProxyFromInjector: 3-90                                      --                        (recursive)
    TruncAvgPool2d: 2-57                                                      [64, 64, 1, 1]            --
        TruncQuantProxyFromInjector: 3-91                                    [64, 64, 1, 1]            --
    Flatten: 2-58                                                             [64, 64]                  --
    Dropout: 2-59                                                             [64, 64]                  --
    QuantLinear: 2-60                                                         [64, 16]                  --
        ActQuantProxyFromInjector: 3-92                                      [64, 64]                  --
        WeightQuantProxyFromInjector: 3-93                                   [16, 64]                  1,040
        BiasQuantProxyFromInjector: 3-94                                     [16]                      16
        ActQuantProxyFromInjector: 3-95                                      [64, 16]                  --
    QuantReLU: 2-61                                                           [64, 16]                  --
        ActQuantProxyFromInjector: 3-96                                      [64, 16]                  --
        ActQuantProxyFromInjector: 3-97                                      [64, 16]                  1
    QuantLinear: 2-62                                                         [64, 2]                   --
        ActQuantProxyFromInjector: 3-98                                      [64, 16]                  --
        WeightQuantProxyFromInjector: 3-99                                   [2, 16]                   34
        BiasQuantProxyFromInjector: 3-100                                    [2]                       2
        ActQuantProxyFromInjector: 3-101                                     [64, 2]                   --
==================================================================================================================================
Total params: 54,782
Trainable params: 54,782
Non-trainable params: 0
Total mult-adds (M): 0
==================================================================================================================================
Input size (MB): 38.54
Forward/backward pass size (MB): 0.00
Params size (MB): 0.00
Estimated Total Size (MB): 38.54
==================================================================================================================================
Original FP32 Model Summary
==========================================================================================
Layer (type:depth-idx)                   Output Shape              Param #
==========================================================================================
ORIGINAL_PRUNING_AFTER_SVD_CLASSIFIER    [64, 2]                   --
Sequential: 1-1                        [64, 2]                   --
    Conv2d: 2-1                       [64, 22, 224, 224]        616
    ReLU: 2-2                         [64, 22, 224, 224]        --
    Dropout2d: 2-3                    [64, 22, 224, 224]        --
    MaxPool2d: 2-4                    [64, 22, 112, 112]        --
    Sequential: 2-5                   [64, 16, 112, 112]        --
        Conv2d: 3-1                  [64, 6, 112, 112]         396
        Conv2d: 3-2                  [64, 16, 112, 112]        304
    ReLU: 2-6                         [64, 16, 112, 112]        --
    Dropout2d: 2-7                    [64, 16, 112, 112]        --
    MaxPool2d: 2-8                    [64, 16, 56, 56]          --
    Conv2d: 2-9                       [64, 14, 56, 56]          238
    ReLU: 2-10                        [64, 14, 56, 56]          --
    Sequential: 2-11                  [64, 32, 56, 56]          --
        Conv2d: 3-3                  [64, 16, 56, 56]          672
        Conv2d: 3-4                  [64, 32, 56, 56]          1,568
    ReLU: 2-12                        [64, 32, 56, 56]          --
    Conv2d: 2-13                      [64, 32, 56, 56]          1,056
    ReLU: 2-14                        [64, 32, 56, 56]          --
    Sequential: 2-15                  [64, 64, 56, 56]          --
        Conv2d: 3-5                  [64, 30, 56, 56]          2,880
        Conv2d: 3-6                  [64, 64, 56, 56]          5,824
    ReLU: 2-16                        [64, 64, 56, 56]          --
    MaxPool2d: 2-17                   [64, 64, 28, 28]          --
    Conv2d: 2-18                      [64, 32, 28, 28]          2,080
    ReLU: 2-19                        [64, 32, 28, 28]          --
    Conv2d: 2-20                      [64, 64, 28, 28]          18,496
    ReLU: 2-21                        [64, 64, 28, 28]          --
    Conv2d: 2-22                      [64, 32, 28, 28]          2,080
    ReLU: 2-23                        [64, 32, 28, 28]          --
    Sequential: 2-24                  [64, 64, 28, 28]          --
        Conv2d: 3-7                  [64, 39, 28, 28]          3,744
        Conv2d: 3-8                  [64, 64, 28, 28]          7,552
    ReLU: 2-25                        [64, 64, 28, 28]          --
    Conv2d: 2-26                      [64, 32, 28, 28]          2,080
    ReLU: 2-27                        [64, 32, 28, 28]          --
    Sequential: 2-28                  [64, 64, 28, 28]          --
        Conv2d: 3-9                  [64, 12, 28, 28]          1,152
        Conv2d: 3-10                 [64, 64, 28, 28]          2,368
    ReLU: 2-29                        [64, 64, 28, 28]          --
    AdaptiveAvgPool2d: 2-30           [64, 64, 1, 1]            --
    Flatten: 2-31                     [64, 64]                  --
    Dropout: 2-32                     [64, 64]                  --
    Linear: 2-33                      [64, 16]                  1,040
    ReLU: 2-34                        [64, 16]                  --
    Linear: 2-35                      [64, 2]                   34
==========================================================================================
Total params: 54,180
Trainable params: 54,180
Non-trainable params: 0
Total mult-adds (G): 6.98
==========================================================================================
Input size (MB): 38.54
Forward/backward pass size (MB): 1144.42
Params size (MB): 0.22
Estimated Total Size (MB): 1183.18
…
